results/run10/Romba.onnx (onnx, 76119 bytes, 6 tensors)

network_body._body_endoder.seq_layers.0.weight f4 [128, 5]
00000000: f053 833f 446d 59bf 9e5a b9be af5e 77be
00000010: f722 7d3f 2c23 8c3e 1312 d7be 3372 743f
00000020: a4f4 873f e7e4 3f3f 5948 2a3f d102 843d
00000030: ac8f 36bf e11a ccbe 800f a13e f071 193e
00000040: 64cd f43d 65a0 6bbf 4bf7 cbbe 7937 cb3e
00000050: 88b8 963e 4914 8b3e 2000 533f d211 41be
00000060: 6c77 05bf fbb3 d33e b174 dc3d 192f 3fbe
00000070: 0b8d 853e 88a2 283f e15c bcbe 72e1 373e
00000080: 89c3 aa3d 16df cb3d a1ec 453d 9cef 10bf
00000090: 107d 3fbd fcb7 633d 64cf 5ebf 0842 3e3f
000000a0: 97c6 ba3d 4bd9 12be 2d28 ebbd b5cc 27bf
000000b0: 081c f9be 3716 313f be57 a9bd 09aa 51be
000000c0: aa96 383e d395 b83d 27e8 0c3f 4fe8 353e
000000d0: 7e7c 2d3e 57df 90bd b82e 293e b9f0 ea3e
000000e0: cd73 d1bd a270 58bc e7e4 0fbe 605d 2dbf
000000f0: a314 21be 00ba 7db5 51a5 e13e 54ad 803e
00000100: a99a f83e a597 79bb 011c 3b3c 291e c23e
00000110: c6a3 a4be 77cf 9bbf 3e47 84be 7eee 073f
00000120: 759b 5c3e 0c47 9d3e 9796 113f ad81 09bf
00000130: 7b3b e1be f7e7 0fbf 9597 6bbe 4be5 2dbf
00000140: 5579 853f ad5d 573e b98c 243f 5bc0 0ebe
00000150: ecc3 44bf ce98 8b3e 3470 86bd 6edb cfbe
00000160: bdcc e63d c01e a83e 2163 0c3f 61ab 5b3c
00000170: e10a af3e e3f5 64bf 46a3 94be 523f 39bf
00000180: d43d b8bd 8a88 103f c581 873f ea40 04bf
00000190: 1e15 81bd 1a00 e03c 11f8 53be afbb 79be
000001a0: 95f8 403d 5f90 01be 1fd4 343e ffad 9dbe
000001b0: 2707 e8bd c09d 743d 25c3 bd3e 6cef de3e
000001c0: b4cc 80be 2b76 993d 0382 39bd 0d70 06be
000001d0: a75d 25bf 3e87 ae3d 8b8f a43d ecff 51be
000001e0: 474e 8e3e 2bbe 1b3d fc9d 4b3f b56c 64be
000001f0: 8909 7a3c 0b3a c5be 1a95 9f3e 4e67 a13d
00000200: 3c19 34be 7b8a 45be fe63 92bd fde1 703e
00000210: 3ac7 eebe eca6 bb3c 47e9 c4be af6b c3bc
00000220: ebcb 843d bcf9 ee3d ff0b 983d 8f8a c6bd
00000230: 3459 4ebf 0d3d 11be 38cb be3e f882 d33d
00000240: 9ddc 203f 2bb4 c4be b2ba 8c3c 1695 613f
00000250: e5e7 813e fe52 c9be 3904 9e3e f0f0 1bbf
00000260: 7d80 b33d e14a aabe 598a 9cbc 7f54 4a3e
00000270: ad5d f9be 6109 103f fcbd eb3e 690b 473e
00000280: 7f5a 9c3e 3777 073f 55f7 48bf 5a23 f03e
00000290: 861d 9fbd 63d0 523f c8bb 22be 0dfc 08be
000002a0: 568e 043f 8ba9 f3bd 32a2 b7bd 3f50 8f3e
000002b0: 1ee4 5c3e 613a c0be 4396 e63e b85d a33e
000002c0: 7a10 0b3e b2f4 6abe 0cd5 4a3e c677 14be
000002d0: 93c9 2abf 13fe 183e 5f0d 183e 5806 fe3e
000002e0: 6415 6e3e d302 adbe e03b 75bf 11bd 363d
000002f0: a9d4 113e fe35 39be 9b96 923e 16fb bc3d
00000300: 230b 15bf 14c8 5fbe b83e 283f 0e7e 3abf
00000310: 125d 6cbe 603e c53e 06d7 813e 4db3 c83c
00000320: 3871 653d 5b9f 92be 4274 97be 5b4e 24bf
00000330: bd1c 85bd 0994 813e 247c b93e 7287 25be
00000340: 39c1 56be b221 6c3e f17c c8be 3e1a 0a3f
00000350: 1688 e93e b009 ba3d cf09 9b3e 53ec 54bf
00000360: 41f1 973e 18fa 47bf 2de0 c6be 0ffc 81be
00000370: fc33 29bf 856f 173e 4b61 73be 918a 66be
00000380: 960c 853e 6e47 7b3e 89d0 c5be b822 383f
00000390: ffb7 4d3d cd08 49be 50a3 8c3e b15c c43e
000003a0: a660 71bd 65c2 f2bd a285 8a3e 63a6 d43e
000003b0: 6fcd 10be d5dc 603b 0f27 5bbc e9fd 453f
000003c0: e28d 2a3f 91e0 613f e539 95be 84aa 95be
000003d0: 3736 71be de71 6d3e c54c 323e b40a acbb
000003e0: ff78 2a3e 57d4 2d3f 2ee2 333f b152 213d
000003f0: 6d63 8abe 9763 053e ff15 c73d 36c5 74be
1.0259991 -0.8493235 -0.36201948 -0.24157213 0.9888148 0.27370584 -0.42005977 0.95486754
1.0621533 0.7495865 0.66516644 0.0644585 -0.71312976 -0.39864257 0.31457138 0.1498487
0.11953238 -0.9204162 -0.39837107 0.3969076 0.2943766 0.27163914 0.82422066 -0.18854454
-0.5213535 0.41348252 0.107644446 -0.1867031 0.2608417 0.65873003 -0.3678961 0.17957094
0.083380766 0.0995466 0.04832137 -0.56615615 -0.04675013 0.055595383 -0.870352 0.74319506
0.09119909 -0.14340703 -0.11482272 -0.65546733 -0.486542 0.6917452 -0.082686886 -0.2047502
0.18026224 0.09012952 0.55041736 0.177644 0.16942021 -0.07073849 0.16521728 0.45886782
-0.10227165 -0.0132104475 -0.14052163 -0.67720604 -0.15730529 -9.452051e-07 0.4407144 0.2513224
0.48555496 -0.0038084772 0.011420251 0.37913635 -0.321562 -1.2172688 -0.25835603 0.53098285
0.21543677 0.30718267 0.56870407 -0.53713495 -0.43990692 -0.56213325 -0.23007043 -0.67928
1.0427653 0.21031828 0.64277226 -0.13940565 -0.76861453 0.27265018 -0.0656437 -0.405971
0.112695195 0.3283596 0.5483876 0.013407559 0.34187987 -0.89437693 -0.29030818 -0.72362244
-0.08996168 0.5645834 1.0586478 -0.5166155 -0.06302856 0.027343798 -0.20700099 -0.24388002
0.047112066 -0.1265273 0.17659043 -0.3079681 -0.11329489 0.059720755 0.37062946 0.4354204
-0.25156176 0.07493242 -0.045290004 -0.13128681 -0.6459603 0.08521889 0.08035191 -0.20507783
0.27794096 0.038023155 0.7953794 -0.22307093 0.015261062 -0.38520846 0.31168443 0.07881032
-0.17587751 -0.19291107 -0.07147978 0.23523708 -0.46636373 0.022906743 -0.38459226 -0.023855058
0.06484207 0.11668727 0.07424163 -0.09694397 -0.80604863 -0.14183445 0.3726442 0.10327715
0.6283663 -0.38418707 0.017178867 0.8811811 0.25372234 -0.3932113 0.30862597 -0.60914516
0.087647416 -0.33260253 -0.019108938 0.19758795 -0.4870428 0.5626431 0.46043384 0.19437946
0.30537793 0.5291628 -0.785024 0.4690197 -0.07769303 0.8234922 -0.15891945 -0.133774
0.5177969 -0.11897572 -0.08966483 0.2799091 0.21571395 -0.3754454 0.45036516 0.3190744
0.13580504 -0.22944906 0.19807833 -0.14498815 -0.6671383 0.14940672 0.1484885 0.49614215
0.23250347 -0.33791217 -0.95794487 0.0446139 0.1424128 -0.18087003 0.28630528 0.09227578
-0.5822012 -0.21853667 0.657207 -0.72848594 -0.23082379 0.3852415 0.25359362 0.02449956
0.056016177 -0.28637204 -0.29580885 -0.6418206 -0.06499622 0.25308254 0.36227524 -0.1616495
-0.20972146 0.23059729 -0.39157823 0.5394629 0.45611638 0.09083879 0.3028092 -0.831731
0.2967625 -0.7811599 -0.38842908 -0.25387618 -0.66094947 0.14788635 -0.23767583 -0.22513796
0.25986165 0.24538967 -0.38635662 0.71927977 0.0502243 -0.19632263 0.27468348 0.38351968
-0.05893006 -0.11853484 0.2705508 0.41533193 -0.14140867 0.0034311314 -0.0133760115 0.7734056
0.66622746 0.88233286 -0.29145733 -0.29231656 -0.23555838 0.23187968 0.17412098 -0.0052502993
0.16647719 0.6790213 0.70267 0.0393855 -0.2702898 0.13026272 0.09720992 -0.23903355

network_body._body_endoder.seq_layers.0.bias f4 [128]
00000000: 12db 5a3a bae8 b13a b8bf bdbb 577c 0d3c
00000010: 705b 84bb 64dc 5e3c 2a0f eeba 34cc 02bc
00000020: 653b 143c 81f6 8f3b e727 e739 2bd7 163c
00000030: 8401 ef3a cad9 293c 2157 5f3a 44ca 23bc
00000040: fdf8 f03b 1d7f 023b ecc1 063c 333c 093c
00000050: 663f ca3b 45ec a9bb 787d f9b9 f008 d3ba
00000060: 19c5 92ba ad2e 45bb f1e6 d03b 67f3 713b
00000070: 1433 17bb ade8 f2bb 1e05 c83a 947c bd3b
00000080: c465 3f3b 3738 193b 1fb3 04bc b0a5 7b3b
00000090: 0288 4f3a 18c3 20bb d352 eb3b f2d3 473c
000000a0: ea63 0cbc d441 1ebb 49b8 6abb 95e2 f9bb
000000b0: d5fb 2f3b e89a 063c cedf 9cbb a5e0 253b
000000c0: 34c1 003c 4c8a 8d3b d5fa c1bb 4d04 ee3b
000000d0: 3af7 c53b 3a2e 323c 63a8 b53b eda4 9dba
000000e0: c690 4cbb e5dd 56bb 2ee3 683a 1180 8b3b
000000f0: 466e 3fba a2ff c0bb afab 84bb a91f 873b
00000100: a031 c4bb f321 193c 67d4 93bb c9ed 20ba
00000110: d3dd 493b a1ba 26bb f1d4 ee3b f6c7 01b9
00000120: 902c c13a cd2a eb3b 0e35 c03b 9d72 183c
00000130: ce7f f139 52bd 4eba 2dac 7c3b af12 5b3b
00000140: a443 5b3b 2ff8 9b3b c37d cabb 4e2f d1ba
00000150: 6b7b 24bb bc9a 3d3b ca64 13bb 67c6 2f3c
00000160: bae0 8e3b 129b d83a ca46 b73a 0c2d 4aba
00000170: adda 123c 5405 74bb 276b a63b b7f1 f8ba
00000180: 1e13 f33b 8efd a23a 9a37 fc3b 2b20 343c
00000190: 32fa c439 ba7c eb3b 0fd8 80bb 4596 033c
000001a0: 3378 21bc 5554 adbb 1c29 023b 4ba5 52bb
000001b0: 3486 4e3a 95f5 353b a332 69bb 0795 6cba
000001c0: 208b c83b 8b27 57bb 8840 d43b 71b0 853b
000001d0: 9a1e d73b d02a 7cbb d6f0 8d3b a367 a5ba
000001e0: 5bed 7a3a f58d 8dbb 0237 e8b9 ff5a 1fbc
000001f0: 301d 18bc 135c eebb 7b27 c33b 8285 e13b
0.0008348684 0.0013573386 -0.005790677 0.008635602 -0.0040392205 0.01360235 -0.0018162478 -0.007983256
0.009047364 0.004393399 0.00044089483 0.0092065735 0.0018234705 0.010366866 0.0008519758 -0.009996954
0.0073539005 0.0019912191 0.0082249455 0.008376169 0.0061721085 -0.005185636 -0.00047586462 -0.0016100686
-0.0011197656 -0.0030087635 0.0063751866 0.003691876 -0.0023071216 -0.007412991 0.0015260314 0.005782673
0.0029204944 0.0023379454 -0.008099346 0.0038398318 0.000791669 -0.0024530347 0.0071815043 0.012196528
-0.008568743 -0.0024148123 -0.003581541 -0.0076258876 0.0026852984 0.008215643 -0.004787422 0.00253109
0.007858563 0.004319465 -0.005919794 0.0072636963 0.0060414346 0.010875279 0.005543755 -0.0012027301
-0.0031214221 -0.0032786068 0.000888395 0.00425721 -0.0007302504 -0.005889849 -0.0040487866 0.004123647
-0.005987361 0.009346473 -0.0045114043 -0.00061389484 0.0030802384 -0.002544083 0.007288568 -0.0001237689
0.0014738012 0.007176733 0.0058656996 0.00930467 0.00046062324 -0.00078864873 0.0038554773 0.0033427884
0.0033457065 0.0047598104 -0.0061795427 -0.0015959532 -0.0025097977 0.002893134 -0.0022490495 0.010728455
0.0043602856 0.0016525707 0.0013982889 -0.0007712401 0.008963269 -0.003723462 0.0050786915 -0.0018992935
0.0074180504 0.0012435184 0.007697058 0.010993998 0.00037570443 0.0071864994 -0.003932006 0.0080314325
-0.009855318 -0.005289594 0.001986093 -0.003214198 0.0007878274 0.0027764787 -0.003558316 -0.00090248924
0.0061201006 -0.0032829966 0.0064774193 0.0040798713 0.0065649273 -0.0038477667 0.0043316884 -0.0012619387
0.0009572112 -0.004319901 -0.00044291472 -0.009726285 -0.009284303 -0.0072741597 0.005955634 0.0068823704

network_body._body_endoder.seq_layers.2.weight f4 [128, 128]
00000000: fe36 d4bd bace 93bd 4db0 b439 7cbc 04bd
00000010: 11a5 adbc b8d8 8d3d 8d2c 2c3d 2934 8c3c
00000020: b19b 843d a15c b73d 5179 82bd 1aac 9cbd
00000030: 04bd 913d 2438 6b3c 1f55 fb3d 073b 9fbd
00000040: 8a4f 6ebd 4aa8 1f3d f53c 9a3d 3aa4 c9bc
00000050: 9501 e5bd 1821 393d d97e da3d 47cc 48bc
00000060: 9e03 90bd 687b cf3d e1f9 6b3c 4097 393d
00000070: 0492 613d 7cd2 9a3c 4835 003e 9677 4a3e
00000080: 0ba4 78bc 035b cb3d 8e11 3bbd 3e97 0d3e
00000090: 6345 5ebb d1c7 71bd e406 e8bd 42ff 10bd
000000a0: ac4f 20bd 566e fd3b 172b a5bd f6bf b1bd
000000b0: 2ff5 f13c 3e8f 84bd 9c63 2e3d 7a91 813d
000000c0: cd45 e23d 7013 ad3d 6911 833d b6d3 8f3c
000000d0: 0ed8 383c 625b 66bd 7b17 21bd f797 413c
000000e0: 97ba 593d 23c7 803c f151 213d 3ca9 3dbc
000000f0: 8fea a8bc df47 a13d 6f88 073e cbd7 ae3b
00000100: 0f6e 123c 83df f33d 7e2e a9bd 640b 163d
00000110: 5ccd d0bd 182f 55bd 9f01 d73c 76bb da3d
00000120: 6704 85bd d84d 73bd 074c 1a3d 4a8f 303b
00000130: cf0c fabd 0ebd a23d 3850 5b3d 3598 d8bc
00000140: 05fe 5cbc fdc1 0b3c c693 963d 5d60 1a3e
00000150: 52c2 4dbb 2130 173d 675e 243c e0b3 423c
00000160: 0e31 2a3d ef1e 043d 218e dc3d 01e0 64bd
00000170: de28 abbd 302f babc dce1 2b3d 573a a9bd
00000180: a89a 163e 2439 b2bd 7de4 503e a3b8 46be
00000190: 5798 b33d a7eb e1bd 63cc e63c 4a7d b1bc
000001a0: 64d1 8cbe 1048 aa3d 5dfc 8b3d 9357 72bd
000001b0: 9433 87bd 4d61 323d 2c90 ebbd 31f9 fb3c
000001c0: 9bff c43d ce33 a73d 53ba 43bc f6f6 0fbd
000001d0: 445f f0bc 5267 e2bb 5c0c bf3d f51d e63b
000001e0: 183e 2cbb d9ab 5cbd 47c6 5bbd 1d78 b13c
000001f0: 6fe2 d6bd cf47 c4bd e1b6 113e 4f64 15be
00000200: 1f47 de3d 0d26 67bd 6af7 beba b228 9e3c
00000210: 7a5f 983d 9e8e c9bc 86fa 68be 58b6 ad3c
00000220: 8288 d6bd 5d18 343e fc05 bf3d 5005 8dbd
00000230: ab2b 9e3c 32fe f93c b3ec 033e 5504 593d
00000240: d0f8 443d 40bf 513e 2d3d a2bd 37a7 21bd
00000250: c3fa e73b 91bb 063e 8856 bfbd a12e 7cbd
00000260: 8600 8bbd b4a0 d63b 00c9 1f3d fb43 b73d
00000270: 93cf cabd ebf7 a63d b485 903d 939d ba3c
00000280: 1ab3 4cbd e0ef 20bd e1f4 053c a4f4 0ebe
00000290: f5ab d8bd 2b2b a1bd 39ec 49bc 43b1 88bc
000002a0: 15e2 823d 846e b13d 353e 5fbd 37ae 03be
000002b0: d201 83bb 5aca 5fbd a5b5 a73d fdf8 31bc
000002c0: 17cb 9d3e a948 803d 7d6a 74bd 0109 0cbd
000002d0: 78e1 15bd 978f 13be 727d 833c c7d3 f73c
000002e0: 0996 843d af5f 023c 97e0 aa3b 81ff bb3d
000002f0: 9e75 d6bd 4c22 0bbe 215b cfbc 744e 96bc
00000300: f7ab 87bd d29c 2cbd 7ca8 7ebd d5a8 b13d
00000310: 3913 1c3e 4cd9 96bd 875a 6d3c b9ef a3bd
00000320: 766e cfbd c231 903d 01cc dcbd bc6a 73bd
00000330: 57f9 11bd 2738 673d 349a 87bd f5ca ca3b
00000340: 4e15 2d3e 6703 003e 1599 9dbd b289 233d
00000350: 810e ac3c 4e8c 33be 68a5 48bb 7d20 22bd
00000360: d8ea 98bd ab28 0bbe 0281 da3d 000f cb3d
00000370: 9ed5 cbbc 84f9 1c3e 505b cfbd fdf7 1b3e
00000380: 5c33 fcba 327b d63d 2922 f9bb 9428 203d
00000390: 6a5d 9a3d ef99 2a3d e452 bdbc d438 58bd
000003a0: ea94 9dbd a7eb c7bd 18c3 b7bc ff50 c6bb
000003b0: e3b6 b73b 58a2 07be 7409 b53d f554 d03c
000003c0: f66b bbbc 35c1 efbd a6e4 f43d ceff 7bbd
000003d0: 3419 b43d df05 013c 66f8 9dbd 91ee aebd
000003e0: f507 c43d bd44 203c 9bd2 f8bd e89c 3fbd
000003f0: e641 953d a746 b63d 3b91 f6bd 5c55 253d
-0.103620514 -0.07217164 0.0003446363 -0.032406315 -0.021196874 0.069261014 0.042034674 0.017114716
0.06475008 0.089532144 -0.063707955 -0.07650013 0.0711613 0.014356647 0.12272095 -0.077749304
-0.058181323 0.038978852 0.07531158 -0.024614442 -0.111819424 0.045197576 0.106687255 -0.012255735
-0.0703194 0.1013096 0.0144028375 0.04531026 0.055070892 0.018899195 0.12520325 0.19772181
-0.01517583 0.099294685 -0.04567104 0.13827226 -0.003391587 -0.05902845 -0.11329439 -0.035399683
-0.03913848 0.0077341003 -0.08064859 -0.08679192 0.029535858 -0.06472634 0.042575464 0.063265756
0.1104847 0.08450973 0.06399805 0.017557006 0.01128198 -0.056239493 -0.039329033 0.011816016
0.05315646 0.015719956 0.039384786 -0.011575993 -0.020619659 0.078750364 0.13235639 0.005335783
0.008937373 0.11907866 -0.08260821 0.036631957 -0.10195419 -0.052046865 0.02624589 0.106802866
-0.0649498 -0.05940041 0.03767016 0.0026940876 -0.12209474 0.079462156 0.0535433 -0.026439765
-0.013488297 0.008530137 0.07352404 0.15075822 -0.0031396342 0.036911134 0.010032273 0.011883706
0.04155069 0.032256063 0.107692964 -0.05587769 -0.08357404 -0.022727579 0.041963443 -0.082630806
0.14707434 -0.08702305 0.20399661 -0.19406371 0.08769291 -0.11031275 0.028173631 -0.021666188
-0.27503502 0.08314526 0.06835244 -0.05916555 -0.066016346 0.043549825 -0.11502108 0.030758472
0.096190654 0.08164178 -0.011946279 -0.03514763 -0.029342301 -0.0069092894 0.09328529 0.007022614
-0.0026282128 -0.053874824 -0.05365589 0.02166372 -0.104924075 -0.09584009 0.14229919 -0.14589046
0.10853409 -0.056432772 -0.0014569585 0.019306514 0.07440086 -0.024604138 -0.22751817 0.021205112
-0.104752555 0.17587419 0.09327313 -0.06885779 0.019307932 0.030516718 0.12883262 0.052982647
0.04808885 0.20483112 -0.079218246 -0.03946611 0.0070794537 0.13157488 -0.093426764 -0.061567906
-0.06787209 0.006549919 0.039010048 0.08948513 -0.09902873 0.08152755 0.07056752 0.022780215
-0.049975492 -0.039291263 0.008176059 -0.1396051 -0.10579673 -0.07869562 -0.012324386 -0.016686087
0.06390778 0.08663657 -0.054502685 -0.12859426 -0.0039980197 -0.054636337 0.08188943 -0.010862586
0.30819008 0.06263859 -0.059671868 -0.034188274 -0.036591977 -0.14410244 0.016051028 0.03025235
0.064739294 0.007957383 0.0052147615 0.09179593 -0.104716524 -0.13587302 -0.025312008 -0.018347956
-0.066245966 -0.042141743 -0.062172398 0.0867478 0.15241708 -0.07365665 0.014486915 -0.08004708
-0.101284906 0.070407405 -0.10781098 -0.05942796 -0.03563818 0.056450035 -0.06621209 0.006188745
0.16902658 0.12501298 -0.07695214 0.03992624 0.02100301 -0.1753399 -0.0030616168 -0.039581764
-0.07466668 -0.13589732 0.106691375 0.099149704 -0.024882134 0.15329558 -0.10124838 0.15231319
-0.001924138 0.104727164 -0.007602949 0.0391012 0.075373486 0.04165071 -0.023110814 -0.05278857
-0.07694419 -0.09761744 -0.022431895 -0.006052136 0.0056065186 -0.13245523 0.08839694 0.025431136
-0.022878628 -0.11706773 0.11957674 -0.06152325 0.087938696 0.007874935 -0.07713394 -0.08541597
0.0957183 0.0097820135 -0.12149545 -0.046780497 0.0728796 0.089001946 -0.12039419 0.04036461

network_body._body_endoder.seq_layers.2.bias f4 [128]
00000000: 6b89 01bb 0760 6fbb 6614 10ba 9c13 bebb
00000010: fdce c23b 84a1 a83a c587 b93b 06b8 af3b
00000020: 3acb 143b 0d2e 553b a644 58bb f7e2 563b
00000030: f3db 303b 2141 fbba 90c5 e1bb 87aa 033c
00000040: b9c3 0d3b 6668 113b b15b 7ebb d21f 3a38
00000050: 09ef aebb 7883 7d3b fcb5 8a3b 1aea 58bb
00000060: 1d07 0e3c fa4e fbba e234 b33a d25e e03b
00000070: f272 033c 3415 a0ba 3616 cc3b 826a d23b
00000080: 1610 93bb a430 9bbb e092 92bb a945 943b
00000090: 6812 e53b 01d5 f73b 94f4 423b de88 6a3a
000000a0: d20d cc3b a29b d4bb 279d b93a cf13 0e3c
000000b0: aa81 48bb 88a6 81bb 71af ae39 cd3e c1ba
000000c0: 7402 b23b 054a 803a 3ddd 9539 1b80 58ba
000000d0: af36 bc3b aa22 b039 537d 1b3b 0549 063a
000000e0: 7559 fe3b d62d 023b 7890 c93b 50a1 72bb
000000f0: 08d5 053b 56a2 69b8 a608 4cbb 6057 303b
00000100: e312 e3bb 66da 123b fcff b3bb 8dee 9c3b
00000110: 3974 7a3b f62b f3ba 48fa 2b3b c86b 873b
00000120: 5d16 073b 9411 4d3b 4dc9 263b a28e f03b
00000130: aa6d bbb7 72a3 62bb e191 873a 0d3d a13b
00000140: 322d d2bb 4226 c33b 6811 8d3b a62e 783b
00000150: 64a0 f4b9 aba9 b7bb b29f 293b 291a 123b
00000160: 7e36 2c3b ee1d 5d3a 1a51 0a3c 1794 d23b
00000170: aa1d ee3b 3494 99b8 c68a 713b 91df 893b
00000180: 3182 cd3b cc1a 1c3b 81e1 5e3b c1eb 1f3c
00000190: ef67 463b bcd9 aabb f0ec b93b bbc1 ea3b
000001a0: 46b3 c03b 3c77 c9b7 e267 4fbb c1e7 95b9
000001b0: 9ffb 803b 4098 83bb 80ea 79bb 10d2 143c
000001c0: 2258 bf3b b2cc 4fbb e381 0bbb 165c 043c
000001d0: 5563 123b 4e76 30ba 9592 8fbb 2451 9d3a
000001e0: 0fea e33b cd38 513b 43a2 6e3b f2be 33ba
000001f0: 33ab c33b fc12 a8bb 2871 77bb a9d9 f63b
-0.0019765745 -0.0036525743 -0.00054962037 -0.0058006775 0.005945085 0.0012865518 0.005661937 0.0053625135
0.002270414 0.003252867 -0.0032999902 0.003278909 0.0026986569 -0.001916919 -0.0068900064 0.008036262
0.0021631552 0.002218747 -0.0038811977 4.437549e-05 -0.005338554 0.0038683098 0.00423312 -0.003309852
0.008668688 -0.0019173317 0.0013672377 0.006847241 0.008023011 -0.001221335 0.0062282337 0.006421388
-0.0044880016 -0.004736023 -0.0044730753 0.0045249057 0.0069907196 0.007563234 0.002974783 0.00089467864
0.0062272334 -0.0064882794 0.0014161215 0.008671715 -0.0030594864 -0.0039566197 0.0003331858 -0.0014743448
0.0054324213 0.0009787685 0.0002858433 -0.00082588353 0.0057438235 0.00033595163 0.0023725822 0.0005122575
0.007762129 0.0019863746 0.006151255 -0.003702242 0.0020421166 -5.5702716e-05 -0.0031133085 0.0026907548
-0.0069297417 0.0022408008 -0.005493162 0.0047891797 0.0038216247 -0.001855253 0.0026241709 0.0041327216
0.0020612695 0.0031290995 0.0025449574 0.007341222 -2.2343203e-05 -0.0034582284 0.0010343158 0.004920608
-0.006414079 0.0059554884 0.0043050535 0.0037869602 -0.00046658807 -0.005604943 0.002588254 0.0022293425
0.0026277597 0.0008434941 0.008442188 0.006426345 0.00726672 -7.3232135e-05 0.0036856397 0.0042075594
0.0062716235 0.0023819683 0.0034008923 0.009760798 0.0030274352 -0.0052139442 0.005673997 0.0071642078
0.005880746 -2.401659e-05 -0.0031647612 -0.00028592165 0.0039362456 -0.0040159523 -0.0038134158 0.009083286
0.0058393637 -0.0031707701 -0.0021287135 0.008078596 0.0022337039 -0.0006731496 -0.0043814876 0.0012002331
0.006955392 0.0031924725 0.0036412633 -0.0006856761 0.0059713363 -0.0051292162 -0.0037756655 0.0075332713

action_model._discrete_distribution.branches.0.weight f4 [4, 128]
00000000: 4000 ec39 66dc ce3a 65b4 4cbc ec38 6fb8
00000010: 4aab 2abc 51cb 813c 1cb8 4bbc ae89 a4bb
00000020: 4e6a 503c 44e2 debb 511f 2c3c 080e 19bc
00000030: c83e 44ba 58e3 673c de1c a33b 9b33 a3bc
00000040: 0b5c 433b ef01 d43b 45b4 a53c 3359 4dbb
00000050: 28e5 b83b 227a 11bb dba2 1b3a cde0 263c
00000060: 314c 76bb d4bc db3a 9cbd a43b 2752 4c3b
00000070: c6ec 47bc 49e6 17bb cdd8 2fba 1cda 5fbc
00000080: a43e 923c a820 ba3c aa71 10bc 6cac 8cbc
00000090: fcc9 05bc 0682 6a3a d203 07bc f6f1 103c
000000a0: b8b4 06bc 7e0c 633c 9b5b ef3b d6a4 77bc
000000b0: 1ab1 76bb cb5e cc3b 22c3 c93a 55d4 223c
000000c0: 5317 3e3c 096e 01bc 0e3e 0bbc 4abd b33c
000000d0: 19bb 0bbb 6788 73ba b737 11bb 3f7c b1bb
000000e0: f1ea 32bc 4599 88bb 3f35 6cba 000c cbbb
000000f0: 0796 7639 1d59 02bc e900 c03c fdea 593b
00000100: 3821 c13b 228b 5d3a 8905 333c f51c 823c
00000110: 52e5 203c c47e 92bb 12a6 23bc 8313 d73b
00000120: 0084 95bb e975 2fbc 15b6 993b daf4 65bc
00000130: 2df1 62ba 945d 603c f538 913b 14e8 663b
00000140: 3a8f 123c 66ae 99bb 02f7 e3bb 9541 1fbc
00000150: e5a0 90bc 4739 193c e4a1 1cbc 2758 7ebb
00000160: 842e 873b 7b60 00bc 5f47 3ebb 07d1 88bc
00000170: e5ca 45bb 4a48 da3a c33a bebb 982e c43b
00000180: 7420 2dbc b708 923b 98e4 9abb 90a6 bbba
00000190: 24b4 65bc 3172 4939 a35a 91ba 8274 3dbc
000001a0: e760 12bc a1f5 35bb cb9c a63b d627 4e3c
000001b0: 5f38 723c fe8a e73b 1a1e 083c 3de5 8fbb
000001c0: 0943 1fbc c536 10b9 7cf5 ad3a 1787 23bb
000001d0: 1057 dc3b 6d5d 65bc 661d a73c df95 c839
000001e0: bc6f 843b 14ba 6fbb 54ac 9ebb 39b2 e8ba
000001f0: 39a4 97bc b125 9e3c 740f 23bb 03d0 cbbb
00000200: 4143 dc3b 1773 0ebc a2c4 acba 2ffb f9bb
00000210: f007 82bc 46e6 d2bb 7245 83ba 2b82 e8bb
00000220: 01c8 263c 3685 f9bb 8fcd 8cbc ff23 993b
00000230: e128 23bc 2296 57bc 23b9 5cbb bd68 ed3b
00000240: 67ca fcbb d9af 40bc 5229 05bb acd3 38bc
00000250: 1bc7 5abb 4b16 743c 133d db3a 82df 82bc
00000260: 0f92 6ebb 5cac 68b9 176e 5dbc 90f3 dabb
00000270: 053d 23bc 319d 62bc 281d 16bd 93ee b2bb
00000280: af6a 013c a317 03bc d6d3 f7bb fc4f 733b
00000290: fe7e 9dbc fb75 35bc 74d8 c23b 5372 853b
000002a0: 7e73 db3b 9fdf 303b 4c62 0c3c 658b 81bc
000002b0: 3176 82bc 6fac 80bb 3f1a d2bc 5469 eebc
000002c0: 5808 ef3b c449 053d 8f44 25ba 4969 8e3b
000002d0: 0aa8 183b 4889 b7bc 3693 9f3c 8111 083b
000002e0: 89e5 0fbc d361 953c 996c 113b 39f1 75bc
000002f0: da9c ae3c bfbc e43b f61d 00bc f237 bfbb
00000300: 969b 88bb 59fa 20bc 7b2d bc3b 9be8 393b
00000310: 40d7 f3b8 cc1d 943a faca 793c 67d4 69bc
00000320: 341e d33b fb25 bb3c 325d d9bb e6b6 943a
00000330: d6a3 a53c a51d 5bbc 6212 863c fca9 233c
00000340: 0d62 16bc a2c6 61bc 5b5f af3b a63a 363c
00000350: c5d9 063c 17a2 c33b 611d e43a 90d0 3539
00000360: d364 fa3a b9c6 ffba b015 61bb 306a 903c
00000370: fe7b 0c3c 6dc5 1cba c922 4ebb 4bf3 95bb
00000380: 32e9 d6bb 7cac dcbb 2b77 053c 6dd6 3abb
00000390: 1f56 d6bc 4cbf 15b9 5788 46bc c69f eaba
000003a0: e16c 88bc 1140 07bb 9a59 3b3c 915e 973c
000003b0: 77fa d4ba 76a3 8b3a 8470 3b3c 46f7 8cbb
000003c0: d4a9 0f3c e71b 47bc 38ea 4e3c de8b 2abb
000003d0: 1441 b8bb f844 a53b 2587 503c f485 223c
000003e0: 8544 613b fc80 2cbc d8fa bbbb 8e14 05bc
000003f0: 6403 983c 0654 a4bb 135d 09bc 158d 113a
0.00045013614 0.0015782237 -0.012494181 -5.7035053e-05 -0.010416815 0.01584402 -0.012434032 -0.0050212955
0.0127206575 -0.0068018753 0.010505513 -0.009341724 -0.0007486162 0.014153324 0.0049778065 -0.019922068
0.00298095 0.006469957 0.02022756 -0.0031333684 0.005642552 -0.002219804 0.0005937048 0.010185433
-0.0037582035 0.0016764649 0.005027486 0.0031176896 -0.012202447 -0.0023178032 -0.0006708026 -0.013662841
0.017852135 0.02272065 -0.008816162 -0.01717206 -0.008165833 0.00089457666 -0.008240657 0.0088467505
-0.008221798 0.013857959 0.0073046214 -0.015114984 -0.0037642182 0.006236886 0.0015393237 0.009938319
0.011602241 -0.00789977 -0.008498682 0.021940846 -0.0021321236 -0.000929004 -0.0022158453 -0.0054164226
-0.010920272 -0.004168662 -0.000901062 -0.006196499 0.00023516278 -0.007955817 0.023437934 0.0033251636
0.0058938526 0.00084512134 0.010926613 0.015882948 0.009820299 -0.004470678 -0.009988325 0.0065636053
-0.0045628548 -0.010709264 0.0046908953 -0.014035428 -0.0008657154 0.013694186 0.0044318386 0.0035233544
0.008945281 -0.0046899794 -0.006956936 -0.009720226 -0.017654845 0.009352035 -0.009560082 -0.0038809867
0.004125418 -0.007835503 -0.002903424 -0.016701235 -0.003018075 0.0016653624 -0.005805345 0.0059869997
-0.010566819 0.0044566053 -0.0047269575 -0.0014316607 -0.01402 0.00019211393 -0.0011089634 -0.011563422
-0.008934236 -0.0027764814 0.005084609 0.01258274 0.014783948 0.0070661297 0.008307958 -0.004391341
-0.009720572 -0.00013753313 0.0013272013 -0.0024952346 0.006724246 -0.013999325 0.02039976 0.00038258635
0.00404164 -0.0036579417 -0.0048423205 -0.001775331 -0.018510925 0.019305082 -0.0024881037 -0.0062198653
0.0067218845 -0.008694432 -0.001318116 -0.0076288204 -0.015872926 -0.006436142 -0.0010015203 -0.0070955954
0.010179521 -0.007614757 -0.017187862 0.0046734805 -0.009958477 -0.013158353 -0.0033679686 0.007245152
-0.007714558 -0.011760675 -0.0020318818 -0.011280935 -0.0033382836 0.014897893 0.0016726576 -0.015975717
-0.0036402976 -0.00022189453 -0.013515017 -0.006681867 -0.009963279 -0.013831423 -0.0366489 -0.005460569
0.0078989705 -0.008001241 -0.0075630946 0.0037126532 -0.019225594 -0.011075492 0.0059462134 0.0040724664
0.0066971174 0.0026988757 0.008568358 -0.015813539 -0.015925499 -0.0039268057 -0.02564728 -0.029102959
0.007294696 0.03254105 -0.00063044665 0.004346047 0.0023293518 -0.022404328 0.019479375 0.0020762386
-0.008782753 0.018235123 0.0022189973 -0.015011125 0.021315027 0.006980508 -0.007819643 -0.0058355266
-0.004168938 -0.0098253125 0.0057427264 0.0028367403 -0.000116272364 0.0011300384 0.015246147 -0.014271832
0.0064428095 0.022845259 -0.006633424 0.0011346012 0.020219725 -0.013373767 0.016366187 0.009989258
-0.009178651 -0.013780268 0.0053519434 0.011122381 0.008230631 0.0059702503 0.0017403775 0.000173392
0.0019103534 -0.001951418 -0.0034345202 0.01762876 0.008574484 -0.00059803465 -0.003145384 -0.004576122
-0.0065585608 -0.006734429 0.008146088 -0.0028509155 -0.026164113 -0.00014281011 -0.012117467 -0.0017900399
-0.01665348 -0.0020637552 0.011434937 0.01847771 -0.0016248961 0.0010653574 0.0114404 -0.004301938
0.0087685175 -0.0121526485 0.012629084 -0.0026023309 -0.0056229923 0.005043622 0.0127275335 0.009919632
0.0034373116 -0.010528799 -0.00573669 -0.008122576 0.018556304 -0.005014899 -0.008384007 0.0005552334

action_model._discrete_distribution.branches.0.bias f4 [4]
00000000: 8f1e c4bb e1d1 213a d9ae d1ba 8c91 aa3b
-0.005985088 0.0006172937 -0.0015997543 0.005205339
