results/many1/Romba/Romba-25415.pt (torch, 440477 bytes, 33 tensors)

network_body._body_endoder.seq_layers.0.weight f4 [128, 5]
0	0x3e8b055e	0.27152532
1	0x3e2ca0c0	0.16858196
2	0xbefaf53b	-0.4901522
3	0x3ebc2f69	0.3675492
4	0x3f29c083	0.66309375
5	0xbf7b0011	-0.98046976
6	0x3d6117f9	0.054954503
7	0x3f6a0d3d	0.9142645
8	0x3e506c7f	0.20353888
9	0x3f63c64c	0.8897445
10	0xbed85107	-0.4224932
11	0x3c8a9e8b	0.016921302
12	0x3ee8cab5	0.45467153
13	0xbd7459db	-0.059656005
14	0xbf08f61a	-0.5350052
15	0x3d9bc718	0.076063335
16	0x3eab7e54	0.33494818
17	0xbf842248	-1.0322962
18	0xbd73828c	-0.05945067
19	0x3e787b16	0.24265704
20	0x3e3ff45f	0.18745564
21	0x3ea47361	0.32119277
22	0xbdaa9b8a	-0.08330448
23	0x3f4adb43	0.79240817
24	0xbd16722c	-0.036729977
25	0xbea3dced	-0.3200449
26	0xbd843880	-0.06456089
27	0x3f4f62c7	0.810101
28	0xbf00a51f	-0.50251955
29	0xbf35f2e9	-0.71073776
30	0x3d563753	0.052298855
31	0x3c871954	0.01649157
32	0x3e45842d	0.19288702
33	0xbe5ca191	-0.21546008
34	0x3f2160cc	0.63038325
35	0x3f1f8bc8	0.62322664
36	0x3f127e8f	0.57224363
37	0xbea1fe1e	-0.3163919
38	0x3cf1b32d	0.029504383
39	0x3f68504c	0.90747523
40	0x3eeee1e8	0.46656728
41	0x3ef81103	0.4845048
42	0x3e34cc92	0.17656162
43	0xbe2c77b3	-0.16842537
44	0xbeea38e8	-0.4574654
45	0xbf52c1a7	-0.8232674
46	0xbf0aad31	-0.5417052
47	0xbe2a9374	-0.16657811
48	0x3ca6aab0	0.020345062
49	0x3e9aa86a	0.30206615
50	0xbd773c7d	-0.06036042
51	0x3e83eb20	0.25765324
52	0x3ebb546b	0.36587843
53	0x3cdcd845	0.026958594
54	0x3f004c49	0.501164
55	0x3eee3b36	0.4652955
56	0xbee884bf	-0.45413777
57	0xbf380505	-0.7188266
58	0x3e9b1d4c	0.3029579
59	0x3f287c00	0.6581421
60	0xbe1b80ca	-0.15185848
61	0xbf2b56ec	-0.6692951
62	0xbefb973e	-0.49138826
63	0xbf1af0e1	-0.605238
64	0xbf0f2a5e	-0.5592402
65	0xbe9c5fea	-0.30541927
66	0x3f1324b5	0.57477885
67	0xbf0e034d	-0.55473787
68	0x3eaf996e	0.34296745
69	0xbf367c67	-0.7128357
70	0xbf3ffd03	-0.7499544
71	0x3eb3d2c9	0.35121754
72	0xbf977908	-1.1833811
73	0x3e97d4db	0.29654583
74	0xbe53dc3b	-0.2068948
75	0xbc3c66c9	-0.011499115
76	0x3dad659e	0.084666476
77	0x3edb14c7	0.4278929
78	0xbe99fd12	-0.3007589
79	0x3e9c52b5	0.3053185
80	0xbf282a32	-0.65689385
81	0xbe22b001	-0.15887453
82	0xbf151645	-0.58237106
83	0x3d21b87b	0.039482575
84	0xbcf208d5	-0.029545227
85	0xbe94d021	-0.2906504
86	0x3d5da178	0.054109067
87	0x3e94eca2	0.29086787
88	0x3d54b03b	0.05192588
89	0xbc42c0af	-0.01188676
90	0xbef69264	-0.48158562
91	0x3ee0696b	0.43830428
92	0xbf16452e	-0.5869931
93	0x3e443964	0.19162518
94	0xbe1446ef	-0.14480184
95	0xbc69c936	-0.014269164
96	0x3e211b03	0.1573296
97	0xbdf13cc2	-0.11779167
98	0x3fa34b35	1.2757326
99	0xbe4a6247	-0.19764052
100	0x3fdf734b	1.745706
101	0xbea91e9c	-0.33031166
102	0x3b1bbc5e	0.0023763399
103	0x3f17c737	0.5928835
104	0x3e9ddc24	0.30832016
105	0xbf04dbc8	-0.5189786
106	0xbede3659	-0.4340084
107	0x3f0da834	0.5533478
108	0x3ded05f7	0.11573403
109	0xbee56fb3	-0.44811782
110	0xbdd792f6	-0.105260774
111	0xbefbc5d0	-0.49174356
112	0xbe4cf113	-0.20013838
113	0xbe1d6ce6	-0.15373573
114	0xbe9cc929	-0.30622223
115	0xbdc85694	-0.097821385
116	0x3ef9258b	0.48661456
117	0x3ebd330d	0.3695301
118	0x3e8ba279	0.27272394
119	0xbf6a72cb	-0.9158141
120	0xbf9086df	-1.1291159
121	0xbf10cbda	-0.5656105
122	0x3e9663e0	0.29373074
123	0x3df682ef	0.12036692
124	0x3d73fb89	0.059566054
125	0xbcd3d549	-0.025858538
126	0x3d2612bc	0.04054521
127	0xbe452c38	-0.1925515
128	0xbf473f40	-0.77830887
129	0xbf1265c9	-0.5718656
130	0xbc680309	-0.01416088
131	0x3f2a9a2d	0.66641504
132	0xbe1c4a34	-0.15262681
133	0xbd9058df	-0.07048201
134	0xbda8ada2	-0.08236243
135	0x3f1b9e38	0.607883
136	0xbe8f3dcc	-0.27976835
137	0xbe7d850a	-0.24757782
138	0xbbf1b953	-0.0073768287
139	0xbf09f59c	-0.53890395
140	0xbece355e	-0.4027509
141	0x3e8e1400	0.27749634
142	0xbf35e6f9	-0.7105556
143	0xbd6e01f3	-0.058107328
144	0x3c73f75f	0.014890521
145	0x3f1957cd	0.598996
146	0x3e4c0f20	0.19927645
147	0xbf3a74e1	-0.72834593
148	0xbda27a91	-0.07933534
149	0x3deb4839	0.11488385
150	0xbf4d8f2b	-0.8029658
151	0x3e84f07a	0.2596472
152	0x3f1955f0	0.59896755
153	0x3e23b004	0.15985113
154	0xbecf1ea0	-0.40453053
155	0x3f221a99	0.63321835
156	0x3e3799d7	0.17929779
157	0xbf5555b5	-0.83333904
158	0xbec01105	-0.37512985
159	0x3efa5069	0.48889473
160	0xbe2386bd	-0.15969367
161	0x3e44e88f	0.19229339
162	0x3ec6d084	0.3883096
163	0x3e5b88cd	0.21438904
164	0xbf683ec7	-0.9072079
165	0x3f0abe4c	0.5419662
166	0x3f0d1cf4	0.55122304
167	0x3dc56c88	0.09639841
168	0xbd28113a	-0.041032054
169	0x3d8aa7f1	0.067703135
170	0xbdb1eea4	-0.08688095
171	0x3e5ed42e	0.21760628
172	0xbeedd7aa	-0.464536
173	0xbf1497e8	-0.5804429
174	0x3e7850d8	0.2424959
175	0x3ebc1a69	0.367389
176	0xbe00acd0	-0.12565923
177	0xbe028618	-0.12746465
178	0xbf5268d0	-0.8219118
179	0xbea74fe6	-0.32678145
180	0xbf0c1f95	-0.5473569
181	0xbf50fea5	-0.81638557
182	0x3ec5af71	0.38610414
183	0x3f420002	0.7578126
184	0xbe9ee977	-0.31037495
185	0x3f10cae6	0.565596
186	0xbeba6610	-0.36405993
187	0x3efe0948	0.49616456
188	0xbed0870c	-0.40728033
189	0x3ed5609a	0.41675264
190	0xbf295d42	-0.66157925
191	0xbf03ec4f	-0.51532453
192	0x3ebb1796	0.36541432
193	0xbea09eb4	-0.3137108
194	0xbe81475b	-0.25249752
195	0xbde72ae4	-0.112874776
196	0xbf126ae4	-0.5719435
197	0x3f0bd3c9	0.54620034
198	0x3ebad9af	0.36494204
199	0xbf50508c	-0.81372905
200	0x3f1eedee	0.620818
201	0xbed51bef	-0.41622874
202	0xbf560319	-0.83598477
203	0xbe64682b	-0.22305362
204	0x3deb2187	0.11481004
205	0xbde6363a	-0.11240812
206	0x3f05660d	0.5210884
207	0xbeea14b6	-0.45718926
208	0xbf82c5c8	-1.0216608
209	0x3f4ab275	0.79178554
210	0x3df1ebf2	0.11812581
211	0x3e86bffb	0.26318344
212	0x3f2c4d45	0.67305404
213	0x3eff9c21	0.49923804
214	0x3d48d830	0.049034297
215	0x3f843711	1.0329305
216	0x3dd91cbe	0.10601185
217	0x3f034ec8	0.51292086
218	0xbea2710d	-0.31726876
219	0xbe5e5d68	-0.21715319
220	0x3f331e36	0.69967973
221	0x3e66152c	0.22469014
222	0xbcc3085b	-0.023807695
223	0x3f01c72c	0.5069454
224	0x3deedd30	0.11663282
225	0xbe24fa2c	-0.16111058
226	0x3e77e7ec	0.24209565
227	0x3ed861b3	0.4226204
228	0xbe3b969e	-0.18319175
229	0xbedb8d1f	-0.42881104
230	0xbf389aa5	-0.7211097
231	0x3ec2c7a2	0.38042933
232	0x3ec33b8f	0.38131377
233	0x3f8ffe7d	1.1249539
234	0x3e51c93a	0.20486918
235	0xbccbc5e3	-0.024874633
236	0xbec21bc0	-0.37911797
237	0xbea86e75	-0.32896772
238	0x3d303c77	0.043026414
239	0xbd3a698c	-0.045510814
240	0x3ece0c65	0.4024383
241	0xbecd4596	-0.40092152
242	0xbe147113	-0.1449626
243	0x3ddf553a	0.109049276
244	0x3d1dfb83	0.03856994
245	0x3f079590	0.5296259
246	0xbea29f58	-0.31762195
247	0x3cf18d77	0.029486401
248	0x3e3c58ed	0.18393297
249	0x3f1360d4	0.57569623
250	0x3f103e13	0.5634472
251	0xbee1f957	-0.44135544
252	0xbf1a2eaf	-0.60227484
253	0xbf14045d	-0.5781916
254	0xbec11881	-0.37714007
255	0xbf4f6213	-0.81009024

network_body._body_endoder.seq_layers.0.bias f4 [128]
0	0x3c29109c	0.010318901
1	0xbbb8818d	-0.005630678
2	0x3ba51ed1	0.005039074
3	0x3bc0bf94	0.005882213
4	0xbb549752	-0.0032438827
5	0x3ba4332c	0.005010983
6	0x3bd7b090	0.006582327
7	0x3bfc2f61	0.0076960777
8	0xbbe52ac8	-0.0069936253
9	0x3bd1bc32	0.0064006085
10	0x3ac16e09	0.0014757524
11	0x3c40ea80	0.011774659
12	0xbbe65f84	-0.0070304293
13	0x3bca5b19	0.0061754105
14	0xbb35419c	-0.0027657514
15	0x3a624371	0.00086312654
16	0x3b286ca1	0.0025699513
17	0x3baf3f62	0.005348132
18	0xbb81d77e	-0.0039624562
19	0xbb1f2e2a	-0.002428899
20	0x3bced533	0.0063120364
21	0x3af40477	0.0018617053
22	0xba0f071b	-0.0005456076
23	0x3c2b03ba	0.0104379
24	0x3b5da1c9	0.0033818355
25	0xbb9ebf8a	-0.0048446106
26	0xbb97a492	-0.0046277726
27	0x3b07aaba	0.0020701126
28	0xbaf99399	-0.001904118
29	0x39bcfc58	0.00036046165
30	0xbbf363ef	-0.0074276845
31	0x3bab75a2	0.005232529
32	0xbb67836c	-0.0035326136
33	0xbb91c9dd	-0.004449113
34	0xbbae2acf	-0.005315162
35	0x3c288d2d	0.010287565
36	0x3bb5954c	0.005541479
37	0xbb1f01cd	-0.0024262548
38	0x3bc2d3c4	0.0059456546
39	0x3b9d5a74	0.0048020426
40	0x3bb51dc7	0.0055272314
41	0x3ab086bc	0.0013467888
42	0xbbf40357	-0.007446687
43	0x3c0afae2	0.008482667
44	0xbb18f57f	-0.0023339686
45	0x3b993200	0.00467515
46	0x3b910254	0.0044253264
47	0xbb30de88	-0.0026988108
48	0x3b3cc78c	0.0028805463
49	0x3b350401	0.0027620795
50	0xbb2f780e	-0.002677444
51	0xbaeee6ad	-0.0018226706
52	0xbb7daa83	-0.003870637
53	0xbbc8ca74	-0.00612765
54	0x3b6bcb92	0.0035979492
55	0xbb9fdb3d	-0.00487843
56	0x3b2155a3	0.0024617694
57	0x3bbdf564	0.005797075
58	0x3a3d3941	0.00072183093
59	0x3c02bc6d	0.0079794945
60	0x3b0372d4	0.0020057457
61	0x3896e644	7.195448e-05
62	0xba82247c	-0.0009929086
63	0x3bca89c2	0.006180973
64	0x3b83e476	0.0040250374
65	0x3b7760ea	0.0037746974
66	0x3b99fcb6	0.004699315
67	0x3bf486e4	0.0074623693
68	0xbaaba3c0	-0.0013095066
69	0x3b832d17	0.004003178
70	0x3bab6df8	0.005231615
71	0x3b94a644	0.004536422
72	0xbb99174f	-0.004671968
73	0x3b84d5c1	0.0040538018
74	0x3bfb798c	0.0076744016
75	0x3b981716	0.004641424
76	0x3b30644e	0.0026915255
77	0x3b85139e	0.0040611764
78	0x3b29215e	0.0025807242
79	0xbbaf445c	-0.0053487252
80	0x3ba1bad1	0.0049356003
81	0x3a769eed	0.0009407837
82	0x3bb00f9e	0.0053729555
83	0x3c27b59b	0.010236169
84	0xbafd96a6	-0.0019347265
85	0xb93e5a43	-0.00018153437
86	0x3c256558	0.010094963
87	0x39fae4e3	0.0004785425
88	0x3c1b7410	0.009488121
89	0x39cae058	0.00038695592
90	0x3b6a054e	0.0035708728
91	0xbaa6443b	-0.0012685129
92	0x3b74cccb	0.0037353511
93	0xbb9c720c	-0.0047743376
94	0xbb3734ef	-0.0027955135
95	0xbb3f2c52	-0.0029170704
96	0x3bc2d31e	0.0059455773
97	0x3b78d472	0.0037968424
98	0xbb4dee96	-0.0031422726
99	0x3af1648d	0.0018416807
100	0x3bbbd0a5	0.0057316595
101	0x3c15985f	0.009130566
102	0x3b7164b1	0.0036833698
103	0xbb77d51e	-0.0037816237
104	0x3bb02daa	0.0053765373
105	0x3b13ed38	0.0022571813
106	0x3b51e595	0.003202771
107	0xbbbb1342	-0.005709083
108	0x3b7c95eb	0.0038541507
109	0x3b46ae88	0.003031643
110	0x3b2b7de8	0.0026167575
111	0x3adbc512	0.0016767106
112	0xb998c709	-0.00029139992
113	0x3ab31dcc	0.0013665496
114	0x3ada7431	0.0016666708
115	0xbb327f2f	-0.0027236452
116	0xbac4a8cc	-0.0015003919
117	0x3a80a752	0.000981549
118	0x3b82f804	0.003996851
119	0xbb0b2fd7	-0.0021238232
120	0xbb2541d7	-0.0025216246
121	0x3bb30a2b	0.0054638586
122	0xbba1aebf	-0.0049341614
123	0x3a131843	0.000561122
124	0xbb84fec3	-0.0040586903
125	0xba9f0244	-0.0012131413
126	0x3b66bbab	0.0035207074
127	0x3c26b60e	0.010175241

network_body._body_endoder.seq_layers.2.weight f4 [128, 128]
0	0xbc0bc57b	-0.00853097
1	0xbda993f8	-0.08280176
2	0xbb5e817d	-0.0033951693
3	0x3dc2f98c	0.095202535
4	0xbe6436bd	-0.22286506
5	0x3d1505d4	0.03638251
6	0x3bf6e5aa	0.0075347023
7	0x3e4100ae	0.18847916
8	0x3c067b78	0.008208148
9	0x3e066842	0.13125709
10	0x3d916693	0.070996426
11	0xbd2199e4	-0.039453402
12	0xbd2e70c4	-0.04258801
13	0xbde6b146	-0.11264281
14	0xbd9e4916	-0.07728784
15	0x3da6bb0a	0.081411436
16	0xbb3aafdb	-0.0028486166
17	0x3e449afc	0.19199747
18	0x3d970af3	0.07375135
19	0xbd9421fd	-0.07233045
20	0xbdc7d7d1	-0.097579606
21	0x3dc8708a	0.0978709
22	0xbe05060e	-0.12990591
23	0xbd8165c6	-0.0631824
24	0x3b17ccd0	0.002316285
25	0xbc2417d3	-0.010015446
26	0xbdf2599b	-0.11833497
27	0xbe04072d	-0.12893362
28	0x3da19fcd	0.07891808
29	0x3cc7ae41	0.024375083
30	0xbc8f4ca9	-0.01749261
31	0x3e2f047d	0.17091556
32	0xbcccdfe9	-0.025009112
33	0x3d3887f3	0.045051526
34	0xbe0ecffc	-0.13946527
35	0x3db7868d	0.089612104
36	0x3df3fb11	0.119131215
37	0x3d8b2e5e	0.06795953
38	0xbde1760b	-0.11008843
39	0x3e1844a9	0.14869942
40	0xbd846c63	-0.064659856
41	0x3d328c6b	0.043590944
42	0xbe4a9300	-0.19782639
43	0xbe33a6ef	-0.17544149
44	0xbdf14f75	-0.11782733
45	0x3ca2a156	0.019852322
46	0x3df82b2f	0.121176116
47	0x3d71b996	0.05901488
48	0xbc81a33c	-0.015824907
49	0xbd012fc9	-0.031539712
50	0xbe0841a8	-0.13306296
51	0xbd41c232	-0.04730434
52	0x3d3587b9	0.04431889
53	0x3cab1480	0.020883799
54	0xbd443fa5	-0.04791226
55	0x3cd57c37	0.026060207
56	0x3cb1dea8	0.021712616
57	0x3c9af2ca	0.018914599
58	0x3d4d5c98	0.050137132
59	0x3dd48271	0.10376442
60	0x3bfe122d	0.0077536316
61	0xbe3630a0	-0.17791986
62	0xbd48611e	-0.048920743
63	0xba620d74	-0.00086232205
64	0x3c853ab9	0.016263353
65	0xbdbc9992	-0.09208979
66	0xbd8bf37d	-0.06833551
67	0x3e057db5	0.13036235
68	0x3df3c9d5	0.11903731
69	0x3d256833	0.040382575
70	0x3d770942	0.060311563
71	0xbccccd75	-0.025000313
72	0x3de8cab3	0.11366787
73	0x3d4e77b4	0.050407127
74	0xbd5e446e	-0.05426448
75	0x3dc04e5d	0.093899466
76	0x3e18a43e	0.14906403
77	0xbd822563	-0.06354787
78	0xbcf82051	-0.030288847
79	0x3db44066	0.088013455
80	0xbdb5e9f1	-0.088825114
81	0x3d0500bb	0.0324714
82	0x3d8da087	0.06915384
83	0xbe48979a	-0.19589081
84	0xbd371b3b	-0.044703703
85	0x3c7dcccc	0.015490722
86	0x3cbe5726	0.023234915
87	0xbcc9234a	-0.02455296
88	0x3d6b994d	0.057519246
89	0xbdbbe6ea	-0.09174903
90	0x3d9ff4cb	0.078103624
91	0xbc39ffae	-0.011352463
92	0x3d817e07	0.06322866
93	0xbc559fe2	-0.013038607
94	0x3ccc3ff4	0.024932839
95	0x3da358b9	0.07975907
96	0xbd1388f9	-0.0360193
97	0xbccb778d	-0.02483728
98	0x3d8a8243	0.06763127
99	0xbca9741a	-0.020685244
100	0xbe4d776c	-0.20065087
101	0xbde07b19	-0.10960979
102	0x3e12c9a4	0.14334732
103	0xbe09cfff	-0.1345825
104	0xbdf5e213	-0.12006011
105	0xbd689bf4	-0.056789353
106	0xbc2e2705	-0.01062942
107	0x3d236f9d	0.039901365
108	0xbcba8942	-0.022770528
109	0xbcda1b38	-0.026624307
110	0xbd8bfe60	-0.068356276
111	0xbdbbc6f9	-0.091688104
112	0xbdea5e19	-0.11443729
113	0x3d062ec9	0.03275946
114	0xbdf09664	-0.11747435
115	0x3d471788	0.048606426
116	0x3d0d409d	0.03448545
117	0xbd1ee110	-0.038788855
118	0xbe1f8639	-0.15578546
119	0x3b0e6cca	0.0021732324
120	0x3dad728b	0.08469113
121	0x3c1cc106	0.009567505
122	0xbd34aae8	-0.0441083
123	0x3d617232	0.055040546
124	0xbddbb28d	-0.10727415
125	0x3e4eed27	0.20207654
126	0xbd4ceaec	-0.050028726
127	0x3e06bb8c	0.13157481
128	0xbc0e9eb9	-0.008704835
129	0x3d4c1bf7	0.049831357
130	0xbcae756a	-0.021296222
131	0x3cfc2886	0.030781042
132	0xbe0290f2	-0.12750605
133	0x3d1e8d88	0.038709193
134	0xbddb0169	-0.10693628
135	0x3b19ec7d	0.0023486905
136	0xbcbf4055	-0.023346106
137	0xbbe1551c	-0.006876601
138	0x3d905f58	0.070494354
139	0xbdadf24b	-0.08493479
140	0x3d887d6b	0.066645466
141	0x3d993b72	0.074820414
142	0xbd05ba34	-0.03264828
143	0x3dcb2c70	0.09920585
144	0x3e0ca306	0.13734064
145	0x3e511b93	0.20420675
146	0xbe04b0d0	-0.12958074
147	0xbddbb899	-0.107285686
148	0xbe10105d	-0.14068742
149	0xbb2ec35e	-0.002666674
150	0xbb5f3783	-0.0034060187
151	0xbd37ece9	-0.04490367
152	0xbc343457	-0.010998807
153	0x3d2be9f1	0.04197115
154	0xbd142f02	-0.036177643
155	0x3ce9094b	0.028446814
156	0x3da878b4	0.08226147
157	0x3e18eb6b	0.14933555
158	0x3dd69304	0.1047726
159	0xbd8b1406	-0.067909285
160	0x3db0e04f	0.086365335
161	0xbd722992	-0.059121676
162	0xbdc84bf3	-0.09780111
163	0x3d25c547	0.04047134
164	0xbda91f58	-0.082579315
165	0x3dc6ddd0	0.09710276
166	0x3e0c9340	0.13728046
167	0xbcb3f730	-0.021968454
168	0x3c2af322	0.010433944
169	0x3d2ef62d	0.04271524
170	0x3c1e1d0d	0.009650481
171	0x3dfa1ebf	0.122128956
172	0xbd5476eb	-0.05187122
173	0x3ce8d34d	0.028421069
174	0xbd80a4eb	-0.062814556
175	0xbd2b1f3e	-0.04177784
176	0xbdb102f0	-0.086431384
177	0xbe2b6dda	-0.16741124
178	0xbdaac6c8	-0.08338696
179	0x3cde4abe	0.02713525
180	0xbdad1e5e	-0.08453058
181	0xbd8753b0	-0.06607759
182	0xbdc29976	-0.095019266
183	0x3c239394	0.009983916
184	0xbd8e9e73	-0.069638155
185	0x3a9b60a6	0.0011854365
186	0x3c50b0cf	0.012737467
187	0xbc1651a0	-0.009174734
188	0x3d41bb78	0.047297925
189	0x3d9e979a	0.077437595
190	0x3deee835	0.11665384
191	0xbd925054	-0.071442276
192	0xbe060220	-0.13086748
193	0xbe462e28	-0.19353545
194	0x3d8c915f	0.06863665
195	0x3e104188	0.14087498
196	0xbe214d38	-0.15752113
197	0x3d0306ca	0.031988896
198	0x3e28bc94	0.16478187
199	0xbe24de9d	-0.16100545
200	0xbcac96c9	-0.021067994
201	0xbcbe6d96	-0.023245614
202	0x3bc561a7	0.006023604
203	0x3d971bdf	0.07378363
204	0x3cfff7aa	0.031246025
205	0xbd71552e	-0.058919124
206	0x3d9c6086	0.07635598
207	0x3db8ce82	0.09023763
208	0x3e4352f4	0.19074613
209	0x3dcef18b	0.101046644
210	0xbd4258fb	-0.04744814
211	0xbd489565	-0.0489706
212	0xbdacc923	-0.08436801
213	0xbe3e699b	-0.18594973
214	0xbe05b9c0	-0.13059139
215	0x3e27a93f	0.16373156
216	0x3d8b50bd	0.06802509
217	0xbe00853a	-0.12550822
218	0xbd97760c	-0.073955625
219	0x3cf5d060	0.030006588
220	0xbcd41bf3	-0.025892233
221	0xbd90eeff	-0.07076835
222	0xbdd388e3	-0.103288434
223	0xbe5c9a1d	-0.21543165
224	0x3db25445	0.087074794
225	0x3d65403f	0.055969473
226	0xb8a50980	-7.8695826e-05
227	0x3dc59d99	0.096492
228	0x3d22f8f6	0.03978821
229	0x3d268b16	0.040659986
230	0xbe110ef8	-0.14165866
231	0x3ddaad7c	0.10677621
232	0x39bd63ec	0.00036123337
233	0x3df4820e	0.119388685
234	0x3d8bfcf3	0.068353556
235	0xbdea408f	-0.11438095
236	0x3dacbc99	0.0843441
237	0xbaa19529	-0.0012327778
238	0x3d503425	0.05083098
239	0xbd322ec6	-0.043501638
240	0x3d5ece46	0.054395936
241	0xbd4c37a1	-0.04985774
242	0x3cd122cd	0.02552929
243	0x3cf9d4e1	0.030497016
244	0xbe4e8125	-0.20166452
245	0xbdca9cfc	-0.09893224
246	0x3d5412c5	0.051775713
247	0x3defffc1	0.11718703
248	0x3e565f50	0.20934796
249	0x3cfc5af3	0.030805087
250	0x3c2b39b9	0.010450774
251	0xbdbfa2c2	-0.093572155
252	0x3b3a142e	0.0028393376
253	0xbd9cb0ec	-0.07650933
254	0xbe021a02	-0.12705234
255	0xbe131424	-0.14363152

network_body._body_endoder.seq_layers.2.bias f4 [128]
0	0x3b36e771	0.0027908946
1	0x3bb71db8	0.0055882595
2	0xb93b3fb8	-0.00017857447
3	0xbafa9ff5	-0.0019121157
4	0xb9d17954	-0.00039953983
5	0x3b15eeae	0.002287786
6	0x3b05843e	0.0020373012
7	0x3bf2577c	0.007395683
8	0x3a172fc6	0.00057673117
9	0x3c012f2d	0.007884783
10	0xbb22755d	-0.0024789192
11	0x38e5b00a	0.00010952361
12	0xbab71ea6	-0.0013970926
13	0x3b1853a9	0.0023243225
14	0x3ba83d71	0.0051342775
15	0x3aea6792	0.001788365
16	0x3baf2bf0	0.005345814
17	0xbb028d7f	-0.0019920764
18	0x3a85f0b7	0.0010218833
19	0x3b105f6c	0.0022029532
20	0x3a64a144	0.000872154
21	0xb94f473c	-0.00019767595
22	0x3b4bc9fc	0.0031095734
23	0x3b395f8b	0.0028285708
24	0x3b901066	0.004396486
25	0xbb34c9f2	-0.002758619
26	0x3c0cff65	0.008605813
27	0x3987fe4f	0.0002593868
28	0x399dae85	0.000300754
29	0x3ad6ffa2	0.0016403089
30	0x3bceab4f	0.0063070427
31	0xb98209b0	-0.0002480275
32	0x3bcb1aa1	0.006198243
33	0x3b487ed3	0.0030593171
34	0x3b843fee	0.0040359413
35	0xbb201702	-0.0024427776
36	0x3bb2ef5c	0.005460663
37	0x3b94b4af	0.0045381407
38	0x3ba2abc0	0.004964322
39	0x3b83e607	0.004025224
40	0x3b0f3ce1	0.0021856355
41	0x3b084cc2	0.0020797704
42	0x3b40430f	0.0029336845
43	0x3b8f55e7	0.004374254
44	0x3acd5eac	0.0015668473
45	0x3bfb5c3f	0.0076709087
46	0xbb5da999	-0.0033823012
47	0x3b367df7	0.0027846077
48	0x3b0d774b	0.0021585997
49	0x3b9e7478	0.0048356615
50	0xbb49269d	-0.0030693181
51	0x3bad423d	0.0052874372
52	0xbb5dc41e	-0.0033838819
53	0x3aa89c7a	0.0012864016
54	0x3bc88be3	0.0061201914
55	0x3b863e95	0.004096816
56	0x3a0c684e	0.0005356119
57	0x3b9e73f3	0.0048355996
58	0x3b50a980	0.003183931
59	0xbb6e3f8e	-0.00363538
60	0xbb9f5c4a	-0.0048632966
61	0xba591998	-0.0008281707
62	0x3b9a4481	0.0047078733
63	0x3ba047ce	0.0048913723
64	0x3be4ccd8	0.006982427
65	0xbaef9449	-0.0018278445
66	0xbb71d826	-0.0036902516
67	0xbacbc341	-0.0015545861
68	0x3b5ba462	0.0033514728
69	0x3b2c98ab	0.0026336114
70	0x3b34bc74	0.0027578147
71	0x3aff74f1	0.0019489807
72	0xbb4d8066	-0.003135705
73	0x3bfe891f	0.007767811
74	0xbbbd948c	-0.0057855304
75	0xbb39de02	-0.0028361087
76	0x3a7d1e47	0.0009655696
77	0x3c058c1f	0.008151083
78	0x3b5e976c	0.0033964766
79	0xbba144bc	-0.004921524
80	0x3bc456cc	0.0059917923
81	0x39919514	0.00027767627
82	0xbae7b43e	-0.0017677618
83	0x3b7918c0	0.0038009137
84	0x38ee62a2	0.00011367096
85	0x3b6bfc8a	0.003600868
86	0x3bc4a8ed	0.006001583
87	0x3b8fb174	0.0043851677
88	0x3bc0501d	0.0058689252
89	0xbb2c446d	-0.0026285902
90	0xbafc51e1	-0.0019250476
91	0x3b9a4346	0.0047077266
92	0x3b528227	0.0032121034
93	0xba9e906c	-0.0012097484
94	0xb9ce755b	-0.00039378818
95	0xb965582b	-0.00021871987
96	0x3b2afe96	0.0026091686
97	0x3af307b7	0.0018541728
98	0x3b0bda04	0.0021339664
99	0x3a1d5da6	0.00060030294
100	0x3b839c19	0.004016411
101	0x3c0af5ce	0.008481456
102	0x3ba09914	0.004901061
103	0x3a3d6cc8	0.00072259875
104	0xba76e92b	-0.00094189
105	0xbb846c69	-0.004041244
106	0x3bc82ef6	0.006109114
107	0xbb19692e	-0.002340864
108	0x3bba8fa4	0.005693393
109	0x3aca0194	0.0015411847
110	0x3b155748	0.002278762
111	0x3b05099f	0.0020299924
112	0x3b8ff428	0.0043931194
113	0xbb8b35c0	-0.004248351
114	0x3b85db50	0.004084982
115	0xbafc1593	-0.0019232504
116	0xbb76cf7c	-0.0037660291
117	0xbb6b8cee	-0.0035942155
118	0x3a0ad17b	0.0005295497
119	0xbb206ba3	-0.002447822
120	0x3bab50e5	0.0052281492
121	0x3a1c8418	0.0005970611
122	0x3b8df92d	0.0043326826
123	0xbb270e27	-0.0025490613
124	0xbbd17b8b	-0.0063929013
125	0x3b8325d9	0.0040023145
126	0x3bbe6394	0.0058102105
127	0xbad7d247	-0.0016465866

action_model._discrete_distribution.branches.0.weight f4 [4, 128]
0	0xb93864ad	-0.00017585112
1	0x3c109485	0.008824472
2	0x3b4a2196	0.0030842773
3	0x3c50a889	0.012735494
4	0xbbc9e61c	-0.0061614644
5	0xbc0a9451	-0.008458213
6	0xbc93aae2	-0.01802582
7	0xbc8f7199	-0.017510222
8	0x3bba8739	0.0056923893
9	0x3b8b6dd2	0.004255035
10	0x3c961192	0.018318925
11	0x3a3ada2d	0.00071278476
12	0x3c3295e5	0.010899995
13	0xbc366501	-0.01113248
14	0xbcd96d20	-0.026541293
15	0xbc445b94	-0.011984725
16	0xbc72b559	-0.014813744
17	0x3be472e1	0.0069717024
18	0x3c15ed72	0.00915085
19	0x3ba5f3c0	0.0050644577
20	0x3bd24956	0.0064174337
21	0x3caa0c4b	0.020757815
22	0x3bb797f4	0.005602831
23	0xbbab9562	-0.0052363137
24	0xbbe54e7c	-0.0069978815
25	0x39876609	0.0002582523
26	0x3a9270f6	0.0011172581
27	0x3c266357	0.01015552
28	0xbcb0a0ab	-0.021560987
29	0x3bbe431b	0.0058063394
30	0xbca1494b	-0.01968827
31	0xbb98eb87	-0.004666749
32	0x3ac19335	0.0014768603
33	0x3bcda8ca	0.0062762247
34	0x3c38b11e	0.011272697
35	0x3c13dfc8	0.009025522
36	0xba9c430e	-0.0011921839
37	0xbb17737a	-0.00231096
38	0x3b63692d	0.003470014
39	0xbbb8033a	-0.005615619
40	0xbc85cc51	-0.016332777
41	0x3c6c25d7	0.014413319
42	0x3b858edf	0.0040758695
43	0xbc395f54	-0.011314232
44	0x3c769163	0.015049311
45	0xbc05922b	-0.008152525
46	0x3a645385	0.0008709955
47	0xbbe7c7b1	-0.0070733656
48	0xbb15399e	-0.0022769938
49	0xba9daec9	-0.001203024
50	0xbaa4888a	-0.0012552899
51	0x3a83a797	0.0010044453
52	0x3c9315c8	0.017954722
53	0xbaf7609a	-0.0018873394
54	0xbc74c2f3	-0.014939058
55	0x3b997fd2	0.004684427
56	0x3bbb9106	0.0057240753
57	0xbc60a3ee	-0.013710959
58	0xbbf00cc2	-0.0073257396
59	0x3af60498	0.001876968
60	0x3ca1997d	0.01972651
61	0x3b1fdfd0	0.0024394877
62	0xbc27ef0a	-0.010249862
63	0x3bd8fec1	0.006622166
64	0xbc2fe470	-0.010735616
65	0xbaa376b9	-0.0012471295
66	0x39eeba49	0.0004553369
67	0x3b59e88b	0.0033250179
68	0xbb142334	-0.002260399
69	0xbc3265ae	-0.0108885
70	0xbc2a5dbe	-0.010398326
71	0xba1ca354	-0.00059752655
72	0x3c1dd976	0.009634366
73	0xbba13d61	-0.004920647
74	0x3c2538cc	0.010084342
75	0x3c7e268f	0.015512123
76	0x3c0517db	0.008123363
77	0x3c716930	0.014734551
78	0xbc3c5d82	-0.011496903
79	0x3bf692e3	0.0075248345
80	0xbb0ebfdd	-0.002178184
81	0x3bda568c	0.006663149
82	0x3bda8390	0.0066685155
83	0xbbabc7dd	-0.0052423314
84	0x3bebc3f5	0.0071949908
85	0xbb533af1	-0.0032231177
86	0xbc0e9833	-0.008703279
87	0x3b25b64e	0.0025285664
88	0xbc1651b1	-0.00917475
89	0x38e10ee4	0.0001073161
90	0xbc4709cb	-0.012148331
91	0xbb3c6249	-0.0028745106
92	0xbb6f6b5b	-0.0036532495
93	0x3bec19fc	0.007205246
94	0x3c03e8c8	0.008051105
95	0x3b82007b	0.0039673424
96	0x3b7de19c	0.003873921
97	0x3a496024	0.00076818676
98	0xbc10eb1f	-0.00884512
99	0xb9a9c346	-0.00032379682
100	0x3c39f07f	0.011348843
101	0x399cc78b	0.0002990331
102	0x3b354d0f	0.0027664339
103	0xba0588ee	-0.00050939515
104	0x3b9a4fd3	0.004709223
105	0x3c5f5753	0.01363166
106	0x3c280841	0.010255874
107	0x3c50c4ef	0.012742265
108	0xbbd219b8	-0.0064117573
109	0x3c6b0574	0.014344562
110	0x3bcb0540	0.006195694
111	0xbc06d8e7	-0.0082304245
112	0xbbfc14fa	-0.0076929303
113	0x3bcb14ad	0.006197533
114	0xbc73ea7b	-0.0148874475
115	0x3c41b9c1	0.011824072
116	0x3b982985	0.0046436214
117	0x3beb9477	0.0071893292
118	0x3bb8aaad	0.0056355805
119	0x3bed8203	0.0072481646
120	0x3b22a7d5	0.0024819274
121	0xbb74fafd	-0.0037381046
122	0xbc26c5a8	-0.010178961
123	0xbc25ca9e	-0.0101191085
124	0x3ca1ef05	0.019767294
125	0x3bc721b6	0.0060770167
126	0x3c5f6c98	0.013636731
127	0x3c881b2b	0.016614517
128	0xbaffec51	-0.0019525384
129	0x3c11dd7d	0.008902905
130	0xbb6af3c8	-0.0035850871
131	0x3c185274	0.009297002
132	0xbcabf150	-0.02098909
133	0xbc9bcee5	-0.019019553
134	0x39e8bce9	0.00044391237
135	0x3b4620af	0.0030231883
136	0xbc832656	-0.016009491
137	0x3c50fd3a	0.012755686
138	0x3aea132f	0.00178585
139	0xbc8e0df4	-0.017340638
140	0x3bb30355	0.0054630437
141	0xbb51bd8b	-0.0032003846
142	0xbaca401f	-0.0015430487
143	0xbbb89f32	-0.005634212
144	0xbc32cfa9	-0.010913768
145	0xbca25fe4	-0.019821115
146	0x3a6e0671	0.00090799393
147	0x3955930d	0.00020368044
148	0x3b7872a4	0.0037910128
149	0x3b8992f0	0.0041984245
150	0x3c153ce5	0.009108757
151	0x3bb52d2b	0.005529066
152	0x3b11b19f	0.0022231115
153	0xbb5f3c45	-0.0034063023
154	0x3c0b0e0e	0.008487238
155	0x3a7023ab	0.00091605884
156	0xbc06a883	-0.008218887
157	0xba83a580	-0.001004383
158	0xbb4f9fdb	-0.0031680975
159	0xba990442	-0.0011674243
160	0x3c21ecac	0.009883087
161	0x3bf4c7f0	0.0074701235
162	0x3c4a414b	0.012344669
163	0xbc5f73c8	-0.013638444
164	0x3c21ddf2	0.009879576
165	0x3aea3614	0.00178689
166	0x3ab0f5b9	0.0013500965
167	0xba8d1374	-0.0010763244
168	0xbbed763e	-0.0072467616
169	0x3cdb42bb	0.026765218
170	0x3c8e4319	0.017365979
171	0x3c0bea3b	0.008539732
172	0x3c531148	0.012882538
173	0x393c7135	0.0001797125
174	0x3a399d4f	0.0007080631
175	0xbb9e317a	-0.0048276754
176	0xbbf50168	-0.0074769743
177	0x3bce01cd	0.0062868358
178	0xbba240fe	-0.0049515953
179	0x3a122741	0.00055753073
180	0xbbdbef50	-0.006711878
181	0xbc725093	-0.014789718
182	0xbb860c8d	-0.0040908516
183	0x3cc80259	0.024415182
184	0x3b51b4ed	0.003199871
185	0xbbae4b73	-0.005319053
186	0xbc0d7ab0	-0.008635208
187	0xbbcc7f88	-0.006240789
188	0xbabe4b5e	-0.0014518311
189	0xbbf1c249	-0.007377897
190	0x3c4fe4e3	0.012688848
191	0xbb0a981d	-0.0021147795
192	0xbb91b3c5	-0.004446479
193	0xbc4f50da	-0.012653554
194	0xbbd9bd9a	-0.0066449167
195	0xbb4379e6	-0.0029827296
196	0x3b1ac8d6	0.0023618243
197	0xbb0337b9	-0.0020022227
198	0x3b8caca5	0.004293042
199	0xbc221a10	-0.009893909
200	0xbb9312c4	-0.004488321
201	0x3c4596c5	0.012059872
202	0x3b2fe185	0.00268373
203	0xbc451ab1	-0.0120302895
204	0xb9da892e	-0.00041682407
205	0x3bf26410	0.0073971823
206	0x3c5e985e	0.013586132
207	0xbb95520a	-0.004556899
208	0xb9e33e7e	-0.00043343374
209	0x3c4dde38	0.012565188
210	0xbba6e645	-0.0050933682
211	0x3c15c44e	0.009141041
212	0x3b673300	0.00352782
213	0xbb815e43	-0.0039480045
214	0x3b5d44e7	0.0033762993
215	0xbb6e470f	-0.0036358272
216	0x3c66de14	0.0140910335
217	0xbc5dec2f	-0.01354508
218	0xbc408210	-0.011749759
219	0x3c79ed57	0.01525434
220	0xbc0e3bc7	-0.008681244
221	0x3c0ae005	0.008476262
222	0xbc2f8fa0	-0.010715395
223	0x391b6d10	0.00014822581
224	0x3c07de0e	0.008292688
225	0x3cb0d840	0.021587491
226	0x3cb7b9dc	0.022427492
227	0xbc976d26	-0.018484663
228	0x3bfb0b5c	0.0076612663
229	0x3b848fb4	0.004045451
230	0x3c5ea86b	0.013589959
231	0xbb4ccfe2	-0.0031251837
232	0x3c00028c	0.007813107
233	0x3ba8ccf1	0.005151384
234	0x3c58d9dc	0.0132355355
235	0xbc308129	-0.010772982
236	0xba033e05	-0.0005006495
237	0x3c12ae9f	0.008952766
238	0xb92e7e4c	-0.00016640982
239	0xbbcd9433	-0.0062737702
240	0x3c842493	0.016130721
241	0xbb8b9032	-0.004259133
242	0x3b896e8c	0.0041940864
243	0xbc376861	-0.011194319
244	0xbc3c15a8	-0.011479773
245	0xbb889509	-0.004168157
246	0x3bcc070a	0.006226425
247	0xbcbc75f6	-0.023005467
248	0x3c27bdde	0.010238139
249	0x3806e0dd	3.215751e-05
250	0xbbea02cc	-0.0071414467
251	0xbc081965	-0.008306836
252	0x3c443c46	0.011977261
253	0xbc6ea01e	-0.014564542
254	0x3c860403	0.016359335
255	0xbc05d306	-0.008167988

action_model._discrete_distribution.branches.0.bias f4 [4]
0	0xbb8e4f1e	-0.0043429276
1	0x3b09aee7	0.002100879
2	0xba92b173	-0.00111918
3	0x3a9a56d2	0.0011775142

exp_avg f4 [128, 5]
0	0x351acff1	5.7672065e-07
1	0x37e6f0e5	2.7530312e-05
2	0x387bdd30	6.004906e-05
3	0xb812450e	-3.4873425e-05
4	0xb82c155e	-4.1027895e-05
5	0x35d2dee5	1.571109e-06
6	0xb63dba27	-2.827155e-06
7	0xb70fba94	-8.566905e-06
8	0x37158f13	8.914404e-06
9	0x36bd7eeb	5.647414e-06
10	0xb70e5e9e	-8.485889e-06
11	0xb607f3a6	-2.025839e-06
12	0xb7891cf2	-1.6345151e-05
13	0x34f1c627	4.5033923e-07
14	0x3657a33f	3.2132518e-06
15	0x371ffff1	9.5367295e-06
16	0x380e8a96	3.3984506e-05
17	0x389d743d	7.5079945e-05
18	0xb836c292	-4.357339e-05
19	0xb836b058	-4.3556414e-05
20	0xb7105d53	-8.604798e-06
21	0xb710e709	-8.636861e-06
22	0xb77b9b05	-1.4996859e-05
23	0xb6f078c7	-7.1666177e-06
24	0x369c9fce	4.667766e-06
25	0xb6fe28da	-7.5745456e-06
26	0xb756dff0	-1.28075335e-05
27	0xb81dc255	-3.7612703e-05
28	0x37a1d01c	1.9289604e-05
29	0xb5fcc82e	-1.8833723e-06
30	0xb6808512	-3.8301887e-06
31	0x37cb25f6	2.4217163e-05
32	0x38233f20	3.8921018e-05
33	0xb79dedf2	-1.882666e-05
34	0xb79cf8ef	-1.8712568e-05
35	0x36c1829d	5.7670536e-06
36	0x38429467	4.6391415e-05
37	0x3889808b	6.556612e-05
38	0xb7ff954f	-3.0467896e-05
39	0xb716bcf5	-8.984692e-06
40	0xb63ea1f8	-2.8406484e-06
41	0xb70d5afc	-8.425439e-06
42	0xb7169719	-8.975877e-06
43	0x359eaf1b	1.182288e-06
44	0x363fa24b	2.8555685e-06
45	0x36d9d364	6.491713e-06
46	0x375937e7	1.2947224e-05
47	0x381b3905	3.7007983e-05
48	0xb79ed2c1	-1.8933208e-05
49	0xb7eaf637	-2.8009626e-05
50	0x37336a1f	1.069394e-05
51	0x377880b4	1.4811918e-05
52	0x38333e1e	4.2734777e-05
53	0xb7b514a3	-2.1586491e-05
54	0xb716109b	-8.944563e-06
55	0xb68a9dfe	-4.131113e-06
56	0x38144d2e	3.535783e-05
57	0x38aa0dd7	8.1088096e-05
58	0xb80e412a	-3.3916127e-05
59	0xb86e470b	-5.6809786e-05
60	0x368af659	4.141399e-06
61	0xb7852449	-1.5871732e-05
62	0xb803a67c	-3.1387885e-05
63	0x37962094	1.7896564e-05
64	0x37c47d3f	2.3423343e-05
65	0xb798fff0	-1.8238992e-05
66	0xb724420b	-9.790539e-06
67	0xb8871804	-6.441775e-05
68	0x3810b66e	3.4502176e-05
69	0x38717cce	5.757511e-05
70	0x348cd9cf	2.623551e-07
71	0x35ddf2df	1.6536468e-06
72	0xb66acfc6	-3.4989657e-06
73	0x3644f287	2.9347445e-06
74	0x3661b290	3.363155e-06
75	0x36753ea3	3.6544304e-06
76	0x36429048	2.8992235e-06
77	0x36f6d484	7.3561114e-06
78	0xb6a446d7	-4.8958277e-06
79	0xb68f5645	-4.271775e-06
80	0x36d4df14	6.344062e-06
81	0x37661cd2	1.3715779e-05
82	0x38501cc2	4.9617847e-05
83	0xb800e490	-3.0730444e-05
84	0xb82b675c	-4.0865838e-05
85	0xb5224eeb	-6.0464544e-07
86	0x3584a12e	9.881676e-07
87	0xb72c0232	-1.025251e-05
88	0x36725ae1	3.6113709e-06
89	0x364e0fd3	3.0705603e-06
90	0x37726d08	1.444971e-05
91	0x37452b9d	1.17522695e-05
92	0x380b0137	3.3141314e-05
93	0xb777f99f	-1.4780467e-05
94	0xb7f3e1b0	-2.9072951e-05
95	0x363deda9	2.830153e-06
96	0x369c0974	4.650263e-06
97	0x3829ff3f	4.0530456e-05
98	0xb7d33256	-2.51766e-05
99	0xb80be134	-3.334992e-05
100	0xb72cc6e4	-1.0298307e-05
101	0x3648caa2	2.992027e-06
102	0xb744a27b	-1.1720341e-05
103	0xb6f9d03e	-7.445021e-06
104	0x376d5739	1.4146609e-05
105	0x367d6017	3.775587e-06
106	0xb62e341f	-2.595836e-06
107	0xb6b30792	-5.335497e-06
108	0x37108f06	8.616369e-06
109	0xb60a18b8	-2.057799e-06
110	0xb62caa49	-2.5729116e-06
111	0xb6a1e603	-4.824951e-06
112	0xb78c92cf	-1.6757664e-05
113	0x370d38aa	8.417448e-06
114	0x376c0c38	1.4069541e-05
115	0xb79a3cdf	-1.8386576e-05
116	0x368a11db	4.114799e-06
117	0xb8282f1f	-4.0098206e-05
118	0x3729394a	1.0086524e-05
119	0x376bfbf6	1.4065756e-05
120	0x369287d7	4.366953e-06
121	0x36c9f0f0	6.0183156e-06
122	0x37c61c40	2.3616594e-05
123	0xb68998c5	-4.100703e-06
124	0xb78d6954	-1.6857557e-05
125	0x368d20e3	4.205956e-06
126	0xb62c43cd	-2.5669463e-06
127	0xb701255d	-7.6976985e-06
128	0x375d9b75	1.3208822e-05
129	0xb67a113e	-3.726294e-06
130	0x36e9c01d	6.966306e-06
131	0x36febbb6	7.5916423e-06
132	0x37ce9707	2.4627441e-05
133	0xb7574814	-1.2831781e-05
134	0xb69a7e60	-4.6042696e-06
135	0xb685d697	-3.9886904e-06
136	0x36867ff2	4.008406e-06
137	0x358a181f	1.0288821e-06
138	0xb711c02a	-8.687415e-06
139	0xb71d59a3	-9.378799e-06
140	0x35880ea8	1.0137055e-06
141	0xb7018777	-7.7205395e-06
142	0xb796efed	-1.7993118e-05
143	0x3749b196	1.2021881e-05
144	0x374957a5	1.200094e-05
145	0x35bae5d6	1.3924971e-06
146	0x377c1928	1.5026228e-05
147	0x3816814b	3.58832e-05
148	0xb7b64be4	-2.173143e-05
149	0xb7b5904e	-2.1644079e-05
150	0x37515f54	1.2479566e-05
151	0xb69b4037	-4.6268356e-06
152	0xb583795c	-9.795581e-07
153	0x378626b2	1.5992064e-05
154	0xb71d0253	-9.35847e-06
155	0x365b6eb5	3.2697983e-06
156	0x3835d506	4.3352156e-05
157	0x388856cc	6.5011525e-05
158	0xb800eeaf	-3.073987e-05
159	0xb7e05137	-2.67407e-05
160	0xb6d822b7	-6.441343e-06
161	0xb536f25b	-6.8152957e-07
162	0xb71d42e1	-9.373501e-06
163	0x35e781e6	1.7248647e-06
164	0x36abbbd1	5.118062e-06
165	0x3617a98d	2.2599445e-06
166	0x368d1243	4.2042534e-06
167	0x36768d99	3.6739277e-06
168	0x359e7a31	1.180748e-06
169	0x372be39d	1.024539e-05
170	0x370b8769	8.316573e-06
171	0x35d9829c	1.6205772e-06
172	0x36cc36fd	6.0860752e-06
173	0xb5c44b58	-1.4625066e-06
174	0x3600c5a1	1.9188521e-06
175	0xb401372f	-1.2034137e-07
176	0x35afa4c3	1.3086468e-06
177	0xb6571f50	-3.2055723e-06
178	0xb5784ede	-9.2501966e-07
179	0xb621c7ab	-2.4107092e-06
180	0xb68d18a7	-4.2049974e-06
181	0x36017e4f	1.929602e-06
182	0xb77fa1f4	-1.5236892e-05
183	0x3623f788	2.4432975e-06
184	0x37838ec8	1.5682905e-05
185	0xb5a5bd2e	-1.2348517e-06
186	0xb58091b9	-9.579154e-07
187	0x36958374	4.455849e-06
188	0xb6c69b57	-5.9189438e-06
189	0xb58b087f	-1.035878e-06
190	0x34ef46ba	4.456868e-07
191	0xb5403683	-7.16049e-07
192	0xb74550e5	-1.176095e-05
193	0x36b56347	5.4057778e-06
194	0x3727aa76	9.993664e-06
195	0xb71e0e0d	-9.420805e-06
196	0x35bde233	1.414743e-06
197	0xb7fae4b7	-2.9908826e-05
198	0xb55df8c7	-8.2690934e-07
199	0x37c1740a	2.3061428e-05
200	0xb6bdf81c	-5.6615227e-06
201	0x36eebedb	7.1151712e-06
202	0x3794337a	1.7666945e-05
203	0xb6ab0d18	-5.0977214e-06
204	0xb778a685	-1.4820723e-05
205	0x36e02b29	6.6807447e-06
206	0x35add8f2	1.2952644e-06
207	0x3743d957	1.1673509e-05
208	0xb54bdfa3	-7.594883e-07
209	0x35bd278d	1.4093108e-06
210	0x3714a52b	8.859944e-06
211	0x368444f0	3.941932e-06
212	0x37789259	1.4816026e-05
213	0xb5cbe0e0	-1.5190126e-06
214	0xb67d5c16	-3.775354e-06
215	0xb66692cc	-3.4358118e-06
216	0xb78807ad	-1.6216038e-05
217	0xb7e5d80f	-2.7399537e-05
218	0xb63dba24	-2.8271543e-06
219	0xb77b7881	-1.4988823e-05
220	0xb4fa10a5	-4.657824e-07
221	0x36eb7ef4	7.018325e-06
222	0x37c5ed10	2.359462e-05
223	0xb7884c25	-1.6247921e-05
224	0xb5ae875a	-1.3003403e-06
225	0xb693163a	-4.383529e-06
226	0xb49b823b	-2.8965755e-07
227	0xb787f4d4	-1.6207261e-05
228	0x36259f43	2.4679618e-06
229	0x35f5e87f	1.8321588e-06
230	0xb52167ec	-6.01284e-07
231	0x3674147f	3.6370764e-06
232	0x36b34813	5.3430063e-06
233	0xb6c16a4b	-5.7642224e-06
234	0xb68d4526	-4.2101774e-06
235	0x35f77020	1.8435567e-06
236	0x36725051	3.610756e-06
237	0x3780d6e2	1.5358852e-05
238	0xb68fc153	-4.284238e-06
239	0xb7490fc9	-1.1984209e-05
240	0xb626e21c	-2.486754e-06
241	0xb6a0a90f	-4.7880526e-06
242	0xb76b8105	-1.4037131e-05
243	0x35da0a37	1.6245239e-06
244	0x36ea585e	6.9840307e-06
245	0x355af971	8.1574314e-07
246	0x37d570b2	2.5444057e-05
247	0x384729e2	4.7484304e-05
248	0xb78abc94	-1.6538695e-05
249	0xb71c04d9	-9.299453e-06
250	0x360e01db	2.116073e-06
251	0xb7986e3a	-1.817114e-05
252	0xb81c424f	-3.7255053e-05
253	0x3783b7ee	1.5702066e-05
254	0x37bec7c1	2.2742783e-05
255	0xb713523f	-8.781032e-06

exp_avg_sq f4 [128, 5]
0	0x2f3a28db	1.6931116e-10
1	0x2f54b3cf	1.9345169e-10
2	0x2fa7616c	3.0446345e-10
3	0x2fa1a3b6	2.9402053e-10
4	0x305cc8a9	8.032069e-10
5	0x2e020435	2.9562314e-11
6	0x2e03176f	2.9806765e-11
7	0x2e611e44	5.1185958e-11
8	0x2e76714b	5.603455e-11
9	0x2f39459e	1.6850385e-10
10	0x2e28af26	3.835434e-11
11	0x2e38a909	4.198689e-11
12	0x2e8ac19d	6.309906e-11
13	0x2e29ecaf	3.863637e-11
14	0x2f9ff469	2.9095595e-10
15	0x2f3bb52b	1.7071915e-10
16	0x2fa22192	2.9491481e-10
17	0x30058adc	4.858245e-10
18	0x2fc85e7e	3.644693e-10
19	0x30c74844	1.4499695e-09
20	0x2ed7e4da	9.81772e-11
21	0x2f18a9b1	1.3884606e-10
22	0x2ec4fcf6	8.957983e-11
23	0x2f052ae7	1.2111522e-10
24	0x300492f8	4.8230175e-10
25	0x2e8968f4	6.248682e-11
26	0x2e8cf55e	6.410049e-11
27	0x2f3f0652	1.7373594e-10
28	0x2eff1f5f	1.160163e-10
29	0x2fca81d2	3.683583e-10
30	0x2e9a3d6c	7.01402e-11
31	0x2e78f179	5.6603142e-11
32	0x2f23b710	1.48898e-10
33	0x2ea531f4	7.512205e-11
34	0x2f8694dd	2.4480232e-10
35	0x2f4de58a	1.872619e-10
36	0x2f8cced4	2.5612812e-10
37	0x2fc2d0bf	3.5436717e-10
38	0x2f7ef156	2.3186905e-10
39	0x30876777	9.851949e-10
40	0x2d958667	1.6999025e-11
41	0x2d96c27b	1.7139392e-11
42	0x2dad4946	1.9700363e-11
43	0x2d8679ca	1.5288121e-11
44	0x2ea6c033	7.5829475e-11
45	0x2e3b2184	4.2548645e-11
46	0x2e75d218	5.589315e-11
47	0x2ee96997	1.061437e-10
48	0x2e7663be	5.6022513e-11
49	0x2f869525	2.4480432e-10
50	0x2f06afd0	1.224969e-10
51	0x2f249886	1.49699e-10
52	0x2f8a500d	2.5158933e-10
53	0x2f4d1e6c	1.865545e-10
54	0x306f70ce	8.7108e-10
55	0x2fae0394	3.1652958e-10
56	0x2f8be036	2.5443264e-10
57	0x30161eee	5.4613636e-10
58	0x2fd61d2e	3.8947107e-10
59	0x30d20f69	1.5283891e-09
60	0x2e2d59df	3.9415467e-11
61	0x2e371889	4.1631174e-11
62	0x2ee4fec3	1.04134944e-10
63	0x2e401734	4.3676354e-11
64	0x2f6b71b6	2.1413524e-10
65	0x2f842eaf	2.404383e-10
66	0x2ffb3c5d	4.5699525e-10
67	0x302e720b	6.3462896e-10
68	0x2fb27782	3.2462927e-10
69	0x31763fe6	3.5834034e-09
70	0x2dfbc35c	2.8622153e-11
71	0x2e064880	3.0532465e-11
72	0x2e6084c0	5.104961e-11
73	0x2e3c2b75	4.278485e-11
74	0x2f2a1b44	1.5471097e-10
75	0x2d162634	8.534996e-12
76	0x2d2d4067	9.848212e-12
77	0x2d480ce8	1.13715495e-11
78	0x2d44af02	1.118017e-11
79	0x2e2c6649	3.919912e-11
80	0x2f13cc6d	1.3442199e-10
81	0x2f23ed1c	1.4909002e-10
82	0x2fbd4786	3.442972e-10
83	0x2f62589d	2.0586062e-10
84	0x304f3e38	7.539458e-10
85	0x2e283b1f	3.8251288e-11
86	0x2e741a1e	5.5502374e-11
87	0x2eae27c9	7.919671e-11
88	0x2e75701b	5.580612e-11
89	0x2f915db2	2.644192e-10
90	0x2edf30b6	1.0149519e-10
91	0x2f342b72	1.638634e-10
92	0x2f4f32d8	1.8844604e-10
93	0x2efd5d99	1.1521734e-10
94	0x309006db	1.0479327e-09
95	0x2eaf1d75	7.963311e-11
96	0x2f295727	1.5401423e-10
97	0x2f7efe4f	2.3191514e-10
98	0x2f39244d	1.6838549e-10
99	0x309aa546	1.1251948e-09
100	0x2e89dd66	6.269367e-11
101	0x2e217c9f	3.6717848e-11
102	0x2e6738a2	5.257362e-11
103	0x2e9d444b	7.151665e-11
104	0x30447397	7.146865e-10
105	0x2eaba37d	7.805221e-11
106	0x2ebc6061	8.5663705e-11
107	0x2f246e60	1.4954926e-10
108	0x2ebf9ee3	8.7138984e-11
109	0x2f9d6d81	2.863594e-10
110	0x2e1fe597	3.635633e-11
111	0x2e15b04d	3.4035264e-11
112	0x2e700450	5.4573512e-11
113	0x2e1fa27d	3.6296733e-11
114	0x2f3840dc	1.6757745e-10
115	0x2fba19dd	3.385158e-10
116	0x2fec1a39	4.2946782e-10
117	0x2fce9bb0	3.7581804e-10
118	0x2ff0932d	4.376032e-10
119	0x31881487	3.9604546e-09
120	0x2e223cea	3.6888638e-11
121	0x2de724bf	2.6277978e-11
122	0x2e7b7e15	5.7182776e-11
123	0x2df5146d	2.7862346e-11
124	0x2ed7dd48	9.8163755e-11
125	0x2de24f2f	2.572839e-11
126	0x2db72515	2.0821159e-11
127	0x2de9f9bd	2.659994e-11
128	0x2dd7e594	2.4544623e-11
129	0x2f11cc24	1.3260198e-10
130	0x2e85361f	6.0577536e-11
131	0x2f00db93	1.171954e-10
132	0x2f306627	1.6043399e-10
133	0x2f0b5b29	1.2674363e-10
134	0x3081b2ae	9.436769e-10
135	0x2e217917	3.671471e-11
136	0x2e5b8d63	4.992041e-11
137	0x2e720955	5.5032718e-11
138	0x2e7bec49	5.7280656e-11
139	0x2f93b883	2.6870248e-10
140	0x2e88907c	6.2102296e-11
141	0x2eb3abc5	8.17049e-11
142	0x2f1efdc4	1.4460172e-10
143	0x2eb7aaf1	8.352242e-11
144	0x3034a0b8	6.5712014e-10
145	0x2e8af24e	6.3185554e-11
146	0x2ed01ed9	9.4642245e-11
147	0x2f2072ce	1.4592702e-10
148	0x2ed77ea0	9.799561e-11
149	0x30379726	6.6789807e-10
150	0x2ed90a74	9.8698744e-11
151	0x2edc1e2f	1.00098034e-10
152	0x2eede88f	1.0818823e-10
153	0x2f122903	1.3293193e-10
154	0x3004a835	4.8260357e-10
155	0x2f82b96c	2.3778612e-10
156	0x2f810219	2.3466454e-10
157	0x2fd9f0f4	3.9643278e-10
158	0x2f7fc59f	2.3262324e-10
159	0x30bf47a9	1.3917446e-09
160	0x2e147140	3.375189e-11
161	0x2e252168	3.7546327e-11
162	0x2e57f8a0	4.9106164e-11
163	0x2e64a021	5.198342e-11
164	0x2f839b58	2.393914e-10
165	0x2dfabbe5	2.8505151e-11
166	0x2e4e9ab6	4.6976388e-11
167	0x2eaabf4e	7.7646875e-11
168	0x2e67c3c5	5.2697197e-11
169	0x2fa15a03	2.9349687e-10
170	0x2ddedc51	2.5336318e-11
171	0x2d5610fa	1.2168261e-11
172	0x2d99bdc9	1.7478368e-11
173	0x2d8a8fa0	1.5752566e-11
174	0x2e890ebe	6.2326574e-11
175	0x2d2093bb	9.12775e-12
176	0x2cc0ac18	5.4760745e-12
177	0x2d488804	1.1398885e-11
178	0x2d10ca2d	8.230344e-12
179	0x2e2c0ce0	3.9119707e-11
180	0x2d7ae385	1.4261374e-11
181	0x2d8ce6b4	1.601861e-11
182	0x2dbecf7c	2.169264e-11
183	0x2d5c9f94	1.2540986e-11
184	0x2ec99c45	9.168181e-11
185	0x2dbbe844	2.1362585e-11
186	0x2d1f8b7c	9.069075e-12
187	0x2e004193	2.9162072e-11
188	0x2dcaff7e	2.3078203e-11
189	0x2ece2f17	9.37616e-11
190	0x2d424faa	1.1045312e-11
191	0x2d462a30	1.12643644e-11
192	0x2dc52ef4	2.2417158e-11
193	0x2d4eee8c	1.1762712e-11
194	0x2ee832cf	1.0559164e-10
195	0x2e9069a4	6.5671274e-11
196	0x2e67bab4	5.2689145e-11
197	0x2eba5ea0	8.4751095e-11
198	0x2e8ab746	6.308069e-11
199	0x2fc608fa	3.6022368e-10
200	0x2dc03e83	2.1855634e-11
201	0x2d79d814	1.420199e-11
202	0x2e1e916c	3.60542e-11
203	0x2e0cd8e7	3.2024963e-11
204	0x2ef2e3a3	1.1045322e-10
205	0x2dc36ba1	2.221673e-11
206	0x2e2d7742	3.9441568e-11
207	0x2e0b87f6	3.17257e-11
208	0x2e34b3dc	4.108701e-11
209	0x2f468edd	1.805875e-10
210	0x2eb5574d	8.246435e-11
211	0x2ec4ae8e	8.944055e-11
212	0x2eddd68c	1.00880276e-10
213	0x2ef5a06f	1.1169809e-10
214	0x3046880a	7.2225304e-10
215	0x2f08b844	1.2434592e-10
216	0x2f31c048	1.6166368e-10
217	0x2f977622	2.7550678e-10
218	0x2f444fa9	1.7854397e-10
219	0x30df0cda	1.6229038e-09
220	0x2e1322ed	3.345495e-11
221	0x2e8e10a4	6.4603684e-11
222	0x2e8ad5dd	6.313503e-11
223	0x2ea43f51	7.469104e-11
224	0x2fc5842f	3.5928013e-10
225	0x2e800c43	5.822944e-11
226	0x2e9b147e	7.052224e-11
227	0x2e97c90e	6.9023995e-11
228	0x2e9fe11d	7.270471e-11
229	0x2fb86026	3.3537723e-10
230	0x2d878a84	1.5409236e-11
231	0x2e159870	3.401407e-11
232	0x2e0e913e	3.2416063e-11
233	0x2e01ff38	2.9557884e-11
234	0x2f159eb0	1.3607848e-10
235	0x2e17f151	3.4547757e-11
236	0x2e104a9c	3.2808076e-11
237	0x2e402778	4.36908e-11
238	0x2e0e8e5d	3.2413506e-11
239	0x2f4472e8	1.7866919e-10
240	0x2dcb1e54	2.3091896e-11
241	0x2d90f79d	1.6480867e-11
242	0x2dfa1d5e	2.8434751e-11
243	0x2d8ce1be	1.6016407e-11
244	0x2f3efa62	1.7369353e-10
245	0x2eeda1b4	1.08062365e-10
246	0x2f097baf	1.2504019e-10
247	0x2f5f97b3	2.0335626e-10
248	0x2f1de4cc	1.4360352e-10
249	0x300c75b8	5.109899e-10
250	0x2e54b3fd	4.836308e-11
251	0x2e438520	4.4456105e-11
252	0x2efd6405	1.1522875e-10
253	0x2e564dda	4.8727113e-11
254	0x300ad0a4	5.0500604e-10
255	0x2e03d86a	2.9978166e-11

exp_avg f4 [128]
0	0xb88fd01b	-6.857534e-05
1	0xb68d4360	-4.209971e-06
2	0xb63cd412	-2.8137624e-06
3	0xb8ac0d6d	-8.2041e-05
4	0xb7b42cb7	-2.1478494e-05
5	0xb7f23fd7	-2.8878376e-05
6	0xb795f752	-1.7877352e-05
7	0xb7a81925	-2.003887e-05
8	0xb63db56a	-2.8268792e-06
9	0xb8103355	-3.4380082e-05
10	0xb77dff03	-1.513935e-05
11	0xb8b57a96	-8.653586e-05
12	0x380e557a	3.3935044e-05
13	0x38a28c1b	7.750859e-05
14	0x35d46a37	1.5826143e-06
15	0x36893ed6	4.0902332e-06
16	0xb890535d	-6.881983e-05
17	0x37a61c38	1.9801882e-05
18	0xb827c4a3	-3.9999035e-05
19	0xb846aecb	-4.7369667e-05
20	0xb7b5ec70	-2.1686981e-05
21	0x38018112	3.0876203e-05
22	0xb6801df2	-3.8181834e-06
23	0xb7828283	-1.5557982e-05
24	0xb7381af9	-1.0973535e-05
25	0x32fef714	2.968185e-08
26	0xb78885b8	-1.6274731e-05
27	0x3740a6a9	1.1482895e-05
28	0x37994aed	1.8273911e-05
29	0xb821c2ee	-3.8566934e-05
30	0x36d37255	6.3016e-06
31	0xb82080a2	-3.826677e-05
32	0x3638b457	2.7523108e-06
33	0xb7753059	-1.4614395e-05
34	0xb5fa78d2	-1.8661615e-06
35	0xb515086e	-5.551909e-07
36	0x37264541	9.9104955e-06
37	0x379a97c5	1.8428904e-05
38	0xb6b206bc	-5.3055974e-06
39	0xb72d1e08	-1.0318596e-05
40	0xb7e202c8	-2.6942595e-05
41	0xb7932f8d	-1.7545908e-05
42	0x362a9b6b	2.542244e-06
43	0xb69a6f27	-4.6024975e-06
44	0xb78ef079	-1.7039698e-05
45	0xb7943f1b	-1.767236e-05
46	0xb75365df	-1.2600299e-05
47	0x36180252	2.2651116e-06
48	0x368b6413	4.154173e-06
49	0xb82804da	-4.005884e-05
50	0x37b52a2d	2.1596521e-05
51	0x378d9e2c	1.6882164e-05
52	0xb731ddf3	-1.0601699e-05
53	0xb6a304f4	-4.858355e-06
54	0x3710863c	8.614323e-06
55	0xb617d01d	-2.2621891e-06
56	0xb8761825	-5.8673457e-05
57	0x378e7c6a	1.6985654e-05
58	0x369a3fdf	4.596993e-06
59	0xb8c91aff	-9.589455e-05
60	0xb7013a03	-7.702506e-06
61	0x37cff7e7	2.4791761e-05
62	0x3818fd5a	3.6475576e-05
63	0xb7b1663c	-2.114765e-05
64	0xb870998f	-5.736347e-05
65	0xb7123228	-8.713956e-06
66	0x3615d1d5	2.2324868e-06
67	0xb70b9597	-8.319875e-06
68	0xb62764af	-2.4943545e-06
69	0x370e8c50	8.496529e-06
70	0xb5fc10c7	-1.8780346e-06
71	0x3654929a	3.1675795e-06
72	0x36de88cc	6.632041e-06
73	0xb7bf7e50	-2.2827793e-05
74	0xb61a8db1	-2.3030263e-06
75	0xb838af3e	-4.4032226e-05
76	0xb71f9953	-9.512837e-06
77	0x371a0755	9.180822e-06
78	0xb70025ef	-7.638227e-06
79	0xb703c66c	-7.854407e-06
80	0x36f0d714	7.1775958e-06
81	0x36147670	2.2122658e-06
82	0x37288889	1.004537e-05
83	0xb810c228	-3.4513097e-05
84	0xb70e22dd	-8.471977e-06
85	0x36ba613d	5.554552e-06
86	0xb877711b	-5.8994727e-05
87	0x36aadd15	5.092132e-06
88	0x3799ee1c	1.83499e-05
89	0xb77d51c6	-1.50990145e-05
90	0xb723148d	-9.720342e-06
91	0xb7a5bf25	-1.9758541e-05
92	0x37846f13	1.578735e-05
93	0x35d3dc9f	1.5784934e-06
94	0x37c0218c	2.2903805e-05
95	0x375dd34a	1.3221821e-05
96	0x37908981	1.7230168e-05
97	0xb6848d9d	-3.9503925e-06
98	0xb70348fb	-7.825201e-06
99	0xb71f0670	-9.478637e-06
100	0xb7540e8e	-1.26395735e-05
101	0xb82e3268	-4.1531777e-05
102	0xb8204b56	-3.8217135e-05
103	0xb693947c	-4.3982272e-06
104	0x378d099c	1.6812985e-05
105	0x37c933ab	2.3985127e-05
106	0xb7898774	-1.6394748e-05
107	0xb61b8017	-2.3171358e-06
108	0x365850b5	3.2233486e-06
109	0x366ebcd7	3.5574683e-06
110	0xb6e4836b	-6.8102286e-06
111	0xb7ef2067	-2.8506109e-05
112	0xb782d586	-1.5596637e-05
113	0x376cbec9	1.4111117e-05
114	0xb6ac64cf	-5.137735e-06
115	0x36e3346a	6.771229e-06
116	0xb7963dc7	-1.791016e-05
117	0xb7ffb08e	-3.0480584e-05
118	0xb6eeba41	-7.1146355e-06
119	0x37b07bef	2.1038546e-05
120	0xb75747bc	-1.2831701e-05
121	0x37b56692	2.1624644e-05
122	0x370a737e	8.252331e-06
123	0xb68d2eb1	-4.207563e-06
124	0xb7ef1ce4	-2.8504473e-05
125	0xb7ca345c	-2.4104658e-05
126	0x375893cf	1.2909018e-05
127	0xb861bd1f	-5.3820313e-05

exp_avg_sq f4 [128]
0	0x30a5f3a4	1.2074577e-09
1	0x2fb92014	3.3674097e-10
2	0x30247b98	5.983849e-10
3	0x3109403b	1.9972635e-09
4	0x3078656f	9.036602e-10
5	0x308675b2	9.783234e-10
6	0x3013e4b6	5.3803306e-10
7	0x30c2e1b4	1.4179506e-09
8	0x2f231c38	1.4834789e-10
9	0x2fd3055c	3.8384484e-10
10	0x308bdd0c	1.0176406e-09
11	0x3117f262	2.211117e-09
12	0x30111081	5.2774146e-10
13	0x31949259	4.3240047e-09
14	0x2f4f9032	1.8877769e-10
15	0x2e626e55	5.1484445e-11
16	0x30ce3f66	1.5006492e-09
17	0x302f3fdd	6.3755384e-10
18	0x308b4504	1.0133197e-09
19	0x30709f1e	8.753761e-10
20	0x2fea96f2	4.2671605e-10
21	0x30882a9b	9.907412e-10
22	0x2f97ad72	2.758998e-10
23	0x31be1dcf	5.5331166e-09
24	0x2f7c9890	2.2973468e-10
25	0x2f7fd275	2.3266884e-10
26	0x3053ad60	7.7007734e-10
27	0x301e130d	5.750714e-10
28	0x300aa55e	5.043911e-10
29	0x305d4e11	8.051027e-10
30	0x306d32d3	8.6292323e-10
31	0x30e326e8	1.6527482e-09
32	0x2fe93293	4.2418388e-10
33	0x2fe092da	4.0849707e-10
34	0x2f2b7842	1.5595084e-10
35	0x2ef0257d	1.0920596e-10
36	0x2f35f4ef	1.6548872e-10
37	0x2f1bb34d	1.4160868e-10
38	0x2f140bc3	1.34647e-10
39	0x3025a57c	6.026182e-10
40	0x2f284aea	1.5306126e-10
41	0x2f9f6d54	2.8999614e-10
42	0x30649ed8	8.317165e-10
43	0x3115d86c	2.1805375e-09
44	0x30002441	4.661765e-10
45	0x30256bd0	6.017986e-10
46	0x2f181221	1.383076e-10
47	0x2fa381a7	2.974165e-10
48	0x2f2e1610	1.5833046e-10
49	0x3096edc8	1.0981518e-09
50	0x300eac1c	5.190388e-10
51	0x3000489e	4.6669324e-10
52	0x2fb14e10	3.225158e-10
53	0x2e97657b	6.8847116e-11
54	0x30104733	5.2488075e-10
55	0x3000c0cf	4.6840126e-10
56	0x31302282	2.5630986e-09
57	0x2fc5e98b	3.6000034e-10
58	0x2f629756	2.0608346e-10
59	0x31060bb1	1.9506212e-09
60	0x30d89bd2	1.5760355e-09
61	0x30372c96	6.663837e-10
62	0x3081bd0a	9.439713e-10
63	0x308da4dd	1.0305957e-09
64	0x3117916a	2.205605e-09
65	0x30385606	6.7061057e-10
66	0x305d6d5a	8.055473e-10
67	0x3164b924	3.3283607e-09
68	0x2f5cf632	2.009635e-10
69	0x3026cc3d	6.068069e-10
70	0x2ec0b78d	8.763754e-11
71	0x2f957fa2	2.719363e-10
72	0x2f54ba38	1.9347446e-10
73	0x3013323d	5.354968e-10
74	0x2f9d7ad1	2.86454e-10
75	0x30678468	8.422547e-10
76	0x301d747e	5.728181e-10
77	0x30efdccf	1.7452296e-09
78	0x2f9a7135	2.8092875e-10
79	0x2fc3cc86	3.5615616e-10
80	0x2fd5f44e	3.8918063e-10
81	0x2f6de605	2.1636744e-10
82	0x300ad49e	5.0506255e-10
83	0x304ba3ea	7.4083906e-10
84	0x2fc9c940	3.6704684e-10
85	0x309b9d12	1.1322376e-09
86	0x3114340a	2.1566415e-09
87	0x2ff3d244	4.4350845e-10
88	0x318629ab	3.9046504e-09
89	0x3021f235	5.8915656e-10
90	0x306c4d53	8.5966184e-10
91	0x30552fb6	7.755675e-10
92	0x30858c8e	9.716972e-10
93	0x2f4cd0d4	1.8627883e-10
94	0x2fca8ccd	3.684363e-10
95	0x2f068e96	1.2237886e-10
96	0x3023ae3c	5.9546656e-10
97	0x31320de6	2.591031e-09
98	0x2f3925c5	1.683907e-10
99	0x3041c84d	7.0497636e-10
100	0x2f529e7d	1.9155695e-10
101	0x31aa0355	4.94803e-09
102	0x307aca6a	9.123712e-10
103	0x2fd11203	3.8029677e-10
104	0x309cd377	1.1410596e-09
105	0x30694fea	8.487847e-10
106	0x2f1de81c	1.4361529e-10
107	0x2e08a8f5	3.1072884e-11
108	0x2eb23678	8.1041784e-11
109	0x2f256829	1.5043668e-10
110	0x2fa3af20	2.977396e-10
111	0x2f8a2234	2.5126357e-10
112	0x2fe7765c	4.2102755e-10
113	0x2fb93070	3.368572e-10
114	0x2f9a701a	2.809209e-10
115	0x2f20a5ae	1.4610776e-10
116	0x2f44780f	1.786875e-10
117	0x302b1e48	6.225247e-10
118	0x30889b17	9.939382e-10
119	0x2fc07ff4	3.5015513e-10
120	0x2fbf65ed	3.481512e-10
121	0x30b39d93	1.3068749e-09
122	0x2ee1251f	1.02384094e-10
123	0x2fbd4aa3	3.4431932e-10
124	0x2f7c4f1a	2.2947369e-10
125	0x3072b860	8.83011e-10
126	0x2fc8a9e9	3.6500516e-10
127	0x30a51460	1.2011121e-09
