results/many1/Romba/Romba-499952.onnx (onnx, 76119 bytes, 6 tensors)

network_body._body_endoder.seq_layers.0.weight f4 [128, 5]
0	0xbf1404c4	-0.5781977
1	0xbea8b0e9	-0.32947472
2	0xbe892e48	-0.26793122
3	0x3f6ef9f9	0.9335018
4	0xbeafcd31	-0.34336236
5	0x3eabf83b	0.33587822
6	0x3f4e822b	0.8066737
7	0xbf1b4825	-0.6065696
8	0x3c008856	0.007845005
9	0xbed2eba3	-0.41195402
10	0x3ec2fa3b	0.38081536
11	0xbf436376	-0.7632364
12	0xbdce28a8	-0.10066348
13	0x3e828f7f	0.25500104
14	0xbec96005	-0.3933107
15	0xbeed0fb4	-0.46301043
16	0x3f1a281f	0.6021747
17	0x3f04d2a7	0.5188393
18	0x3f477c72	0.77924263
19	0x3f93c69d	1.1544987
20	0x3e22d0cc	0.15899962
21	0xbe798121	-0.24365665
22	0xbf91f19f	-1.1401862
23	0x3fae3911	1.3611165
24	0x3ecd5397	0.40102836
25	0x3e47bd34	0.19505769
26	0xbf4ad455	-0.7923024
27	0x3f6752cc	0.90360713
28	0x3f732cd1	0.9499026
29	0xbf514124	-0.8174002
30	0x3d7214af	0.059101757
31	0xbf2681c3	-0.6504175
32	0xbefd8ebb	-0.49522957
33	0x3e37812f	0.17920373
34	0xbe89283f	-0.26788518
35	0xbf01c518	-0.50691366
36	0x3f11acb2	0.5690414
37	0x3ee947b1	0.4556251
38	0xbeb70f83	-0.35754022
39	0x3ec0e0fa	0.37671643
40	0xbf159085	-0.58423644
41	0x3f5f6880	0.8726883
42	0xbef8e6ae	-0.48613495
43	0x3bd26c9e	0.0064216396
44	0x3f5dd536	0.8665346
45	0xbf813525	-1.0094343
46	0xbcd0db46	-0.025495183
47	0x3f5e714f	0.86891645
48	0x3e8e4051	0.27783445
49	0xbe2dc7f3	-0.16970806
50	0xbe31f346	-0.17377958
51	0xbd437443	-0.047718298
52	0xbd5649fa	-0.052316643
53	0xbddf5796	-0.109053776
54	0xbed7d5e9	-0.42155388
55	0xbead5f31	-0.33861688
56	0xbecb0e63	-0.39659414
57	0xbe651fe2	-0.22375444
58	0x3e8eefba	0.27917272
59	0x3dbe734e	0.092993364
60	0xbf42d8c8	-0.7611203
61	0x3cb8b1e5	0.022545764
62	0xbe5632fa	-0.20917884
63	0x3f6e21c9	0.930203
64	0x3ea371fb	0.31922898
65	0x3f611d54	0.87935376
66	0x3f9fa9b9	1.247367
67	0x3ecd03ed	0.40042058
68	0x3e24c768	0.16091692
69	0xbe237c9c	-0.15965503
70	0x3ce36b6f	0.02776119
71	0xbeeb3471	-0.45938447
72	0x3f57ad11	0.84248453
73	0xbf77fadd	-0.9686716
74	0x3f13cc0f	0.57733244
75	0x3d8e973b	0.06962439
76	0xbf0fa7f2	-0.5611564
77	0x3f08f87a	0.53504145
78	0x3d260233	0.04052944
79	0x3e932155	0.28736368
80	0xbe7c988a	-0.24667564
81	0xbf0e2dee	-0.55538833
82	0xbf3187a8	-0.6934762
83	0x3e65d7e4	0.22445637
84	0xbe5ef39a	-0.21772614
85	0x3e1e6bd9	0.15470828
86	0x3dea9cb4	0.1145567
87	0xbf1110ec	-0.56666446
88	0xbeb38948	-0.35065675
89	0x3ccc68a6	0.024952244
90	0xbe88db0e	-0.26729625
91	0xbe41ebe0	-0.18937635
92	0x3d47fc9d	0.048824895
93	0xbf8a1efc	-1.0790706
94	0xbf677c77	-0.90424293
95	0xbe25ce87	-0.16192065
96	0xbf66878b	-0.9005057
97	0xbe57e501	-0.21083452
98	0x3f03054e	0.5117997
99	0x3d1f6a8e	0.038919978
100	0x3d2d5a0a	0.042322196
101	0x3e89f36d	0.26943532
102	0x3d28a703	0.0411749
103	0x3e93d57e	0.2887382
104	0xbefdbd4e	-0.4955849
105	0x3de9ce89	0.114163466
106	0xbd9dd03d	-0.07705734
107	0x3f4c9835	0.7991975
108	0x3e2100c5	0.1572295
109	0xbce7d8b9	-0.028301584
110	0x3dfe48f0	0.124162555
111	0xbe9b434d	-0.30324784
112	0xbe3cc2cc	-0.18433684
113	0xbe0e450c	-0.13893527
114	0xbed5d768	-0.41765904
115	0xbf357a76	-0.70889986
116	0xbdfab1b3	-0.12240925
117	0x3d004ed8	0.03132519
118	0xbeb8fd21	-0.36130622
119	0x3f49a06b	0.78760403
120	0x3edb0603	0.42778024
121	0x3e5cf0cf	0.21576236
122	0xbe9f70b7	-0.31140682
123	0xbe10945d	-0.14119096
124	0xbef08703	-0.46978006
125	0x3d655ca6	0.05599656
126	0xbf14e4b8	-0.581615
127	0x3e8a4e02	0.2701264
128	0x3f944170	1.158247
129	0x3e8b8899	0.27252653
130	0x3f3802af	0.71879095
131	0xbf210852	-0.6290332
132	0xbf3a6169	-0.72804886
133	0x3e731aee	0.23740742
134	0x3f524746	0.82140005
135	0xbd3fb8d5	-0.04680713
136	0xbf210305	-0.6289523
137	0xbebd4ba3	-0.3697177
138	0xbf2e33b5	-0.6804765
139	0xbeabcdf6	-0.33555573
140	0x3eb5b515	0.35489717
141	0x3f54c501	0.83113104
142	0xbddf722a	-0.10910447
143	0x3f1ba712	0.60801804
144	0xbe19f4ef	-0.15034841
145	0xbe904586	-0.28178042
146	0xbe29c745	-0.16579922
147	0x3f2cfd0f	0.67573637
148	0x3df9a6ae	0.12189995
149	0xbf8d67fb	-1.1047357
150	0x3d58870b	0.052863162
151	0xbea44573	-0.32084236
152	0x3e9a2583	0.30106744
153	0x3da84b27	0.08217459
154	0xbf90c0d2	-1.1308844
155	0x3e9c16f3	0.3048626
156	0xbeb9d247	-0.3629324
157	0xbe2c3860	-0.1681838
158	0xbd4500ac	-0.048096344
159	0x3f1d7676	0.6150888
160	0x3f05d936	0.5228456
161	0x3ed7074e	0.4199776
162	0xbf0d7d1b	-0.5526902
163	0x3e750c66	0.23930511
164	0xbf236564	-0.63826585
165	0xbd8ec8af	-0.06971871
166	0x3e82cca1	0.25546744
167	0xbece56ce	-0.40300602
168	0xbf1adff5	-0.6049798
169	0xbe0023ec	-0.12513703
170	0xbeeb1049	-0.45910862
171	0x3eef477f	0.46734235
172	0xbb666474	-0.003515509
173	0x3eafb881	0.34320453
174	0x3ea675f5	0.3251187
175	0xbea62f1d	-0.3245782
176	0x3b9ce368	0.004787851
177	0x3e23859a	0.15968934
178	0xbf11bc31	-0.5692778
179	0xbeb1830b	-0.3467029
180	0x3f71aed8	0.94407415
181	0x3da9fc77	0.08300107
182	0xbeb02fb9	-0.3441141
183	0x3cd77888	0.026302591
184	0x3f275598	0.6536498
185	0xbf557e1e	-0.83395565
186	0x3e502b55	0.2032903
187	0xbecd4455	-0.40091196
188	0xbe4e5e83	-0.20153241
189	0xbe8387d5	-0.2568957
190	0xbf23841b	-0.6387345
191	0x3ebd35c1	0.36955073
192	0xbe7668ee	-0.24063465
193	0x3d84815c	0.06469986
194	0x3bc08af2	0.0058759386
195	0x3e088b76	0.1333445
196	0xbe1bacac	-0.15202588
197	0xbe1cf247	-0.15326796
198	0x3e9d34fd	0.3070449
199	0xbe0b58c2	-0.13608077
200	0xbf1add9b	-0.60494393
201	0xbed6b89c	-0.4193772
202	0x3f36ef3e	0.71458805
203	0xbf63f16e	-0.8904027
204	0x3ce1ab9d	0.027547652
205	0x3f65a714	0.89708066
206	0x3f68876e	0.9083165
207	0xbf07d42d	-0.5305813
208	0x3e841e00	0.25804138
209	0xbe22a1a5	-0.15881975
210	0x3f5123e9	0.8169542
211	0xbdf4e065	-0.11956862
212	0xbe4a8294	-0.19776374
213	0x3f419528	0.7561822
214	0x3e91e160	0.2849226
215	0x3dcf8a95	0.10133854
216	0x3f234a24	0.63785005
217	0x3e23dbb8	0.16001785
218	0xbf0eb022	-0.5573751
219	0xbd14cdcb	-0.036329072
220	0xbed9549a	-0.42447358
221	0xbe844648	-0.2583487
222	0x3dcafc23	0.099113725
223	0xbe9cb255	-0.30604807
224	0x3f24790f	0.6424722
225	0x3df6a18c	0.12042531
226	0xbd4f6909	-0.05063728
227	0xbf110ebc	-0.5666311
228	0xbdb06fe6	-0.08615093
229	0x3ecb6ab9	0.3972986
230	0xbf88203c	-1.0634837
231	0x3d0bf520	0.034169316
232	0x3f0cc89e	0.5499362
233	0xbdff960e	-0.124797925
234	0x3c662720	0.014047414
235	0xbefcc186	-0.49366397
236	0x3ebc1043	0.36731157
237	0x3e839ced	0.25705662
238	0xbdcc4b32	-0.0997528
239	0xbd393ad2	-0.04522211
240	0x3f3b1931	0.73085314
241	0xbebc8890	-0.3682294
242	0xbf2bb129	-0.670672
243	0x3fa893e4	1.3170133
244	0x3daf6806	0.08564763
245	0x3eb68e21	0.3565531
246	0xbf2ba625	-0.6705039
247	0xbf0b312d	-0.5437191
248	0x3e5f541a	0.21809426
249	0xbf0be581	-0.5464707
250	0xbd4a6b85	-0.049418945
251	0x3f61e9c7	0.8824734
252	0xbf18bcbb	-0.5966298
253	0xbe17f575	-0.14839728
254	0xbf421572	-0.7581397
255	0x3d411e9d	0.047148336

network_body._body_endoder.seq_layers.0.bias f4 [128]
0	0x3c811297	0.015755935
1	0x3d2b9221	0.041887406
2	0x3d12f717	0.035880174
3	0x3e1216af	0.14266466
4	0x3d8f7c69	0.07006151
5	0xbce773ef	-0.028253524
6	0x3dbcabc6	0.09212451
7	0x3cbb6aca	0.02287807
8	0x3e0229f4	0.12711316
9	0xbd04272f	-0.03226393
10	0xbcb177d1	-0.021663578
11	0x3c5b59d3	0.013388115
12	0x3d30d7b4	0.04317446
13	0x3d5d0497	0.053959455
14	0x3ce35263	0.027749246
15	0xbd840833	-0.064468764
16	0x3d093d39	0.033505652
17	0x3d92018a	0.071292
18	0x3d58b4bb	0.052906733
19	0x3d8b1728	0.06791526
20	0x3d1b166a	0.037863173
21	0xbd570058	-0.052490562
22	0xbd55e8fc	-0.052224144
23	0x3dff7506	0.12473492
24	0x3d69203e	0.056915514
25	0x3dafd25f	0.08585047
26	0x3df35b00	0.11882591
27	0x3d9fda6f	0.07805335
28	0x3c404dbf	0.011737286
29	0x3d1b30c9	0.037888322
30	0x3c9c225c	0.019059353
31	0x3e114311	0.1418574
32	0x3a1ee7cb	0.00060617615
33	0x3d675d7a	0.05648563
34	0x3e20d0a8	0.15704596
35	0x3d1588a1	0.036507253
36	0x3d752c7f	0.059856888
37	0x3b49f99c	0.0030818945
38	0x3d11589f	0.035484906
39	0xbb9df5b9	-0.004820552
40	0x3d42b4f0	0.047535837
41	0x3d8b1045	0.067902125
42	0x3d5e0186	0.05420067
43	0x3d065557	0.03279623
44	0x3d849f57	0.06475704
45	0x3da511a3	0.080600046
46	0x3cb71e7f	0.022353409
47	0xbd1f5bcf	-0.038905915
48	0x3e4a35ce	0.19747087
49	0x3cdd00e0	0.026977956
50	0x3d847ca4	0.06469086
51	0xbd9d6a9a	-0.07686348
52	0x3d3f4d75	0.04670473
53	0x3d210cad	0.03931873
54	0xbcce1372	-0.025155757
55	0x3d245399	0.040118787
56	0x3d1d32d3	0.038378548
57	0x3bb62090	0.005558081
58	0x3de23345	0.11044935
59	0xbcae9eb3	-0.021315908
60	0x3d8636fe	0.06553458
61	0x3d1e4d9a	0.038648225
62	0xbd73a252	-0.059480973
63	0xbc0fc6d9	-0.008775436
64	0x3d05b2d4	0.032641247
65	0x3e0e9eb3	0.13927726
66	0x3df1a09d	0.11798213
67	0x3caa6ac2	0.02080286
68	0x3dddc69e	0.10828899
69	0x3c5b0854	0.013368685
70	0x3e079ef6	0.13244233
71	0x3d8477f1	0.064681895
72	0x3c8a68c3	0.016895657
73	0x3db3171d	0.08744643
74	0x3d072465	0.032993693
75	0x3b862f36	0.0040949835
76	0x3dd7f3fd	0.10544584
77	0x3d206223	0.03915609
78	0x3c794ebe	0.0152165275
79	0x3b1a3cd4	0.0023534792
80	0x3d8cab81	0.06868649
81	0xbb444fe9	-0.0029954857
82	0x3d44d179	0.04805133
83	0x3d050939	0.0324795
84	0x3dae5e0e	0.08514033
85	0x3e15c385	0.14625366
86	0x3d3010da	0.04298482
87	0x3bb0d57d	0.0053965435
88	0x3cf24851	0.029575499
89	0xbd319697	-0.043356504
90	0x3d8430f2	0.06454648
91	0x3df177ad	0.117904045
92	0xbc1e8128	-0.009674348
93	0x3cfc8785	0.03082634
94	0x3da6a654	0.08137193
95	0x3e14b004	0.1452027
96	0x3d91c726	0.07118063
97	0xbc7742ee	-0.015091641
98	0x3d7e0e57	0.062025394
99	0xbadb3ec3	-0.0016727078
100	0x3d39b70f	0.045340594
101	0x3da73034	0.08163491
102	0xbdd5f5a7	-0.10447245
103	0x3da4ba28	0.08043319
104	0xbd88e46a	-0.066841915
105	0x3dbd5989	0.09245593
106	0x3e15c8c7	0.14627372
107	0x3d12445f	0.035709735
108	0x3cc0c7ae	0.023532715
109	0x3d8da3c7	0.06916004
110	0x3df671c3	0.12033417
111	0x3d80ce83	0.06289389
112	0x3d9515cc	0.07279548
113	0xbc0d1d16	-0.008612892
114	0x3d3dbdad	0.046323467
115	0x3ca2d25a	0.019875694
116	0x3db428f7	0.08796876
117	0xbd81d0b6	-0.063386366
118	0x3d693eec	0.056944773
119	0x3ccef4fb	0.0252633
120	0x3d91dcff	0.0712223
121	0x3c33b1d6	0.010967692
122	0xbcb82a60	-0.022481143
123	0x3d5c99d2	0.053857632
124	0x3ba80a15	0.005128155
125	0x3dabba8e	0.08385192
126	0x3da84a72	0.08217324
127	0x3da6f6fa	0.08152576

network_body._body_endoder.seq_layers.2.weight f4 [128, 128]
0	0xbde0b20a	-0.10971458
1	0x3b8ecdcc	0.004358029
2	0xbd0bd92b	-0.034142654
3	0x3da167dd	0.078811385
4	0x3d08f853	0.033439945
5	0xbe100a8b	-0.14066522
6	0xbcaaf900	-0.020870686
7	0xbd73c345	-0.059512395
8	0xbd84567b	-0.06461807
9	0xbe2bd403	-0.16780095
10	0xbda851ce	-0.08218728
11	0x3a7efa51	0.0009726631
12	0x3dec9974	0.11552706
13	0x3d245a20	0.040125012
14	0xbdc18bb7	-0.094504766
15	0x3d0b307a	0.033981778
16	0xbdf9eb96	-0.122031376
17	0xbda5705f	-0.08078074
18	0xbdd5a279	-0.1043138
19	0xbd9beb47	-0.07613235
20	0xbddb63f2	-0.107124224
21	0x3d325fa8	0.043548256
22	0xbc722d8d	-0.014781368
23	0x3a287f81	0.0006427691
24	0xbdf49986	-0.11943345
25	0xbdd1c877	-0.10243314
26	0x3d73b104	0.059494987
27	0x3d4a8a04	0.04944803
28	0x3d5005fa	0.05078695
29	0x3dc2f7a7	0.09519892
30	0xbe287dd3	-0.16454248
31	0x3c8138b5	0.01577411
32	0xbc37d152	-0.011219339
33	0xbe397db2	-0.18114355
34	0xbcc438a7	-0.023952795
35	0x3c5222d6	0.012825688
36	0x3e3de872	0.18545702
37	0xbdf2057c	-0.11817452
38	0xbda3ce69	-0.07998354
39	0xbcb19a6e	-0.021680083
40	0x3ddbd739	0.1073441
41	0x3dbd5db5	0.09246389
42	0x3d0264b9	0.031834338
43	0xbd3034b4	-0.04301901
44	0xbd24fab7	-0.040278163
45	0xbdade472	-0.08490838
46	0x3d57c4e8	0.05267802
47	0x3e0fb5d9	0.14034213
48	0x3dc48c93	0.09597125
49	0x3d822a78	0.063557565
50	0xbbc3387c	-0.005957661
51	0x3d5c1c0c	0.053737685
52	0x3c4a6dac	0.012355249
53	0xbe4e6e2d	-0.20159216
54	0x3dad8e9c	0.08474466
55	0x3d22971f	0.0396949
56	0x3da32711	0.07966436
57	0x3dd9e607	0.10639577
58	0xbd81df09	-0.06341369
59	0x3e32c5be	0.17458245
60	0x3e152bf9	0.14567555
61	0x3d5d35a1	0.054006223
62	0xbc818845	-0.015812049
63	0x3bc78e31	0.0060899486
64	0xbc80774e	-0.015681889
65	0x3e21c45d	0.15797563
66	0xbc25231f	-0.010079174
67	0xbe008ef6	-0.12554535
68	0x3e5bdb27	0.21470319
69	0x3decb356	0.11557643
70	0x3d230aa4	0.03980507
71	0x3e179a91	0.14805056
72	0x3e1b3a3a	0.1515893
73	0xbc7862cc	-0.015160274
74	0xbd527a72	-0.051386304
75	0x3d004150	0.031312287
76	0x3dcc7373	0.09982958
77	0xbd586a7d	-0.05283593
78	0x3cc72943	0.024311667
79	0xbd0b02e6	-0.03393831
80	0x3ccbdc2b	0.024885258
81	0xbe243f8a	-0.16039863
82	0xbc6ace07	-0.014331347
83	0x3b02d56c	0.0019963635
84	0xbda4ded4	-0.080503136
85	0x3d0e4933	0.034737777
86	0x3c01e551	0.007928208
87	0x3ddab25d	0.10678551
88	0x3de4a635	0.11164514
89	0xbd81659e	-0.0631821
90	0x3ddea838	0.10871929
91	0x3ddda4b8	0.10822433
92	0xbc43cad8	-0.011950217
93	0xbcbabf6e	-0.022796359
94	0xbdb94737	-0.09046786
95	0x3d91cc08	0.07118994
96	0xbbb4b90c	-0.0055152234
97	0x3c7ee739	0.015558057
98	0x3e3f78e0	0.18698454
99	0x3db289b6	0.087176725
100	0x3d3f422e	0.046693973
101	0xbdc26939	-0.09492726
102	0xbd3a163e	-0.045431368
103	0x3e1d2429	0.15345825
104	0x3d51e83f	0.051246878
105	0x3d220264	0.03955306
106	0x3d007b32	0.03136749
107	0xbe03e4b8	-0.12880218
108	0x3c0db670	0.0086494535
109	0x3d3b7796	0.045768343
110	0x3e1c86ba	0.15285769
111	0xbe001c85	-0.1251088
112	0x3c714495	0.014725824
113	0xbd880876	-0.06642239
114	0x3cb5ebff	0.022207258
115	0x3da0d10f	0.07852375
116	0x3cc74cfd	0.024328703
117	0xbdcc1661	-0.09965206
118	0xbc5b0c15	-0.01336958
119	0xbe37be81	-0.17943765
120	0xbd1e8df0	-0.03870958
121	0xbe1586e4	-0.14602238
122	0x3d570d22	0.05250276
123	0x3b87ad02	0.004140497
124	0x3bc5a829	0.006032009
125	0xbd8dd934	-0.06926194
126	0x3e56f69a	0.20992509
127	0x3e2a1562	0.1660972
128	0x3d6a4509	0.057194743
129	0x3d9b6737	0.07588046
130	0xbd678f23	-0.05653299
131	0x3e212ed8	0.15740526
132	0x3da7a3f3	0.08185568
133	0x3d560a19	0.052255724
134	0x3de4afa1	0.11166311
135	0xbbdb6b8a	-0.0066961693
136	0x3d58c25a	0.052919723
137	0xbe303a33	-0.17209701
138	0xbdba2e18	-0.09090823
139	0xbd37c3c4	-0.04486443
140	0xbe4932a9	-0.19648232
141	0xbd549682	-0.051901348
142	0xbccdb008	-0.025108352
143	0xbdbbbe7d	-0.09167192
144	0xbd398705	-0.04529478
145	0x3db3645d	0.08759377
146	0x3d1fa6b3	0.038977336
147	0x3d20c7a6	0.0392529
148	0x3e04387f	0.12912177
149	0x3b2c2c8a	0.0026271665
150	0x3d6fc713	0.05853946
151	0x3e0c4a37	0.13700186
152	0x3dcb4f89	0.099272795
153	0x3b8da4a1	0.004322604
154	0x3d9f0581	0.07764722
155	0x3de2ac26	0.11067991
156	0xbdbde708	-0.09272581
157	0xbd1eb2c1	-0.03874469
158	0xbd6aefe7	-0.057357695
159	0x3e29cb39	0.1658143
160	0xbdbf50b8	-0.09341568
161	0x3d9a939d	0.07547686
162	0x3db38cac	0.087670654
163	0x3e3e1876	0.18564019
164	0xbc24e5a3	-0.010064515
165	0xbe16d0a4	-0.14728028
166	0xbb7dfdb1	-0.0038755948
167	0x3c6fb601	0.014630795
168	0xbdb2f755	-0.08738581
169	0x3e2ba941	0.16763784
170	0x3d455dd7	0.048185196
171	0xbcbbbafc	-0.02291631
172	0x3d17d8be	0.037071936
173	0x3c90e908	0.017689243
174	0xbd2a2171	-0.0415358
175	0xbd462392	-0.048373766
176	0x3cb071a9	0.021538572
177	0xbce0a91f	-0.027424393
178	0x3e2e6351	0.17030074
179	0xbe5715e0	-0.21004438
180	0x3df2127e	0.11819933
181	0x3e31d58a	0.17366615
182	0x3df7b25f	0.120945685
183	0x3cbeb584	0.023279913
184	0x3b8df807	0.0043325457
185	0x3d4d4fd0	0.050124943
186	0xbd13b371	-0.0360598
187	0x3de4b0bd	0.11166523
188	0x3db96bce	0.09053765
189	0x3df8e780	0.1215353
190	0xbd3b7520	-0.045765996
191	0xbdbd8130	-0.09253156
192	0x3cb63195	0.02224044
193	0x3dcf840e	0.10132609
194	0x3e137a0f	0.1440203
195	0x3d724218	0.059145063
196	0x3e384498	0.17994916
197	0xbdeb285a	-0.11482306
198	0x3ca4b8b3	0.020107603
199	0x3da6d698	0.08146399
200	0x3d14123f	0.036150213
201	0x3dce3bde	0.100700125
202	0x3bab3829	0.0052252007
203	0x3dc84655	0.0977904
204	0x3e3c8821	0.18411304
205	0x3d2ad34d	0.04170542
206	0xbce69ed3	-0.028151905
207	0xbc97b5ce	-0.018519308
208	0xbd5e6aba	-0.054301
209	0x3d80846f	0.0627526
210	0xbd8bb66f	-0.06821906
211	0x3c8b9a62	0.017041389
212	0x3ddb6d8f	0.10714256
213	0x3c3a47d5	0.011369665
214	0x3ddc0e19	0.107448764
215	0x3dbc5c2b	0.09197267
216	0x3de2eb4d	0.11080036
217	0xbdcd277d	-0.100172974
218	0x3e101a75	0.14072593
219	0xbc41d5fc	-0.011830803
220	0xbd3db08b	-0.046310943
221	0x3bec11bc	0.0072042625
222	0x3ca20bd1	0.019781025
223	0x3de7dbf7	0.11321252
224	0x3e2b3694	0.16720039
225	0xbe0f78d1	-0.14010932
226	0xbd56e76a	-0.052466787
227	0x3ce48583	0.027895695
228	0x3d87e32c	0.066351265
229	0xbca8f23e	-0.020623323
230	0xbd1a8b85	-0.037730712
231	0x3e64e6fd	0.2235374
232	0xbd097526	-0.033558987
233	0xbdd0e339	-0.10199589
234	0xbd954058	-0.07287663
235	0xbd1a0307	-0.037600543
236	0x3dbab189	0.091158934
237	0x3e1bba87	0.15207873
238	0xbd96f757	-0.07371395
239	0x3d4a9d12	0.0494662
240	0x3e8aa8e9	0.27081993
241	0xbe2999c9	-0.1656257
242	0x3d007782	0.03136397
243	0x3d60f1da	0.054918148
244	0x3b542964	0.0032373304
245	0xbe026ee4	-0.12737614
246	0xbe033dad	-0.12816496
247	0x3d3bdcb2	0.04586477
248	0x3db6755f	0.089091055
249	0x3d1e6555	0.038670857
250	0xbe397296	-0.18110117
251	0xbd38ea84	-0.045145527
252	0x3d31e0eb	0.04342739
253	0x3dfebb1d	0.12438033
254	0xbcd1345b	-0.02553766
255	0x3e081ccd	0.13292237

network_body._body_endoder.seq_layers.2.bias f4 [128]
0	0x3d3bee3d	0.0458815
1	0x3ded9bf0	0.11602008
2	0x3d180afd	0.037119854
3	0x3b8135f0	0.0039431974
4	0x3d710c01	0.05884934
5	0x3d2d4e37	0.04231092
6	0xbc67b8fd	-0.014143226
7	0xbd787cd2	-0.060665913
8	0x3d87c740	0.06629801
9	0xbc118c32	-0.008883523
10	0xbc8db658	-0.017298862
11	0x3e0b68f2	0.13614252
12	0x3c547fc7	0.012969918
13	0xbd60b4eb	-0.054860037
14	0xbbd26acc	-0.0064214226
15	0x3a284f5d	0.00064205175
16	0x3da2fe35	0.079586424
17	0x3d4fbfbf	0.050719973
18	0x3da79d0d	0.08184252
19	0x3d851e77	0.06499951
20	0xbd1faf5c	-0.038985595
21	0xbca7c034	-0.020477392
22	0xbce009c7	-0.027348412
23	0x3e0313ca	0.12800518
24	0x3d134ed3	0.035963845
25	0x3d3fcef8	0.04682824
26	0x3d500eb3	0.05079527
27	0xbb43c728	-0.0029873345
28	0x3da3f278	0.080052316
29	0xbc89c2ee	-0.016816583
30	0x3c651ed4	0.013984401
31	0x3c9f43f2	0.019441579
32	0x3dffb61f	0.12485909
33	0x3be2a6a6	0.0069168387
34	0x3dbdff00	0.09277153
35	0xbd060815	-0.03272255
36	0xbd106f71	-0.03526253
37	0xbc5a188d	-0.013311517
38	0x3da90a77	0.08253949
39	0xbd386211	-0.0450154
40	0xbd15bfde	-0.036559932
41	0x3cfa597c	0.030560248
42	0x3d000f89	0.031264815
43	0xbd5b6aa1	-0.053568486
44	0x3cdc3761	0.026881875
45	0xbc6f6c06	-0.014613157
46	0xbda6ad58	-0.081385314
47	0x3d9fa932	0.07795943
48	0xbd0feca6	-0.035137795
49	0x3d6040ae	0.054749183
50	0xbd99a4b7	-0.0750212
51	0xbd7b4b08	-0.061350852
52	0x3df0a4cc	0.117501825
53	0x3aefd0d8	0.0018296493
54	0x3db9a884	0.09065345
55	0x3db26e02	0.087123886
56	0x3dc4f145	0.09616331
57	0xbd47ce05	-0.04878046
58	0x3d3c642f	0.04599398
59	0x3c21c01b	0.009872462
60	0xbd73fd96	-0.05956801
61	0x3c05f29c	0.008175518
62	0x3db1d0e7	0.08682423
63	0xbbedc8f2	-0.0072566206
64	0x3c376396	0.011193177
65	0x3d765998	0.060144037
66	0x3d2e3da4	0.042539254
67	0x3d3b4a69	0.04572526
68	0x3d56ee4d	0.052473355
69	0xbc860f38	-0.016364679
70	0xbc779531	-0.015111254
71	0x3df60a6b	0.12013706
72	0x3dba6122	0.09100558
73	0x3d43a3a9	0.0477635
74	0x3b2a258d	0.0025962323
75	0x3dd7350f	0.10508167
76	0xbd2e7848	-0.042595178
77	0x3d38b970	0.045098722
78	0x3e0adac8	0.13560021
79	0x3d28c34e	0.041201882
80	0x3d475264	0.04866256
81	0xbd551e79	-0.052031014
82	0x3c822571	0.015886994
83	0xbd3acbef	-0.045604642
84	0xbca6d361	-0.020364465
85	0xbd35b82d	-0.044365097
86	0x3de9120f	0.113803975
87	0x3c0dd80e	0.0086574685
88	0x3ca3ebc0	0.020009875
89	0xbd8b2dfd	-0.06795881
90	0x3d2cb069	0.042160425
91	0x3d184cbd	0.03718256
92	0xbd84bd16	-0.06481378
93	0x3d070e05	0.032972354
94	0xbd77014c	-0.06030397
95	0x3d8562ac	0.06512961
96	0x3df03849	0.117294855
97	0x3dc0203e	0.0938115
98	0x3b37dd36	0.0028055436
99	0xbb8d2f72	-0.0043086344
100	0xbd7abf51	-0.06121761
101	0x3bf5d9a3	0.007502751
102	0x3d8d9e1b	0.06914922
103	0x3d1aee24	0.037824765
104	0x3ccd0437	0.025026424
105	0x3cfa97be	0.030589934
106	0x3d5f9821	0.05458844
107	0x3e1ec8b2	0.15506247
108	0x3da7bb50	0.08190024
109	0x3a37d5bc	0.0007012745
110	0x3c8b2b36	0.016988378
111	0x3d38d728	0.045127064
112	0xba2722ff	-0.0006375759
113	0xbd05496c	-0.032540724
114	0x3cd2d557	0.025736494
115	0xbd2e83fa	-0.04260633
116	0x3cb870a2	0.022514645
117	0xbdc4997d	-0.09599588
118	0xbd2b94e4	-0.04189004
119	0x3d84f8dd	0.064927794
120	0xbd193ff7	-0.037414517
121	0xbcfdef80	-0.030997992
122	0x3d4ec93c	0.05048488
123	0x3c909e13	0.0176535
124	0x3c356c00	0.0110731125
125	0xbce3137d	-0.027719254
126	0x3d9c0cf5	0.07619659
127	0xbc8cdcf8	-0.01719521

action_model._discrete_distribution.branches.0.weight f4 [4, 128]
0	0xbc8a4693	-0.016879356
1	0xbd155dd8	-0.03646645
2	0x3c6c74fc	0.014432188
3	0xbc661b4a	-0.014044592
4	0xbc9b6cec	-0.018972836
5	0xbc96f679	-0.018428074
6	0xbc720a5c	-0.014772978
7	0x3d22985d	0.039696086
8	0xbd5a62d7	-0.053316917
9	0x3ca34d34	0.019934274
10	0x3c91f245	0.017815718
11	0xbd41ca11	-0.047311846
12	0x3c3a2e8b	0.011363636
13	0x3cd3a145	0.025833735
14	0xbb6b828b	-0.0035935964
15	0xb9e0d77f	-0.00042885166
16	0xbd073ff1	-0.033019964
17	0xbc2d64db	-0.010583128
18	0xbae68658	-0.0017587645
19	0xbca61983	-0.020275837
20	0x3c8d5e80	0.017256975
21	0xbc48fc1d	-0.01226714
22	0x3c2752a3	0.010212573
23	0xbd1b225f	-0.037874576
24	0xbcb3ec3f	-0.021963237
25	0xbd1d097a	-0.038339116
26	0xbc459f66	-0.012061929
27	0x3b63fd4a	0.0034788423
28	0xbcf698df	-0.030102191
29	0x3bf9f752	0.00762836
30	0xbcf451a5	-0.029824087
31	0x3bfca6a5	0.0077102953
32	0xbd1dcb13	-0.038523745
33	0xbcbac7b1	-0.022800298
34	0xbd57cf3d	-0.052687872
35	0x3c861974	0.016369559
36	0x3c72df5a	0.014823759
37	0xbca547e3	-0.02017588
38	0xbd2ce401	-0.04220963
39	0x3c40cc98	0.011767529
40	0x3c3c9f48	0.011512585
41	0xbd15205a	-0.036407806
42	0x3add01dd	0.0016861517
43	0x3cb9894e	0.02264848
44	0xbd1bdff2	-0.038055368
45	0xbac5850a	-0.0015069556
46	0x3d38f2c2	0.045153387
47	0xbcd1652c	-0.025560938
48	0x3c99efd9	0.018791126
49	0xbc1b01e8	-0.009460904
50	0x3d366d42	0.04453779
51	0x3cbb7ed3	0.022887623
52	0xbcca8f13	-0.024726426
53	0xbd10477c	-0.035224423
54	0xbc80b06d	-0.015709126
55	0xbc04adba	-0.00809806
56	0xbd078b27	-0.03309169
57	0x3bb305b1	0.005463325
58	0xbcd32b88	-0.025777593
59	0x3c7a1ee6	0.015266156
60	0x3ce3a036	0.027786355
61	0xbb833d7d	-0.0040051327
62	0xbd02576f	-0.031821664
63	0xbce785aa	-0.028261978
64	0x3b9ebbc1	0.0048441594
65	0xbc2fa76d	-0.01072107
66	0xbd208769	-0.039191637
67	0x3bd865a6	0.0066039143
68	0xbc9d7cb6	-0.019224506
69	0x3c24a184	0.010048274
70	0x3be49d4c	0.006976759
71	0xbd427454	-0.04747422
72	0xbd19854a	-0.03748063
73	0xbcc2fd76	-0.0238025
74	0xbabd9fc8	-0.0014467174
75	0xbd34b381	-0.0441165
76	0x3d15e945	0.036599416
77	0xbcac0a8e	-0.021001127
78	0xbd1e0b3e	-0.03858494
79	0xbd321108	-0.043473274
80	0xbb8b803a	-0.004257229
81	0x3cb4067d	0.02197575
82	0xbc7480ef	-0.014923318
83	0x3cfd0eb6	0.030890804
84	0xbc3bc089	-0.011459478
85	0x3c860e64	0.016364284
86	0xbd4706fa	-0.048590638
87	0xbd3c2fa0	-0.045943856
88	0xbcf8fdeb	-0.030394515
89	0x3d28a6bc	0.041174635
90	0xbcf7fb4f	-0.0302712
91	0xbcd673c3	-0.026178246
92	0x3d550fea	0.05201713
93	0xbd6184a5	-0.05505814
94	0x3d33f44e	0.04393416
95	0xbcd044ca	-0.025423426
96	0xbd23e8cb	-0.04001693
97	0xbc67206a	-0.014106849
98	0xbd151d2e	-0.03640478
99	0xbc1580d5	-0.009124954
100	0x3bd4d393	0.006494948
101	0xbca8b0a1	-0.020592036
102	0xbc972628	-0.018450812
103	0xbc26ce40	-0.01018101
104	0xbd301a09	-0.04299358
105	0xbbc72dac	-0.0060784426
106	0xbaf765c3	-0.0018874932
107	0xbd3d0b30	-0.046153247
108	0xbcee65b5	-0.029101232
109	0xbcc80f21	-0.024421277
110	0xbd14b8ea	-0.03630916
111	0x3bc2a0ef	0.005939595
112	0xbc303f3d	-0.010757265
113	0x3caaf2b0	0.020867676
114	0xbceb09c2	-0.028691176
115	0x3b64a327	0.0034887285
116	0xbd537302	-0.051623352
117	0x3d526358	0.051364273
118	0x3d01103e	0.03150963
119	0xbca9536e	-0.020669665
120	0x3ccc2379	0.024919258
121	0x3b989f6f	0.004657678
122	0x3c5a33bd	0.013317999
123	0x3c73a24e	0.014870239
124	0xbc3d752f	-0.011563583
125	0x3cd36c2a	0.025808413
126	0xbd1fa9db	-0.038980346
127	0xbc44002e	-0.0119629335
128	0x3cb7de9d	0.022445017
129	0x3d8b4be4	0.06801584
130	0xbd178a25	-0.03699698
131	0x3cac4f5e	0.021033939
132	0xbcbc5177	-0.022988064
133	0x3da8bb7a	0.08238883
134	0x3d3a4574	0.045476392
135	0xbd7f4090	-0.06231743
136	0x3da50efa	0.08059497
137	0xbd209fde	-0.03921496
138	0x3ca964d6	0.020677965
139	0x3cf232d2	0.029565249
140	0xbd3918ef	-0.045189794
141	0xbdd12b25	-0.10213307
142	0xbd7e5567	-0.062093165
143	0x3c4db163	0.012554499
144	0x3cf608b1	0.030033441
145	0x3d94fb1c	0.07274458
146	0x3caaeb56	0.02086417
147	0x3ceccc9b	0.028906157
148	0xbcf5ddc7	-0.030012978
149	0x3b84de17	0.0040547955
150	0xbcb65454	-0.022257008
151	0x3bc3c8cd	0.005974865
152	0x3d82d122	0.06387545
153	0xbce5777b	-0.028011074
154	0xbb0f264a	-0.002184289
155	0xbd1fea4d	-0.039041806
156	0x3c7ca484	0.015420083
157	0xbd99dd35	-0.07512895
158	0x3c1b4832	0.009477662
159	0xbcb22eda	-0.021750856
160	0x3d3101da	0.043214656
161	0x3d42b52e	0.047536068
162	0x3d3457ef	0.044029173
163	0x3ce53dc9	0.027983563
164	0x3c65ae8a	0.014018664
165	0x3d57ebb5	0.052715022
166	0x3cbcae40	0.023032308
167	0xbd09fcd5	-0.033688385
168	0xbd32be72	-0.043638654
169	0x3d847975	0.064684786
170	0xbc5057e6	-0.012716269
171	0xbe1b9ca1	-0.15196468
172	0x3cdbd737	0.02683602
173	0xbc9ead78	-0.019369826
174	0xbd9fc575	-0.07801334
175	0x3ce14c72	0.027502272
176	0xbd5296fe	-0.05141353
177	0xbc5d08d8	-0.013490878
178	0xbdbadcf8	-0.09124178
179	0xbdb1d93e	-0.08684014
180	0x3d270238	0.0407736
181	0x3cc57da0	0.024107754
182	0x3b308bb1	0.0026938731
183	0x3c077ad1	0.008269028
184	0x3ca2fc24	0.01989562
185	0xbe05ce79	-0.13067044
186	0x3d39fc21	0.045406464
187	0xbd1d8e1d	-0.038465608
188	0xbdc26ce7	-0.09493428
189	0xbd17dfb5	-0.037078578
190	0x3ce5f961	0.028073015
191	0x3d7bcdbd	0.061475504
192	0xbd79dbd8	-0.061000675
193	0x3ddae77e	0.10688685
194	0x3da8c513	0.08240714
195	0xbcc2994b	-0.023754736
196	0x3d742527	0.059605744
197	0xbdca8050	-0.09887755
198	0x3b703c4f	0.003665704
199	0x3d3984f6	0.045292817
200	0x3d5487ca	0.05188731
201	0x3d20127f	0.03908014
202	0x3c193939	0.009352022
203	0x3dd2e649	0.1029783
204	0xbe2f30f9	-0.17108525
205	0x3d42210b	0.047394793
206	0x3d3d6eb8	0.046248168
207	0x3d9ddbc3	0.07707932
208	0x3aa69e8a	0.0012712043
209	0xbd2b549c	-0.041828737
210	0xbd1fc4a6	-0.039005898
211	0xbe09bdac	-0.1345126
212	0xbc8773fd	-0.0165348
213	0xbe11f9ac	-0.14255399
214	0x3d358c2f	0.044323143
215	0x3d30d129	0.04316822
216	0x3d947ecd	0.07250748
217	0xbdbaf667	-0.09129029
218	0x3d27caf5	0.04096504
219	0x3da1627c	0.078801125
220	0xbdacca4c	-0.084370226
221	0xbc039e64	-0.008033369
222	0xbd50cfb3	-0.050979327
223	0x3d68535b	0.05672012
224	0x3d5a8b7b	0.053355675
225	0x3a5a90ad	0.00083375984
226	0x3da8ef28	0.082487404
227	0x3d21d053	0.039505314
228	0xbdcb8b74	-0.09938708
229	0x3d8026dd	0.062574126
230	0x3d567390	0.052356303
231	0x3ce33921	0.027737202
232	0x3c9ff090	0.019523889
233	0xbd061425	-0.032734055
234	0xbd27569f	-0.040854093
235	0x3dc8195b	0.09770461
236	0x3d8e0421	0.06934381
237	0x3d25ed8e	0.040509753
238	0x3d8a58d4	0.06755224
239	0xbbfb3955	-0.0076667466
240	0xbd8a9029	-0.067657776
241	0xbda6aafd	-0.08138082
242	0x3cdd168d	0.026988292
243	0xbda15cbf	-0.07879018
244	0x3db85ed7	0.09002464
245	0xbd815465	-0.06314925
246	0xbdf57858	-0.119858444
247	0x3d063406	0.032764457
248	0xbd98fd50	-0.074701905
249	0xba758705	-0.0009366128
250	0xbd788dfe	-0.06068229
251	0xbd68e4b2	-0.056858726
252	0xbd2fad1c	-0.0428897
253	0x3bfb8fe8	0.007677067
254	0x3d3bca75	0.045847375
255	0xbd19d704	-0.03755857

action_model._discrete_distribution.branches.0.bias f4 [4]
0	0xbd9a7d21	-0.07543398
1	0x3d8dcfeb	0.06924423
2	0x3ce93e0b	0.028471967
3	0xbd2af4a0	-0.0417372
