results/many1/Romba/Romba-499952.pt (torch, 440536 bytes, 33 tensors)

network_body._body_endoder.seq_layers.0.weight f4 [128, 5]
000000 c4 04 14 bf e9 b0 a8 be 48 2e 89 be f9 f9 6e 3f
       -0.5781977 -0.32947472 -0.26793122 0.9335018
000010 31 cd af be 3b f8 ab 3e 2b 82 4e 3f 25 48 1b bf
       -0.34336236 0.33587822 0.8066737 -0.6065696
000020 56 88 00 3c a3 eb d2 be 3b fa c2 3e 76 63 43 bf
       0.007845005 -0.41195402 0.38081536 -0.7632364
000030 a8 28 ce bd 7f 8f 82 3e 05 60 c9 be b4 0f ed be
       -0.10066348 0.25500104 -0.3933107 -0.46301043
000040 1f 28 1a 3f a7 d2 04 3f 72 7c 47 3f 9d c6 93 3f
       0.6021747 0.5188393 0.77924263 1.1544987
000050 cc d0 22 3e 21 81 79 be 9f f1 91 bf 11 39 ae 3f
       0.15899962 -0.24365665 -1.1401862 1.3611165
000060 97 53 cd 3e 34 bd 47 3e 55 d4 4a bf cc 52 67 3f
       0.40102836 0.19505769 -0.7923024 0.90360713
000070 d1 2c 73 3f 24 41 51 bf af 14 72 3d c3 81 26 bf
       0.9499026 -0.8174002 0.059101757 -0.6504175
000080 bb 8e fd be 2f 81 37 3e 3f 28 89 be 18 c5 01 bf
       -0.49522957 0.17920373 -0.26788518 -0.50691366
000090 b2 ac 11 3f b1 47 e9 3e 83 0f b7 be fa e0 c0 3e
       0.5690414 0.4556251 -0.35754022 0.37671643
0000a0 85 90 15 bf 80 68 5f 3f ae e6 f8 be 9e 6c d2 3b
       -0.58423644 0.8726883 -0.48613495 0.0064216396
0000b0 36 d5 5d 3f 25 35 81 bf 46 db d0 bc 4f 71 5e 3f
       0.8665346 -1.0094343 -0.025495183 0.86891645
0000c0 51 40 8e 3e f3 c7 2d be 46 f3 31 be 43 74 43 bd
       0.27783445 -0.16970806 -0.17377958 -0.047718298
0000d0 fa 49 56 bd 96 57 df bd e9 d5 d7 be 31 5f ad be
       -0.052316643 -0.109053776 -0.42155388 -0.33861688
0000e0 63 0e cb be e2 1f 65 be ba ef 8e 3e 4e 73 be 3d
       -0.39659414 -0.22375444 0.27917272 0.092993364
0000f0 c8 d8 42 bf e5 b1 b8 3c fa 32 56 be c9 21 6e 3f
       -0.7611203 0.022545764 -0.20917884 0.930203
000100 fb 71 a3 3e 54 1d 61 3f b9 a9 9f 3f ed 03 cd 3e
       0.31922898 0.87935376 1.247367 0.40042058
000110 68 c7 24 3e 9c 7c 23 be 6f 6b e3 3c 71 34 eb be
       0.16091692 -0.15965503 0.02776119 -0.45938447
000120 11 ad 57 3f dd fa 77 bf 0f cc 13 3f 3b 97 8e 3d
       0.84248453 -0.9686716 0.57733244 0.06962439
000130 f2 a7 0f bf 7a f8 08 3f 33 02 26 3d 55 21 93 3e
       -0.5611564 0.53504145 0.04052944 0.28736368
000140 8a 98 7c be ee 2d 0e bf a8 87 31 bf e4 d7 65 3e
       -0.24667564 -0.55538833 -0.6934762 0.22445637
000150 9a f3 5e be d9 6b 1e 3e b4 9c ea 3d ec 10 11 bf
       -0.21772614 0.15470828 0.1145567 -0.56666446
000160 48 89 b3 be a6 68 cc 3c 0e db 88 be e0 eb 41 be
       -0.35065675 0.024952244 -0.26729625 -0.18937635
000170 9d fc 47 3d fc 1e 8a bf 77 7c 67 bf 87 ce 25 be
       0.048824895 -1.0790706 -0.90424293 -0.16192065
000180 8b 87 66 bf 01 e5 57 be 4e 05 03 3f 8e 6a 1f 3d
       -0.9005057 -0.21083452 0.5117997 0.038919978
000190 0a 5a 2d 3d 6d f3 89 3e 03 a7 28 3d 7e d5 93 3e
       0.042322196 0.26943532 0.0411749 0.2887382
0001a0 4e bd fd be 89 ce e9 3d 3d d0 9d bd 35 98 4c 3f
       -0.4955849 0.114163466 -0.07705734 0.7991975
0001b0 c5 00 21 3e b9 d8 e7 bc f0 48 fe 3d 4d 43 9b be
       0.1572295 -0.028301584 0.124162555 -0.30324784
0001c0 cc c2 3c be 0c 45 0e be 68 d7 d5 be 76 7a 35 bf
       -0.18433684 -0.13893527 -0.41765904 -0.70889986
0001d0 b3 b1 fa bd d8 4e 00 3d 21 fd b8 be 6b a0 49 3f
       -0.12240925 0.03132519 -0.36130622 0.78760403
0001e0 03 06 db 3e cf f0 5c 3e b7 70 9f be 5d 94 10 be
       0.42778024 0.21576236 -0.31140682 -0.14119096
0001f0 03 87 f0 be a6 5c 65 3d b8 e4 14 bf 02 4e 8a 3e
       -0.46978006 0.05599656 -0.581615 0.2701264
000200 70 41 94 3f 99 88 8b 3e af 02 38 3f 52 08 21 bf
       1.158247 0.27252653 0.71879095 -0.6290332
000210 69 61 3a bf ee 1a 73 3e 46 47 52 3f d5 b8 3f bd
       -0.72804886 0.23740742 0.82140005 -0.04680713
000220 05 03 21 bf a3 4b bd be b5 33 2e bf f6 cd ab be
       -0.6289523 -0.3697177 -0.6804765 -0.33555573
000230 15 b5 b5 3e 01 c5 54 3f 2a 72 df bd 12 a7 1b 3f
       0.35489717 0.83113104 -0.10910447 0.60801804
000240 ef f4 19 be 86 45 90 be 45 c7 29 be 0f fd 2c 3f
       -0.15034841 -0.28178042 -0.16579922 0.67573637
000250 ae a6 f9 3d fb 67 8d bf 0b 87 58 3d 73 45 a4 be
       0.12189995 -1.1047357 0.052863162 -0.32084236
000260 83 25 9a 3e 27 4b a8 3d d2 c0 90 bf f3 16 9c 3e
       0.30106744 0.08217459 -1.1308844 0.3048626
000270 47 d2 b9 be 60 38 2c be ac 00 45 bd 76 76 1d 3f
       -0.3629324 -0.1681838 -0.048096344 0.6150888
000280 36 d9 05 3f 4e 07 d7 3e 1b 7d 0d bf 66 0c 75 3e
       0.5228456 0.4199776 -0.5526902 0.23930511
000290 64 65 23 bf af c8 8e bd a1 cc 82 3e ce 56 ce be
       -0.63826585 -0.06971871 0.25546744 -0.40300602
0002a0 f5 df 1a bf ec 23 00 be 49 10 eb be 7f 47 ef 3e
       -0.6049798 -0.12513703 -0.45910862 0.46734235
0002b0 74 64 66 bb 81 b8 af 3e f5 75 a6 3e 1d 2f a6 be
       -0.003515509 0.34320453 0.3251187 -0.3245782
0002c0 68 e3 9c 3b 9a 85 23 3e 31 bc 11 bf 0b 83 b1 be
       0.004787851 0.15968934 -0.5692778 -0.3467029
0002d0 d8 ae 71 3f 77 fc a9 3d b9 2f b0 be 88 78 d7 3c
       0.94407415 0.08300107 -0.3441141 0.026302591
0002e0 98 55 27 3f 1e 7e 55 bf 55 2b 50 3e 55 44 cd be
       0.6536498 -0.83395565 0.2032903 -0.40091196
0002f0 83 5e 4e be d5 87 83 be 1b 84 23 bf c1 35 bd 3e
       -0.20153241 -0.2568957 -0.6387345 0.36955073
000300 ee 68 76 be 5c 81 84 3d f2 8a c0 3b 76 8b 08 3e
       -0.24063465 0.06469986 0.0058759386 0.1333445
000310 ac ac 1b be 47 f2 1c be fd 34 9d 3e c2 58 0b be
       -0.15202588 -0.15326796 0.3070449 -0.13608077
000320 9b dd 1a bf 9c b8 d6 be 3e ef 36 3f 6e f1 63 bf
       -0.60494393 -0.4193772 0.71458805 -0.8904027
000330 9d ab e1 3c 14 a7 65 3f 6e 87 68 3f 2d d4 07 bf
       0.027547652 0.89708066 0.9083165 -0.5305813
000340 00 1e 84 3e a5 a1 22 be e9 23 51 3f 65 e0 f4 bd
       0.25804138 -0.15881975 0.8169542 -0.11956862
000350 94 82 4a be 28 95 41 3f 60 e1 91 3e 95 8a cf 3d
       -0.19776374 0.7561822 0.2849226 0.10133854
000360 24 4a 23 3f b8 db 23 3e 22 b0 0e bf cb cd 14 bd
       0.63785005 0.16001785 -0.5573751 -0.036329072
000370 9a 54 d9 be 48 46 84 be 23 fc ca 3d 55 b2 9c be
       -0.42447358 -0.2583487 0.099113725 -0.30604807
000380 0f 79 24 3f 8c a1 f6 3d 09 69 4f bd bc 0e 11 bf
       0.6424722 0.12042531 -0.05063728 -0.5666311
000390 e6 6f b0 bd b9 6a cb 3e 3c 20 88 bf 20 f5 0b 3d
       -0.08615093 0.3972986 -1.0634837 0.034169316
0003a0 9e c8 0c 3f 0e 96 ff bd 20 27 66 3c 86 c1 fc be
       0.5499362 -0.124797925 0.014047414 -0.49366397
0003b0 43 10 bc 3e ed 9c 83 3e 32 4b cc bd d2 3a 39 bd
       0.36731157 0.25705662 -0.0997528 -0.04522211
0003c0 31 19 3b 3f 90 88 bc be 29 b1 2b bf e4 93 a8 3f
       0.73085314 -0.3682294 -0.670672 1.3170133
0003d0 06 68 af 3d 21 8e b6 3e 25 a6 2b bf 2d 31 0b bf
       0.08564763 0.3565531 -0.6705039 -0.5437191
0003e0 1a 54 5f 3e 81 e5 0b bf 85 6b 4a bd c7 e9 61 3f
       0.21809426 -0.5464707 -0.049418945 0.8824734
0003f0 bb bc 18 bf 75 f5 17 be 72 15 42 bf 9d 1e 41 3d
       -0.5966298 -0.14839728 -0.7581397 0.047148336

network_body._body_endoder.seq_layers.0.bias f4 [128]
000000 97 12 81 3c 21 92 2b 3d 17 f7 12 3d af 16 12 3e
       0.015755935 0.041887406 0.035880174 0.14266466
000010 69 7c 8f 3d ef 73 e7 bc c6 ab bc 3d ca 6a bb 3c
       0.07006151 -0.028253524 0.09212451 0.02287807
000020 f4 29 02 3e 2f 27 04 bd d1 77 b1 bc d3 59 5b 3c
       0.12711316 -0.03226393 -0.021663578 0.013388115
000030 b4 d7 30 3d 97 04 5d 3d 63 52 e3 3c 33 08 84 bd
       0.04317446 0.053959455 0.027749246 -0.064468764
000040 39 3d 09 3d 8a 01 92 3d bb b4 58 3d 28 17 8b 3d
       0.033505652 0.071292 0.052906733 0.06791526
000050 6a 16 1b 3d 58 00 57 bd fc e8 55 bd 06 75 ff 3d
       0.037863173 -0.052490562 -0.052224144 0.12473492
000060 3e 20 69 3d 5f d2 af 3d 00 5b f3 3d 6f da 9f 3d
       0.056915514 0.08585047 0.11882591 0.07805335
000070 bf 4d 40 3c c9 30 1b 3d 5c 22 9c 3c 11 43 11 3e
       0.011737286 0.037888322 0.019059353 0.1418574
000080 cb e7 1e 3a 7a 5d 67 3d a8 d0 20 3e a1 88 15 3d
       0.00060617615 0.05648563 0.15704596 0.036507253
000090 7f 2c 75 3d 9c f9 49 3b 9f 58 11 3d b9 f5 9d bb
       0.059856888 0.0030818945 0.035484906 -0.004820552
0000a0 f0 b4 42 3d 45 10 8b 3d 86 01 5e 3d 57 55 06 3d
       0.047535837 0.067902125 0.05420067 0.03279623
0000b0 57 9f 84 3d a3 11 a5 3d 7f 1e b7 3c cf 5b 1f bd
       0.06475704 0.080600046 0.022353409 -0.038905915
0000c0 ce 35 4a 3e e0 00 dd 3c a4 7c 84 3d 9a 6a 9d bd
       0.19747087 0.026977956 0.06469086 -0.07686348
0000d0 75 4d 3f 3d ad 0c 21 3d 72 13 ce bc 99 53 24 3d
       0.04670473 0.03931873 -0.025155757 0.040118787
0000e0 d3 32 1d 3d 90 20 b6 3b 45 33 e2 3d b3 9e ae bc
       0.038378548 0.005558081 0.11044935 -0.021315908
0000f0 fe 36 86 3d 9a 4d 1e 3d 52 a2 73 bd d9 c6 0f bc
       0.06553458 0.038648225 -0.059480973 -0.008775436
000100 d4 b2 05 3d b3 9e 0e 3e 9d a0 f1 3d c2 6a aa 3c
       0.032641247 0.13927726 0.11798213 0.02080286
000110 9e c6 dd 3d 54 08 5b 3c f6 9e 07 3e f1 77 84 3d
       0.10828899 0.013368685 0.13244233 0.064681895
000120 c3 68 8a 3c 1d 17 b3 3d 65 24 07 3d 36 2f 86 3b
       0.016895657 0.08744643 0.032993693 0.0040949835
000130 fd f3 d7 3d 23 62 20 3d be 4e 79 3c d4 3c 1a 3b
       0.10544584 0.03915609 0.0152165275 0.0023534792
000140 81 ab 8c 3d e9 4f 44 bb 79 d1 44 3d 39 09 05 3d
       0.06868649 -0.0029954857 0.04805133 0.0324795
000150 0e 5e ae 3d 85 c3 15 3e da 10 30 3d 7d d5 b0 3b
       0.08514033 0.14625366 0.04298482 0.0053965435
000160 51 48 f2 3c 97 96 31 bd f2 30 84 3d ad 77 f1 3d
       0.029575499 -0.043356504 0.06454648 0.117904045
000170 28 81 1e bc 85 87 fc 3c 54 a6 a6 3d 04 b0 14 3e
       -0.009674348 0.03082634 0.08137193 0.1452027
000180 26 c7 91 3d ee 42 77 bc 57 0e 7e 3d c3 3e db ba
       0.07118063 -0.015091641 0.062025394 -0.0016727078
000190 0f b7 39 3d 34 30 a7 3d a7 f5 d5 bd 28 ba a4 3d
       0.045340594 0.08163491 -0.10447245 0.08043319
0001a0 6a e4 88 bd 89 59 bd 3d c7 c8 15 3e 5f 44 12 3d
       -0.066841915 0.09245593 0.14627372 0.035709735
0001b0 ae c7 c0 3c c7 a3 8d 3d c3 71 f6 3d 83 ce 80 3d
       0.023532715 0.06916004 0.12033417 0.06289389
0001c0 cc 15 95 3d 16 1d 0d bc ad bd 3d 3d 5a d2 a2 3c
       0.07279548 -0.008612892 0.046323467 0.019875694
0001d0 f7 28 b4 3d b6 d0 81 bd ec 3e 69 3d fb f4 ce 3c
       0.08796876 -0.063386366 0.056944773 0.0252633
0001e0 ff dc 91 3d d6 b1 33 3c 60 2a b8 bc d2 99 5c 3d
       0.0712223 0.010967692 -0.022481143 0.053857632
0001f0 15 0a a8 3b 8e ba ab 3d 72 4a a8 3d fa f6 a6 3d
       0.005128155 0.08385192 0.08217324 0.08152576

network_body._body_endoder.seq_layers.2.weight f4 [128, 128]
000000 0a b2 e0 bd cc cd 8e 3b 2b d9 0b bd dd 67 a1 3d
       -0.10971458 0.004358029 -0.034142654 0.078811385
000010 53 f8 08 3d 8b 0a 10 be 00 f9 aa bc 45 c3 73 bd
       0.033439945 -0.14066522 -0.020870686 -0.059512395
000020 7b 56 84 bd 03 d4 2b be ce 51 a8 bd 51 fa 7e 3a
       -0.06461807 -0.16780095 -0.08218728 0.0009726631
000030 74 99 ec 3d 20 5a 24 3d b7 8b c1 bd 7a 30 0b 3d
       0.11552706 0.040125012 -0.094504766 0.033981778
000040 96 eb f9 bd 5f 70 a5 bd 79 a2 d5 bd 47 eb 9b bd
       -0.122031376 -0.08078074 -0.1043138 -0.07613235
000050 f2 63 db bd a8 5f 32 3d 8d 2d 72 bc 81 7f 28 3a
       -0.107124224 0.043548256 -0.014781368 0.0006427691
000060 86 99 f4 bd 77 c8 d1 bd 04 b1 73 3d 04 8a 4a 3d
       -0.11943345 -0.10243314 0.059494987 0.04944803
000070 fa 05 50 3d a7 f7 c2 3d d3 7d 28 be b5 38 81 3c
       0.05078695 0.09519892 -0.16454248 0.01577411
000080 52 d1 37 bc b2 7d 39 be a7 38 c4 bc d6 22 52 3c
       -0.011219339 -0.18114355 -0.023952795 0.012825688
000090 72 e8 3d 3e 7c 05 f2 bd 69 ce a3 bd 6e 9a b1 bc
       0.18545702 -0.11817452 -0.07998354 -0.021680083
0000a0 39 d7 db 3d b5 5d bd 3d b9 64 02 3d b4 34 30 bd
       0.1073441 0.09246389 0.031834338 -0.04301901
0000b0 b7 fa 24 bd 72 e4 ad bd e8 c4 57 3d d9 b5 0f 3e
       -0.040278163 -0.08490838 0.05267802 0.14034213
0000c0 93 8c c4 3d 78 2a 82 3d 7c 38 c3 bb 0c 1c 5c 3d
       0.09597125 0.063557565 -0.005957661 0.053737685
0000d0 ac 6d 4a 3c 2d 6e 4e be 9c 8e ad 3d 1f 97 22 3d
       0.012355249 -0.20159216 0.08474466 0.0396949
0000e0 11 27 a3 3d 07 e6 d9 3d 09 df 81 bd be c5 32 3e
       0.07966436 0.10639577 -0.06341369 0.17458245
0000f0 f9 2b 15 3e a1 35 5d 3d 45 88 81 bc 31 8e c7 3b
       0.14567555 0.054006223 -0.015812049 0.0060899486
000100 4e 77 80 bc 5d c4 21 3e 1f 23 25 bc f6 8e 00 be
       -0.015681889 0.15797563 -0.010079174 -0.12554535
000110 27 db 5b 3e 56 b3 ec 3d a4 0a 23 3d 91 9a 17 3e
       0.21470319 0.11557643 0.03980507 0.14805056
000120 3a 3a 1b 3e cc 62 78 bc 72 7a 52 bd 50 41 00 3d
       0.1515893 -0.015160274 -0.051386304 0.031312287
000130 73 73 cc 3d 7d 6a 58 bd 43 29 c7 3c e6 02 0b bd
       0.09982958 -0.05283593 0.024311667 -0.03393831
000140 2b dc cb 3c 8a 3f 24 be 07 ce 6a bc 6c d5 02 3b
       0.024885258 -0.16039863 -0.014331347 0.0019963635
000150 d4 de a4 bd 33 49 0e 3d 51 e5 01 3c 5d b2 da 3d
       -0.080503136 0.034737777 0.007928208 0.10678551
000160 35 a6 e4 3d 9e 65 81 bd 38 a8 de 3d b8 a4 dd 3d
       0.11164514 -0.0631821 0.10871929 0.10822433
000170 d8 ca 43 bc 6e bf ba bc 37 47 b9 bd 08 cc 91 3d
       -0.011950217 -0.022796359 -0.09046786 0.07118994
000180 0c b9 b4 bb 39 e7 7e 3c e0 78 3f 3e b6 89 b2 3d
       -0.0055152234 0.015558057 0.18698454 0.087176725
000190 2e 42 3f 3d 39 69 c2 bd 3e 16 3a bd 29 24 1d 3e
       0.046693973 -0.09492726 -0.045431368 0.15345825
0001a0 3f e8 51 3d 64 02 22 3d 32 7b 00 3d b8 e4 03 be
       0.051246878 0.03955306 0.03136749 -0.12880218
0001b0 70 b6 0d 3c 96 77 3b 3d ba 86 1c 3e 85 1c 00 be
       0.0086494535 0.045768343 0.15285769 -0.1251088
0001c0 95 44 71 3c 76 08 88 bd ff eb b5 3c 0f d1 a0 3d
       0.014725824 -0.06642239 0.022207258 0.07852375
0001d0 fd 4c c7 3c 61 16 cc bd 15 0c 5b bc 81 be 37 be
       0.024328703 -0.09965206 -0.01336958 -0.17943765
0001e0 f0 8d 1e bd e4 86 15 be 22 0d 57 3d 02 ad 87 3b
       -0.03870958 -0.14602238 0.05250276 0.004140497
0001f0 29 a8 c5 3b 34 d9 8d bd 9a f6 56 3e 62 15 2a 3e
       0.006032009 -0.06926194 0.20992509 0.1660972
000200 09 45 6a 3d 37 67 9b 3d 23 8f 67 bd d8 2e 21 3e
       0.057194743 0.07588046 -0.05653299 0.15740526
000210 f3 a3 a7 3d 19 0a 56 3d a1 af e4 3d 8a 6b db bb
       0.08185568 0.052255724 0.11166311 -0.0066961693
000220 5a c2 58 3d 33 3a 30 be 18 2e ba bd c4 c3 37 bd
       0.052919723 -0.17209701 -0.09090823 -0.04486443
000230 a9 32 49 be 82 96 54 bd 08 b0 cd bc 7d be bb bd
       -0.19648232 -0.051901348 -0.025108352 -0.09167192
000240 05 87 39 bd 5d 64 b3 3d b3 a6 1f 3d a6 c7 20 3d
       -0.04529478 0.08759377 0.038977336 0.0392529
000250 7f 38 04 3e 8a 2c 2c 3b 13 c7 6f 3d 37 4a 0c 3e
       0.12912177 0.0026271665 0.05853946 0.13700186
000260 89 4f cb 3d a1 a4 8d 3b 81 05 9f 3d 26 ac e2 3d
       0.099272795 0.004322604 0.07764722 0.11067991
000270 08 e7 bd bd c1 b2 1e bd e7 ef 6a bd 39 cb 29 3e
       -0.09272581 -0.03874469 -0.057357695 0.1658143
000280 b8 50 bf bd 9d 93 9a 3d ac 8c b3 3d 76 18 3e 3e
       -0.09341568 0.07547686 0.087670654 0.18564019
000290 a3 e5 24 bc a4 d0 16 be b1 fd 7d bb 01 b6 6f 3c
       -0.010064515 -0.14728028 -0.0038755948 0.014630795
0002a0 55 f7 b2 bd 41 a9 2b 3e d7 5d 45 3d fc ba bb bc
       -0.08738581 0.16763784 0.048185196 -0.02291631
0002b0 be d8 17 3d 08 e9 90 3c 71 21 2a bd 92 23 46 bd
       0.037071936 0.017689243 -0.0415358 -0.048373766
0002c0 a9 71 b0 3c 1f a9 e0 bc 51 63 2e 3e e0 15 57 be
       0.021538572 -0.027424393 0.17030074 -0.21004438
0002d0 7e 12 f2 3d 8a d5 31 3e 5f b2 f7 3d 84 b5 be 3c
       0.11819933 0.17366615 0.120945685 0.023279913
0002e0 07 f8 8d 3b d0 4f 4d 3d 71 b3 13 bd bd b0 e4 3d
       0.0043325457 0.050124943 -0.0360598 0.11166523
0002f0 ce 6b b9 3d 80 e7 f8 3d 20 75 3b bd 30 81 bd bd
       0.09053765 0.1215353 -0.045765996 -0.09253156
000300 95 31 b6 3c 0e 84 cf 3d 0f 7a 13 3e 18 42 72 3d
       0.02224044 0.10132609 0.1440203 0.059145063
000310 98 44 38 3e 5a 28 eb bd b3 b8 a4 3c 98 d6 a6 3d
       0.17994916 -0.11482306 0.020107603 0.08146399
000320 3f 12 14 3d de 3b ce 3d 29 38 ab 3b 55 46 c8 3d
       0.036150213 0.100700125 0.0052252007 0.0977904
000330 21 88 3c 3e 4d d3 2a 3d d3 9e e6 bc ce b5 97 bc
       0.18411304 0.04170542 -0.028151905 -0.018519308
000340 ba 6a 5e bd 6f 84 80 3d 6f b6 8b bd 62 9a 8b 3c
       -0.054301 0.0627526 -0.06821906 0.017041389
000350 8f 6d db 3d d5 47 3a 3c 19 0e dc 3d 2b 5c bc 3d
       0.10714256 0.011369665 0.107448764 0.09197267
000360 4d eb e2 3d 7d 27 cd bd 75 1a 10 3e fc d5 41 bc
       0.11080036 -0.100172974 0.14072593 -0.011830803
000370 8b b0 3d bd bc 11 ec 3b d1 0b a2 3c f7 db e7 3d
       -0.046310943 0.0072042625 0.019781025 0.11321252
000380 94 36 2b 3e d1 78 0f be 6a e7 56 bd 83 85 e4 3c
       0.16720039 -0.14010932 -0.052466787 0.027895695
000390 2c e3 87 3d 3e f2 a8 bc 85 8b 1a bd fd e6 64 3e
       0.066351265 -0.020623323 -0.037730712 0.2235374
0003a0 26 75 09 bd 39 e3 d0 bd 58 40 95 bd 07 03 1a bd
       -0.033558987 -0.10199589 -0.07287663 -0.037600543
0003b0 89 b1 ba 3d 87 ba 1b 3e 57 f7 96 bd 12 9d 4a 3d
       0.091158934 0.15207873 -0.07371395 0.0494662
0003c0 e9 a8 8a 3e c9 99 29 be 82 77 00 3d da f1 60 3d
       0.27081993 -0.1656257 0.03136397 0.054918148
0003d0 64 29 54 3b e4 6e 02 be ad 3d 03 be b2 dc 3b 3d
       0.0032373304 -0.12737614 -0.12816496 0.04586477
0003e0 5f 75 b6 3d 55 65 1e 3d 96 72 39 be 84 ea 38 bd
       0.089091055 0.038670857 -0.18110117 -0.045145527
0003f0 eb e0 31 3d 1d bb fe 3d 5b 34 d1 bc cd 1c 08 3e
       0.04342739 0.12438033 -0.02553766 0.13292237

network_body._body_endoder.seq_layers.2.bias f4 [128]
000000 3d ee 3b 3d f0 9b ed 3d fd 0a 18 3d f0 35 81 3b
       0.0458815 0.11602008 0.037119854 0.0039431974
000010 01 0c 71 3d 37 4e 2d 3d fd b8 67 bc d2 7c 78 bd
       0.05884934 0.04231092 -0.014143226 -0.060665913
000020 40 c7 87 3d 32 8c 11 bc 58 b6 8d bc f2 68 0b 3e
       0.06629801 -0.008883523 -0.017298862 0.13614252
000030 c7 7f 54 3c eb b4 60 bd cc 6a d2 bb 5d 4f 28 3a
       0.012969918 -0.054860037 -0.0064214226 0.00064205175
000040 35 fe a2 3d bf bf 4f 3d 0d 9d a7 3d 77 1e 85 3d
       0.079586424 0.050719973 0.08184252 0.06499951
000050 5c af 1f bd 34 c0 a7 bc c7 09 e0 bc ca 13 03 3e
       -0.038985595 -0.020477392 -0.027348412 0.12800518
000060 d3 4e 13 3d f8 ce 3f 3d b3 0e 50 3d 28 c7 43 bb
       0.035963845 0.04682824 0.05079527 -0.0029873345
000070 78 f2 a3 3d ee c2 89 bc d4 1e 65 3c f2 43 9f 3c
       0.080052316 -0.016816583 0.013984401 0.019441579
000080 1f b6 ff 3d a6 a6 e2 3b 00 ff bd 3d 15 08 06 bd
       0.12485909 0.0069168387 0.09277153 -0.03272255
000090 71 6f 10 bd 8d 18 5a bc 77 0a a9 3d 11 62 38 bd
       -0.03526253 -0.013311517 0.08253949 -0.0450154
0000a0 de bf 15 bd 7c 59 fa 3c 89 0f 00 3d a1 6a 5b bd
       -0.036559932 0.030560248 0.031264815 -0.053568486
0000b0 61 37 dc 3c 06 6c 6f bc 58 ad a6 bd 32 a9 9f 3d
       0.026881875 -0.014613157 -0.081385314 0.07795943
0000c0 a6 ec 0f bd ae 40 60 3d b7 a4 99 bd 08 4b 7b bd
       -0.035137795 0.054749183 -0.0750212 -0.061350852
0000d0 cc a4 f0 3d d8 d0 ef 3a 84 a8 b9 3d 02 6e b2 3d
       0.117501825 0.0018296493 0.09065345 0.087123886
0000e0 45 f1 c4 3d 05 ce 47 bd 2f 64 3c 3d 1b c0 21 3c
       0.09616331 -0.04878046 0.04599398 0.009872462
0000f0 96 fd 73 bd 9c f2 05 3c e7 d0 b1 3d f2 c8 ed bb
       -0.05956801 0.008175518 0.08682423 -0.0072566206
000100 96 63 37 3c 98 59 76 3d a4 3d 2e 3d 69 4a 3b 3d
       0.011193177 0.060144037 0.042539254 0.04572526
000110 4d ee 56 3d 38 0f 86 bc 31 95 77 bc 6b 0a f6 3d
       0.052473355 -0.016364679 -0.015111254 0.12013706
000120 22 61 ba 3d a9 a3 43 3d 8d 25 2a 3b 0f 35 d7 3d
       0.09100558 0.0477635 0.0025962323 0.10508167
000130 48 78 2e bd 70 b9 38 3d c8 da 0a 3e 4e c3 28 3d
       -0.042595178 0.045098722 0.13560021 0.041201882
000140 64 52 47 3d 79 1e 55 bd 71 25 82 3c ef cb 3a bd
       0.04866256 -0.052031014 0.015886994 -0.045604642
000150 61 d3 a6 bc 2d b8 35 bd 0f 12 e9 3d 0e d8 0d 3c
       -0.020364465 -0.044365097 0.113803975 0.0086574685
000160 c0 eb a3 3c fd 2d 8b bd 69 b0 2c 3d bd 4c 18 3d
       0.020009875 -0.06795881 0.042160425 0.03718256
000170 16 bd 84 bd 05 0e 07 3d 4c 01 77 bd ac 62 85 3d
       -0.06481378 0.032972354 -0.06030397 0.06512961
000180 49 38 f0 3d 3e 20 c0 3d 36 dd 37 3b 72 2f 8d bb
       0.117294855 0.0938115 0.0028055436 -0.0043086344
000190 51 bf 7a bd a3 d9 f5 3b 1b 9e 8d 3d 24 ee 1a 3d
       -0.06121761 0.007502751 0.06914922 0.037824765
0001a0 37 04 cd 3c be 97 fa 3c 21 98 5f 3d b2 c8 1e 3e
       0.025026424 0.030589934 0.05458844 0.15506247
0001b0 50 bb a7 3d bc d5 37 3a 36 2b 8b 3c 28 d7 38 3d
       0.08190024 0.0007012745 0.016988378 0.045127064
0001c0 ff 22 27 ba 6c 49 05 bd 57 d5 d2 3c fa 83 2e bd
       -0.0006375759 -0.032540724 0.025736494 -0.04260633
0001d0 a2 70 b8 3c 7d 99 c4 bd e4 94 2b bd dd f8 84 3d
       0.022514645 -0.09599588 -0.04189004 0.064927794
0001e0 f7 3f 19 bd 80 ef fd bc 3c c9 4e 3d 13 9e 90 3c
       -0.037414517 -0.030997992 0.05048488 0.0176535
0001f0 00 6c 35 3c 7d 13 e3 bc f5 0c 9c 3d f8 dc 8c bc
       0.0110731125 -0.027719254 0.07619659 -0.01719521

action_model._discrete_distribution.branches.0.weight f4 [4, 128]
000000 93 46 8a bc d8 5d 15 bd fc 74 6c 3c 4a 1b 66 bc
       -0.016879356 -0.03646645 0.014432188 -0.014044592
000010 ec 6c 9b bc 79 f6 96 bc 5c 0a 72 bc 5d 98 22 3d
       -0.018972836 -0.018428074 -0.014772978 0.039696086
000020 d7 62 5a bd 34 4d a3 3c 45 f2 91 3c 11 ca 41 bd
       -0.053316917 0.019934274 0.017815718 -0.047311846
000030 8b 2e 3a 3c 45 a1 d3 3c 8b 82 6b bb 7f d7 e0 b9
       0.011363636 0.025833735 -0.0035935964 -0.00042885166
000040 f1 3f 07 bd db 64 2d bc 58 86 e6 ba 83 19 a6 bc
       -0.033019964 -0.010583128 -0.0017587645 -0.020275837
000050 80 5e 8d 3c 1d fc 48 bc a3 52 27 3c 5f 22 1b bd
       0.017256975 -0.01226714 0.010212573 -0.037874576
000060 3f ec b3 bc 7a 09 1d bd 66 9f 45 bc 4a fd 63 3b
       -0.021963237 -0.038339116 -0.012061929 0.0034788423
000070 df 98 f6 bc 52 f7 f9 3b a5 51 f4 bc a5 a6 fc 3b
       -0.030102191 0.00762836 -0.029824087 0.0077102953
000080 13 cb 1d bd b1 c7 ba bc 3d cf 57 bd 74 19 86 3c
       -0.038523745 -0.022800298 -0.052687872 0.016369559
000090 5a df 72 3c e3 47 a5 bc 01 e4 2c bd 98 cc 40 3c
       0.014823759 -0.02017588 -0.04220963 0.011767529
0000a0 48 9f 3c 3c 5a 20 15 bd dd 01 dd 3a 4e 89 b9 3c
       0.011512585 -0.036407806 0.0016861517 0.02264848
0000b0 f2 df 1b bd 0a 85 c5 ba c2 f2 38 3d 2c 65 d1 bc
       -0.038055368 -0.0015069556 0.045153387 -0.025560938
0000c0 d9 ef 99 3c e8 01 1b bc 42 6d 36 3d d3 7e bb 3c
       0.018791126 -0.009460904 0.04453779 0.022887623
0000d0 13 8f ca bc 7c 47 10 bd 6d b0 80 bc ba ad 04 bc
       -0.024726426 -0.035224423 -0.015709126 -0.00809806
0000e0 27 8b 07 bd b1 05 b3 3b 88 2b d3 bc e6 1e 7a 3c
       -0.03309169 0.005463325 -0.025777593 0.015266156
0000f0 36 a0 e3 3c 7d 3d 83 bb 6f 57 02 bd aa 85 e7 bc
       0.027786355 -0.0040051327 -0.031821664 -0.028261978
000100 c1 bb 9e 3b 6d a7 2f bc 69 87 20 bd a6 65 d8 3b
       0.0048441594 -0.01072107 -0.039191637 0.0066039143
000110 b6 7c 9d bc 84 a1 24 3c 4c 9d e4 3b 54 74 42 bd
       -0.019224506 0.010048274 0.006976759 -0.04747422
000120 4a 85 19 bd 76 fd c2 bc c8 9f bd ba 81 b3 34 bd
       -0.03748063 -0.0238025 -0.0014467174 -0.0441165
000130 45 e9 15 3d 8e 0a ac bc 3e 0b 1e bd 08 11 32 bd
       0.036599416 -0.021001127 -0.03858494 -0.043473274
000140 3a 80 8b bb 7d 06 b4 3c ef 80 74 bc b6 0e fd 3c
       -0.004257229 0.02197575 -0.014923318 0.030890804
000150 89 c0 3b bc 64 0e 86 3c fa 06 47 bd a0 2f 3c bd
       -0.011459478 0.016364284 -0.048590638 -0.045943856
000160 eb fd f8 bc bc a6 28 3d 4f fb f7 bc c3 73 d6 bc
       -0.030394515 0.041174635 -0.0302712 -0.026178246
000170 ea 0f 55 3d a5 84 61 bd 4e f4 33 3d ca 44 d0 bc
       0.05201713 -0.05505814 0.04393416 -0.025423426
000180 cb e8 23 bd 6a 20 67 bc 2e 1d 15 bd d5 80 15 bc
       -0.04001693 -0.014106849 -0.03640478 -0.009124954
000190 93 d3 d4 3b a1 b0 a8 bc 28 26 97 bc 40 ce 26 bc
       0.006494948 -0.020592036 -0.018450812 -0.01018101
0001a0 09 1a 30 bd ac 2d c7 bb c3 65 f7 ba 30 0b 3d bd
       -0.04299358 -0.0060784426 -0.0018874932 -0.046153247
0001b0 b5 65 ee bc 21 0f c8 bc ea b8 14 bd ef a0 c2 3b
       -0.029101232 -0.024421277 -0.03630916 0.005939595
0001c0 3d 3f 30 bc b0 f2 aa 3c c2 09 eb bc 27 a3 64 3b
       -0.010757265 0.020867676 -0.028691176 0.0034887285
0001d0 02 73 53 bd 58 63 52 3d 3e 10 01 3d 6e 53 a9 bc
       -0.051623352 0.051364273 0.03150963 -0.020669665
0001e0 79 23 cc 3c 6f 9f 98 3b bd 33 5a 3c 4e a2 73 3c
       0.024919258 0.004657678 0.013317999 0.014870239
0001f0 2f 75 3d bc 2a 6c d3 3c db a9 1f bd 2e 00 44 bc
       -0.011563583 0.025808413 -0.038980346 -0.0119629335
000200 9d de b7 3c e4 4b 8b 3d 25 8a 17 bd 5e 4f ac 3c
       0.022445017 0.06801584 -0.03699698 0.021033939
000210 77 51 bc bc 7a bb a8 3d 74 45 3a 3d 90 40 7f bd
       -0.022988064 0.08238883 0.045476392 -0.06231743
000220 fa 0e a5 3d de 9f 20 bd d6 64 a9 3c d2 32 f2 3c
       0.08059497 -0.03921496 0.020677965 0.029565249
000230 ef 18 39 bd 25 2b d1 bd 67 55 7e bd 63 b1 4d 3c
       -0.045189794 -0.10213307 -0.062093165 0.012554499
000240 b1 08 f6 3c 1c fb 94 3d 56 eb aa 3c 9b cc ec 3c
       0.030033441 0.07274458 0.02086417 0.028906157
000250 c7 dd f5 bc 17 de 84 3b 54 54 b6 bc cd c8 c3 3b
       -0.030012978 0.0040547955 -0.022257008 0.005974865
000260 22 d1 82 3d 7b 77 e5 bc 4a 26 0f bb 4d ea 1f bd
       0.06387545 -0.028011074 -0.002184289 -0.039041806
000270 84 a4 7c 3c 35 dd 99 bd 32 48 1b 3c da 2e b2 bc
       0.015420083 -0.07512895 0.009477662 -0.021750856
000280 da 01 31 3d 2e b5 42 3d ef 57 34 3d c9 3d e5 3c
       0.043214656 0.047536068 0.044029173 0.027983563
000290 8a ae 65 3c b5 eb 57 3d 40 ae bc 3c d5 fc 09 bd
       0.014018664 0.052715022 0.023032308 -0.033688385
0002a0 72 be 32 bd 75 79 84 3d e6 57 50 bc a1 9c 1b be
       -0.043638654 0.064684786 -0.012716269 -0.15196468
0002b0 37 d7 db 3c 78 ad 9e bc 75 c5 9f bd 72 4c e1 3c
       0.02683602 -0.019369826 -0.07801334 0.027502272
0002c0 fe 96 52 bd d8 08 5d bc f8 dc ba bd 3e d9 b1 bd
       -0.05141353 -0.013490878 -0.09124178 -0.08684014
0002d0 38 02 27 3d a0 7d c5 3c b1 8b 30 3b d1 7a 07 3c
       0.0407736 0.024107754 0.0026938731 0.008269028
0002e0 24 fc a2 3c 79 ce 05 be 21 fc 39 3d 1d 8e 1d bd
       0.01989562 -0.13067044 0.045406464 -0.038465608
0002f0 e7 6c c2 bd b5 df 17 bd 61 f9 e5 3c bd cd 7b 3d
       -0.09493428 -0.037078578 0.028073015 0.061475504
000300 d8 db 79 bd 7e e7 da 3d 13 c5 a8 3d 4b 99 c2 bc
       -0.061000675 0.10688685 0.08240714 -0.023754736
000310 27 25 74 3d 50 80 ca bd 4f 3c 70 3b f6 84 39 3d
       0.059605744 -0.09887755 0.003665704 0.045292817
000320 ca 87 54 3d 7f 12 20 3d 39 39 19 3c 49 e6 d2 3d
       0.05188731 0.03908014 0.009352022 0.1029783
000330 f9 30 2f be 0b 21 42 3d b8 6e 3d 3d c3 db 9d 3d
       -0.17108525 0.047394793 0.046248168 0.07707932
000340 8a 9e a6 3a 9c 54 2b bd a6 c4 1f bd ac bd 09 be
       0.0012712043 -0.041828737 -0.039005898 -0.1345126
000350 fd 73 87 bc ac f9 11 be 2f 8c 35 3d 29 d1 30 3d
       -0.0165348 -0.14255399 0.044323143 0.04316822
000360 cd 7e 94 3d 67 f6 ba bd f5 ca 27 3d 7c 62 a1 3d
       0.07250748 -0.09129029 0.04096504 0.078801125
000370 4c ca ac bd 64 9e 03 bc b3 cf 50 bd 5b 53 68 3d
       -0.084370226 -0.008033369 -0.050979327 0.05672012
000380 7b 8b 5a 3d ad 90 5a 3a 28 ef a8 3d 53 d0 21 3d
       0.053355675 0.00083375984 0.082487404 0.039505314
000390 74 8b cb bd dd 26 80 3d 90 73 56 3d 21 39 e3 3c
       -0.09938708 0.062574126 0.052356303 0.027737202
0003a0 90 f0 9f 3c 25 14 06 bd 9f 56 27 bd 5b 19 c8 3d
       0.019523889 -0.032734055 -0.040854093 0.09770461
0003b0 21 04 8e 3d 8e ed 25 3d d4 58 8a 3d 55 39 fb bb
       0.06934381 0.040509753 0.06755224 -0.0076667466
0003c0 29 90 8a bd fd aa a6 bd 8d 16 dd 3c bf 5c a1 bd
       -0.067657776 -0.08138082 0.026988292 -0.07879018
0003d0 d7 5e b8 3d 65 54 81 bd 58 78 f5 bd 06 34 06 3d
       0.09002464 -0.06314925 -0.119858444 0.032764457
0003e0 50 fd 98 bd 05 87 75 ba fe 8d 78 bd b2 e4 68 bd
       -0.074701905 -0.0009366128 -0.06068229 -0.056858726
0003f0 1c ad 2f bd e8 8f fb 3b 75 ca 3b 3d 04 d7 19 bd
       -0.0428897 0.007677067 0.045847375 -0.03755857

action_model._discrete_distribution.branches.0.bias f4 [4]
000000 21 7d 9a bd eb cf 8d 3d 0b 3e e9 3c a0 f4 2a bd
       -0.07543398 0.06924423 0.028471967 -0.0417372

exp_avg f4 [128, 5]
000000 55 f7 c6 b8 08 cc 7a 39 1c 1e ce 37 19 90 f6 b8
       -9.487445e-05 0.00023917865 2.4571134e-05 -0.000117570344
000010 19 66 0b 3a 94 b1 0e 39 fd cd 2a b9 0f 05 e9 39
       0.0005317643 0.00013608328 -0.000162892 0.00044444992
000020 e6 a2 59 b8 f3 c2 18 3a 0c e2 ea b9 db 60 de b9
       -5.1888543e-05 0.00058273895 -0.00044800376 -0.00042415303
000030 20 7f 30 39 41 4d 6e ba 5b 5e 89 3a 3a 08 10 b9
       0.00016832026 -0.0009090491 0.0010480391 -0.00013735975
000040 40 8a f9 b9 86 1a 89 b8 2d 1a d6 b9 d2 c2 10 ba
       -0.00047595985 -6.5376094e-05 -0.00040836763 -0.00055221946
000050 16 14 b5 35 f1 8a cc 39 7d 19 68 39 12 aa 44 39
       1.3491397e-06 0.00039013432 0.00022134739 0.00018755373
000060 09 8a c1 b8 e3 a6 32 ba 8f 3f 09 b9 cb 1a e6 b9
       -9.228668e-05 -0.0006815029 -0.00013089016 -0.0004388898
000070 24 ab 10 ba 04 c5 50 3a fd a7 9b b7 62 61 3b b9
       -0.0005518666 0.0007963928 -1.8555666e-05 -0.00017869988
000080 3d bc d4 39 0c 10 f8 b9 c7 9e f7 39 8d 8a d1 b8
       0.0004057604 -0.00047314202 0.0004722981 -9.991704e-05
000090 af 06 1e ba 43 e3 ec b9 78 2a 34 b9 4e 20 cc b9
       -0.00060282176 -0.0004518275 -0.00017181959 -0.0003893398
0000a0 5a be 88 b9 41 db 45 ba c7 49 2c b9 1b f2 f0 b9
       -0.00026081764 -0.0007547625 -0.00016430682 -0.0004595675
0000b0 c6 84 9e b9 f8 d5 48 b8 0f 52 97 38 96 30 68 ba
       -0.00030235032 -4.788299e-05 7.215526e-05 -0.00088573375
0000c0 c6 1e a8 39 62 9d 5a 39 4f 31 a8 38 57 65 8e 37
       0.00032066385 0.0002084873 8.020049e-05 1.697491e-05
0000d0 dc be 06 b8 cd 23 9f 37 e2 85 81 39 16 0e 8e 37
       -3.212584e-05 1.8970948e-05 0.00024704548 1.6934278e-05
0000e0 71 9f ac 38 1e 56 ef 38 55 c7 48 b9 a5 61 22 39
       8.2312974e-05 0.00011412449 -0.00019147743 0.000154859
0000f0 b9 e3 05 b8 8c 8f f2 b8 b8 9f c8 b7 c2 ce 0f b9
       -3.1921754e-05 -0.00011566197 -2.3916233e-05 -0.00013714566
000100 c9 fb db b8 64 34 27 3a 29 9f 06 b9 e7 29 f6 39
       -0.000104896324 0.0006378351 -0.00012838528 0.00046951996
000110 0d c0 99 37 e2 2f af b9 4b 0f 10 b8 83 22 9b b8
       1.8328452e-05 -0.00033414277 -3.4346518e-05 -7.397404e-05
000120 c9 d7 48 b6 9d 8d 6c 36 46 0c 6a 36 8f 80 42 b9
       -2.9927926e-06 3.524917e-06 3.4875861e-06 -0.00018549174
000130 40 95 bd b9 40 ce e0 b8 97 da 05 ba 6e f2 1b 39
       -0.0003616009 -0.000107195694 -0.000510612 0.00014872264
000140 a7 d0 70 38 ce 2d 80 37 30 9e d1 39 af c3 c5 b9
       5.741478e-05 1.5280119e-05 0.00039981445 -0.00037720564
000150 c5 df d9 39 a1 fb d5 38 e8 4b 87 39 7b dc 28 39
       0.00041556187 0.00010203501 0.0002580576 0.00016103864
000160 89 58 d0 39 6e d3 b4 b9 62 0e 82 39 0f dc 3a 39
       0.00039738815 -0.00034489803 0.00024806248 0.0001782032
000170 4f b3 13 b9 03 de f2 39 e1 78 02 b9 04 66 92 b8
       -0.0001408581 0.00046323249 -0.00012442797 -6.9808244e-05
000180 9a 61 cc b8 67 b5 a3 39 27 48 55 ba 8d 6a b7 39
       -9.745658e-05 0.00031224938 -0.0008136057 0.00034983866
000190 31 78 4c 38 28 ec 3c 39 2d 10 b6 38 12 fb 19 39
       4.8749327e-05 0.00018017052 8.681449e-05 0.00014684748
0001a0 18 7d c8 39 75 3b 40 b9 81 33 4f b8 c8 85 9c b9
       0.00038240175 -0.00018332696 -4.9400613e-05 -0.00029854313
0001b0 65 67 b9 b8 ca 68 8b 39 f1 22 67 b8 88 81 24 b9
       -8.840746e-05 0.0002659022 -5.5107233e-05 -0.00015688513
0001c0 43 54 c6 38 5e d9 9e b9 22 de 0d 3a 34 29 15 b8
       9.457071e-05 -0.0003029806 0.00054118235 -3.556274e-05
0001d0 bd f3 19 ba 0e ec 1c 36 c9 0c ef b9 03 46 4e b9
       -0.00058728067 2.3383213e-06 -0.00045595158 -0.00019671772
0001e0 a9 80 4e 39 83 47 b0 38 df 39 f9 39 d0 7e 36 39
       0.0001969362 8.405654e-05 0.00047536098 0.00017404114
0001f0 b5 c1 05 3a 9e 6c a4 b9 c9 18 f9 39 41 ea 91 b8
       0.0005102412 -0.00031361444 0.00047511447 -6.957772e-05
000200 f1 bb 6e b8 72 e3 25 39 52 b9 81 38 3c ae 38 3a
       -5.6918656e-05 0.00015820356 6.185718e-05 0.0007045006
000210 be 30 b8 39 98 d0 12 3a 45 d2 81 ba 97 80 4b 38
       0.0003513153 0.0005600541 -0.0009904584 4.851873e-05
000220 86 4a be 36 1f 81 b9 38 ed ec b3 38 15 de b2 b8
       5.671117e-06 8.845538e-05 8.579516e-05 -8.5290674e-05
000230 66 41 a9 38 7a 10 31 39 1e 08 52 39 b9 5f 0f 39
       8.0707294e-05 0.00016886173 0.00020030185 0.00013673202
000240 a9 92 52 39 c7 50 e1 38 69 c6 c8 38 82 47 1f b9
       0.00020081796 0.00010743882 9.5737e-05 -0.0001519006
000250 c6 cc d2 38 0f 96 76 39 c6 88 cd b8 80 2f 16 b9
       0.00010051722 0.0002351629 -9.800638e-05 -0.0001432281
000260 de 21 80 b8 22 10 93 b9 93 44 25 3a 97 83 81 b7
       -6.109824e-05 -0.00028050045 0.0006304469 -1.5439275e-05
000270 b2 e2 c8 b4 f9 8b 4d 39 5a 4d ad b8 cc 95 17 ba
       -3.7417846e-07 0.00019602467 -8.263691e-05 -0.00057825143
000280 d1 4b e7 37 fc a2 53 b9 23 7a 9e 39 18 30 fe b8
       2.757265e-05 -0.00020183244 0.00030227107 -0.00012120622
000290 19 a4 3f 3a e1 40 24 39 d8 c9 e4 38 83 ff 50 b8
       0.0007310524 0.00015664428 0.000109094835 -4.982903e-05
0002a0 99 b8 e3 39 bb 21 b4 b9 bb e6 60 b8 57 8a 29 ba
       0.0004343435 -0.00034357407 -5.3620646e-05 -0.00064674526
0002b0 76 ba 0c b9 5c 3b e3 b9 af d7 db b9 b7 c2 3f 39
       -0.00013420903 -0.0004334104 -0.00041931632 0.00018287716
0002c0 c3 bf 76 39 01 1c 62 b9 41 be e2 39 b5 b8 dc b8
       0.00023531825 -0.00021563472 0.0004324783 -0.00010524822
0002d0 0c a7 b7 39 07 d3 db 39 49 80 fe 39 6d bc f4 39
       0.0003502894 0.00041928163 0.00048542235 0.00046679695
0002e0 e0 fe 42 ba 0b 42 84 37 48 dd 22 37 60 54 29 b9
       -0.0007438492 1.576638e-05 9.7074735e-06 -0.00016148528
0002f0 aa 63 db 38 0a b4 20 b8 e4 ca 00 b8 e1 a9 85 b9
       0.00010461298 -3.8314647e-05 -3.0706535e-05 -0.00025494306
000300 d8 74 61 b9 81 ea 01 b7 24 67 ac b9 c8 c9 99 b9
       -0.000215012 -7.743599e-06 -0.00032883242 -0.00029332773
000310 01 9e 47 38 26 78 19 39 b5 86 a6 b9 1b 42 3c 3a
       4.759245e-05 0.00014635976 -0.00031762352 0.00071814813
000320 95 c8 e3 b7 c4 ac 46 b8 98 06 84 b9 48 9b 10 39
       -2.7153912e-05 -4.736778e-05 -0.00025181915 0.00013790757
000330 51 ac 4e 39 28 1a c6 39 07 08 dc 39 52 f3 10 3a
       0.00019709884 0.0003778499 0.0004196765 0.00055294216
000340 4d 0b e4 39 ac b6 59 39 32 a7 ed b8 eb f8 09 3a
       0.0004349597 0.00020762783 -0.00011332183 0.0005263227
000350 6a 62 23 39 68 e5 57 39 c5 98 91 39 a1 a5 36 3a
       0.00015581553 0.00020589458 0.00027770377 0.00069674297
000360 ca fb 4b 39 27 e9 f6 b6 6f f5 2a 3a e0 77 71 ba
       0.00019453387 -7.358514e-06 0.0006521558 -0.0009211283
000370 d9 b0 8c b7 e2 cf 95 b9 7d 7f 3d 38 24 1f b0 b9
       -1.6771652e-05 -0.0002857438 4.5179844e-05 -0.00033592538
000380 67 86 84 b9 aa dc 86 b8 55 67 16 39 b2 a9 7c 38
       -0.0002527714 -6.43072e-05 0.00014343609 6.0239523e-05
000390 60 d1 85 39 b5 3c 14 ba 12 40 79 b8 7e b0 0a b9
       0.00025523733 -0.0005654798 -5.9425896e-05 -0.00013226454
0003a0 55 63 2a ba 6b d0 2e 39 d1 99 c9 38 6d 85 d0 38
       -0.0006499787 0.00016671575 9.6130774e-05 9.9430654e-05
0003b0 db a1 62 b8 ca 53 03 ba 74 f7 78 39 cf b4 90 b9
       -5.403334e-05 -0.0005009739 0.00023743307 -0.00027600533
0003c0 b0 f8 d5 b8 71 45 2e 3a 01 ba b3 39 59 c2 95 39
       -0.00010202953 0.0006647921 0.00034280124 0.00028564295
0003d0 48 a3 78 39 36 b0 94 b9 ec b8 b8 b9 0c e7 d8 39
       0.0002371195 -0.00028360047 -0.00035232992 0.00041370874
0003e0 0c 14 36 ba be 4a 94 3a b5 7b 86 39 df cf b3 b8
       -0.0006945736 0.0011313779 0.0002565064 -8.574104e-05
0003f0 f9 28 91 39 ab 04 f9 38 69 44 76 39 71 ac 60 b8
       0.00027687082 0.00011874115 0.00023485873 -5.356636e-05

exp_avg_sq f4 [128, 5]
000000 60 3b 8c 35 68 b3 9b 35 0f cc 58 35 ca 0a 8b 35
       1.0448093e-06 1.1600614e-06 8.0763215e-07 1.0359447e-06
000010 c2 ac 47 36 bd 28 92 35 c3 c0 d1 35 91 b2 64 35
       2.975387e-06 1.0889704e-06 1.5627814e-06 8.5196467e-07
000020 a9 39 a4 35 76 5c 85 36 cf a3 61 36 70 29 7b 36
       1.2235733e-06 3.9744727e-06 3.3622962e-06 3.7426034e-06
000030 91 3a 4b 36 3b 2e 6d 36 6c db 1e 37 ba ab ba 34
       3.0283447e-06 3.5342662e-06 9.468622e-06 3.4770147e-07
000040 bb a7 be 34 01 9c 88 34 51 9d a5 34 16 6c 49 35
       3.5512298e-07 2.5445482e-07 3.0848108e-07 7.503562e-07
000050 60 83 1c 35 06 08 f8 34 42 98 f1 34 10 2e f2 34
       5.8305704e-07 4.6199438e-07 4.500053e-07 4.5109527e-07
000060 6d 50 6f 35 0e 12 2c 36 8f eb 1b 36 b7 92 13 36
       8.9151473e-07 2.5640506e-06 2.3233913e-06 2.1990106e-06
000070 6f e3 10 36 66 82 b4 36 13 6c bc 35 f3 c5 fa 35
       2.1590056e-06 5.3795984e-06 1.4038545e-06 1.8684062e-06
000080 1b 96 a8 35 8e 95 e7 35 72 e3 a9 36 53 c9 6f 35
       1.2560662e-06 1.7254367e-06 5.0630706e-06 8.9327403e-07
000090 1b 84 a9 35 1d 4c 53 35 49 cb 83 35 07 ec 49 36
       1.2629929e-06 7.8714385e-07 9.819424e-07 3.008872e-06
0000a0 55 92 44 35 5f 68 22 35 bf 34 0a 35 9c 53 10 35
       7.322863e-07 6.050158e-07 5.148576e-07 5.376585e-07
0000b0 b6 7f 97 35 41 2d 6d 36 c8 1a 9c 36 15 52 49 36
       1.1287545e-06 3.5342093e-06 4.65228e-06 2.9999112e-06
0000c0 b3 00 7b 36 dc 14 3b 37 77 51 29 33 12 2a 35 33
       3.7402322e-06 1.1150925e-05 3.942247e-08 4.218061e-08
0000d0 24 7d 12 33 0f 27 25 33 fb 2e c2 33 00 15 6e 34
       3.410709e-08 3.845258e-08 9.042375e-08 2.2173117e-07
0000e0 75 a9 8e 34 f6 db 46 34 a2 c6 7b 34 37 3e 45 35
       2.6572857e-07 1.8520208e-07 2.3448459e-07 7.3478753e-07
0000f0 24 ed f8 32 a7 04 02 33 06 af be 32 8f 41 e8 32
       2.8978839e-08 3.0272215e-08 2.2198503e-08 2.7038167e-08
000100 ed dc 70 33 a9 21 b9 35 37 37 a7 35 b0 5e ab 35
       5.6080285e-08 1.379337e-06 1.2458539e-06 1.276805e-06
000110 ae da 9a 35 6d cd 4a 36 60 bf f4 33 9d 3e d4 33
       1.1537538e-06 3.021992e-06 1.1396946e-07 9.8834086e-08
000120 6e 35 d0 33 2b cf da 33 c7 56 80 34 b3 cb 2d 35
       9.6954736e-08 1.01891e-07 2.3904997e-07 6.4743944e-07
000130 bd 35 37 35 8a fb 1f 35 eb 32 30 35 77 57 84 35
       6.825101e-07 5.9598153e-07 6.5639205e-07 9.860222e-07
000140 dd fa 80 35 5b 8f a9 35 4c 43 5a 35 3d a0 9d 35
       9.609754e-07 1.2633203e-06 8.130926e-07 1.1744047e-06
000150 2e b8 74 36 8e 5a a5 35 7a 45 9b 35 50 68 89 35
       3.646604e-06 1.2319813e-06 1.156862e-06 1.0237654e-06
000160 f2 52 8b 35 83 e9 1c 36 95 e7 4e 35 09 91 6e 35
       1.0380447e-06 2.3381733e-06 7.7077976e-07 8.8872963e-07
000170 df 74 2f 35 01 7b 63 35 8a 47 2b 36 fc d1 06 36
       6.536265e-07 8.4743084e-07 2.5522627e-06 2.0089783e-06
000180 7e 1d 2c 36 03 ba ee 35 58 ec 23 36 3d ef c0 36
       2.5647164e-06 1.7786518e-06 2.4426463e-06 5.749897e-06
000190 a8 fd d0 33 17 34 00 34 67 52 a8 33 d7 e9 de 33
       9.7318946e-08 1.1939879e-07 7.8380985e-08 1.0380216e-07
0001a0 a2 b1 93 34 e1 87 e5 34 85 c9 b5 34 13 05 c6 34
       2.7510129e-07 4.275344e-07 3.3860502e-07 3.6884066e-07
0001b0 1c 0e a5 34 24 bd 46 35 4c 71 0c 35 2b 3c 29 35
       3.074391e-07 7.4035984e-07 5.231893e-07 6.304496e-07
0001c0 28 b6 fa 34 9c fe 1a 35 3f 12 bd 35 4f d9 69 35
       4.6698665e-07 5.7739976e-07 1.4086908e-06 8.711549e-07
0001d0 43 cf 56 35 f8 74 30 35 4f d5 41 35 d0 7a c3 35
       8.002282e-07 6.573532e-07 7.220851e-07 1.4564375e-06
0001e0 39 02 71 35 06 24 87 35 e9 e4 3b 35 0f 98 60 35
       8.978273e-07 1.0068768e-06 6.9996037e-07 8.3667777e-07
0001f0 5e 38 4d 36 2c 58 3d 35 48 97 60 35 86 19 3c 35
       3.058019e-06 7.0536294e-07 8.3666646e-07 7.00726e-07
000200 2d 9d 3a 35 4f 1a 06 36 09 49 02 36 96 f1 e7 35
       6.951912e-07 1.998287e-06 1.9414022e-06 1.7281152e-06
000210 3c 18 d3 35 43 63 c1 35 af 85 2c 36 e8 7b b9 34
       1.5727778e-06 1.440851e-06 2.5707811e-06 3.454909e-07
000220 0e fb d0 34 9c c2 9e 34 ba e5 ba 34 f4 02 3b 35
       3.8925685e-07 2.957139e-07 3.4812348e-07 6.9667226e-07
000230 51 99 c4 33 5e 3a 08 34 5b 73 a9 33 b8 fb e6 33
       9.154849e-08 1.2687221e-07 7.890659e-08 1.0755997e-07
000240 93 e4 84 34 0a c0 2a 34 73 1b 53 34 30 70 1a 34
       2.4753226e-07 1.5902347e-07 1.9660892e-07 1.4383181e-07
000250 9e 36 32 34 7b f9 ee 34 55 51 ef 34 8a f5 ec 34
       1.6597411e-07 4.4512475e-07 4.4576396e-07 4.413708e-07
000260 d2 5b c3 34 60 f5 d3 34 c2 31 83 35 51 11 4a 35
       3.6388388e-07 3.9480346e-07 9.774742e-07 7.527606e-07
000270 05 19 69 35 ff 26 22 35 4f f1 39 35 e0 17 9e 35
       8.683567e-07 6.040645e-07 6.926902e-07 1.1778866e-06
000280 30 cc 5d 35 41 4d af 35 31 e0 30 35 3c c1 81 35
       8.262605e-07 1.3061e-06 6.589135e-07 9.667488e-07
000290 6a 30 60 36 5b 20 b6 35 86 57 c6 35 77 e7 97 35
       3.3406782e-06 1.3569473e-06 1.4777622e-06 1.1317742e-06
0002a0 1f e3 b5 35 54 a0 77 36 94 08 9a 34 c2 20 bf 34
       1.3551652e-06 3.6899191e-06 2.8690977e-07 3.5600357e-07
0002b0 ca 2c 68 34 4f 7d a5 34 6a bd 52 35 7d 28 47 35
       2.1622978e-07 3.082482e-07 7.850673e-07 7.4192195e-07
0002c0 cd 9b 86 35 e6 fb 38 35 ad 70 80 35 fc a6 26 36
       1.0029122e-06 6.89119e-07 9.569536e-07 2.4833125e-06
0002d0 be dd a0 35 d0 65 73 35 7c dd 85 35 67 93 65 35
       1.1985464e-06 9.067271e-07 9.973733e-07 8.5523646e-07
0002e0 14 d8 ba 35 57 19 90 34 c9 b5 d2 34 a0 5c 75 34
       1.3920967e-06 2.6840527e-07 3.9247814e-07 2.28511e-07
0002f0 02 03 ab 34 38 51 85 35 f1 74 f6 34 c9 0f 4c 35
       3.185342e-07 9.93291e-07 4.5906157e-07 7.601889e-07
000300 68 da dd 34 ad c5 1d 35 ff 04 f2 35 c1 ad b9 35
       4.132337e-07 5.8774714e-07 1.8031859e-06 1.3834143e-06
000310 04 83 fc 35 99 e4 aa 35 b6 1f d2 35 ab 63 9c 36
       1.8813594e-06 1.2732518e-06 1.5655448e-06 4.660765e-06
000320 66 a9 e2 34 a8 11 06 35 76 53 ce 34 b1 39 18 35
       4.2219034e-07 4.9944583e-07 3.8431216e-07 5.6708365e-07
000330 c1 84 c0 35 b0 18 5b 35 54 ad 67 35 f3 b6 3a 35
       1.4343751e-06 8.161978e-07 8.630643e-07 6.9556626e-07
000340 7b 05 56 35 1a 18 e9 35 ca 97 ca 34 09 77 ff 34
       7.972919e-07 1.7366867e-06 3.7735873e-07 4.758406e-07
000350 55 da c6 34 b7 c1 c0 34 85 f5 9b 35 21 8e 7e 36
       3.703923e-07 3.5903733e-07 1.1619856e-06 3.793168e-06
000360 8b d4 9c 36 64 c9 6f 36 7a 55 84 36 ae 71 46 37
       4.6739056e-06 3.5731e-06 3.9438573e-06 1.1828188e-05
000370 9f 6e 40 34 de 2a 6c 34 b9 db 18 34 12 ad 64 34
       1.7921637e-07 2.1994808e-07 1.4236038e-07 2.1297117e-07
000380 44 f9 cf 34 b1 9a 88 35 6b 22 71 35 17 56 6b 35
       3.873812e-07 1.0177811e-06 8.982958e-07 8.76696e-07
000390 65 58 54 35 0e 5a c3 35 f8 c3 ea 35 f7 7f 1b 36
       7.9104785e-07 1.4554842e-06 1.7491393e-06 2.3171285e-06
0003a0 a6 49 c7 35 69 33 03 36 10 b7 bd 36 f0 03 d8 35
       1.484809e-06 1.9550446e-06 5.65395e-06 1.60944e-06
0003b0 11 58 25 36 f0 bf bf 35 64 77 fb 35 eb 65 cc 36
       2.4638177e-06 1.428647e-06 1.8735705e-06 6.0915386e-06
0003c0 ba 97 3a 35 da b9 6a 35 30 74 1f 35 82 1e 39 35
       6.951119e-07 8.744224e-07 5.940119e-07 6.8962265e-07
0003d0 b3 13 06 36 23 e6 39 36 d7 55 76 36 b8 6e 27 36
       1.9979022e-06 2.7701105e-06 3.6706822e-06 2.4949386e-06
0003e0 36 5b 65 36 db f3 2c 37 68 6b 66 35 a5 7c 76 35
       3.417675e-06 1.0308776e-05 8.5837974e-07 9.1823523e-07
0003f0 e3 db 37 35 58 47 64 35 bc dd 27 36 1a a8 11 34
       6.849279e-07 8.504044e-07 2.5014006e-06 1.3565332e-07

exp_avg f4 [128]
000000 e7 20 9c ba 8b 40 8f 38 40 ee bd ba 59 18 f4 b8
       -0.0011911661 6.8307934e-05 -0.001449056 -0.00011639362
000010 14 8c 91 39 2b f7 c5 ba 41 3f 4e ba fa f5 c0 b9
       0.00027760922 -0.0015103569 -0.0007867702 -0.0003680436
000020 87 10 34 37 5f 1b 29 ba 5c 9c 7a b9 47 48 fb b9
       1.0732684e-05 -0.0006450917 -0.00023900106 -0.00047928302
000030 06 8c 11 b9 25 53 5f 3a 2c 71 1c 38 37 dd 10 b9
       -0.0001388044 0.00085191644 3.7298698e-05 -0.00013815319
000040 ea df 63 ba 3a 19 13 3a d8 47 97 39 59 8b a3 ba
       -0.00086927286 0.0005611364 0.00028854492 -0.0012477442
000050 54 31 99 b9 2c 69 11 ba ff 3f ee b9 d4 86 2b 39
       -0.00029219186 -0.0005546983 -0.00045442578 0.00016358058
000060 4b d4 8c 38 10 5b 7e ba 24 96 10 3a 29 7e fe b8
       6.715263e-05 -0.00097029004 0.0005515537 -0.00012135163
000070 fb 14 31 39 c4 2e e1 b9 2e 48 4a ba bd 90 af 39
       0.00016887851 -0.00042950187 -0.0007716444 0.0003348644
000080 21 58 85 b9 39 ba 1c 3a b7 f6 ef b8 a0 0e c7 37
       -0.00025433398 0.0005978677 -0.00011442362 2.3729459e-05
000090 0f ca 5c 3a 92 16 59 38 20 a1 70 39 6f 37 67 ba
       0.0008422443 5.1757852e-05 0.00022948207 -0.0008820211
0000a0 9d a4 3b b9 07 75 68 3a 74 b8 87 b9 00 f5 86 3a
       -0.00017895033 0.0008867536 -0.00025886635 0.0010296404
0000b0 f8 b4 55 38 a5 cd 00 3a 3c 66 fd b9 b5 6a 97 38
       5.0951698e-05 0.0004913456 -0.0004833209 7.220117e-05
0000c0 d4 c0 00 ba 49 eb ad ba 7e bd da 39 05 35 89 b9
       -0.0004911546 -0.0013268973 0.00041721383 -0.0002617018
0000d0 f7 91 31 b9 f0 b0 34 b8 da be b3 b9 b5 0b e6 38
       -0.00016934412 -4.308013e-05 -0.00034283736 0.00010969435
0000e0 cc e3 3c 39 b4 05 38 39 77 df a9 39 b0 30 c9 b9
       0.00018013938 0.00017549732 0.00032400686 -0.00038373983
0000f0 0e c0 ee 38 72 fd 13 3a 16 37 c3 ba e6 61 b3 ba
       0.00011384497 0.0005645371 -0.0014893736 -0.0013685792
000100 c5 41 4d ba 22 35 a9 b8 f1 ba 9f b9 47 e6 aa b9
       -0.000782993 -8.068445e-05 -0.00030466125 -0.00032596497
000110 c6 50 83 39 03 92 fc b8 e1 63 f2 39 0a ea 2a 3a
       0.00025046448 -0.00012043493 0.00046232252 0.000651986
000120 31 e9 d6 b9 11 a9 41 39 15 59 11 3a df f0 04 b9
       -0.00040991002 0.00018468896 0.00055445853 -0.00012678232
000130 b5 95 b7 36 da fc 75 36 06 59 2a ba 79 a6 8b 37
       5.471253e-06 3.6655024e-06 -0.0006498251 1.6647611e-05
000140 ae 85 b5 39 3e b2 cf 38 f5 e6 b8 b8 6d 93 d5 b9
       0.0003462261 9.9037294e-05 -8.816823e-05 -0.00040736367
000150 0c 55 e3 b9 ff 99 74 39 d2 fd d3 b9 4a b7 7c 39
       -0.0004336018 0.00023327021 -0.00040434167 0.00024100873
000160 87 92 e6 b9 88 45 b4 b9 f5 22 e8 37 2c bf 82 39
       -0.0004397819 -0.0003438408 2.7672833e-05 0.00024937966
000170 5f 67 85 ba d4 f6 86 b8 64 90 21 b9 e2 44 11 3a
       -0.0010177902 -6.435593e-05 -0.00015407946 0.00055415754
000180 20 46 a1 39 2b a0 93 ba d4 c2 71 37 bd 37 81 b9
       0.0003076056 -0.0011262944 1.4410081e-05 -0.00024646326
000190 e0 a2 82 39 af 7c ad 39 44 02 40 39 42 25 50 3a
       0.00024916884 0.00033090028 0.00018311391 0.0007940122
0001a0 21 b4 85 b9 a0 b2 d3 b9 c8 80 16 39 7d ab 18 39
       -0.00025501943 -0.00040378142 0.0001435309 0.00014559734
0001b0 8d 21 4d b9 91 7f 92 39 2d 8f 3c 39 44 a4 0e 3a
       -0.00019562822 0.00027942334 0.00017982414 0.00054413476
0001c0 94 46 06 ba 6c 4a 67 ba 2e 83 83 ba 4b 36 46 ba
       -0.00051222113 -0.00088230404 -0.0010033601 -0.0007561191
0001d0 88 f3 92 38 bb f7 6d b9 c8 35 60 b7 0b 35 10 3a
       7.007184e-05 -0.00022694368 -1.3363962e-05 0.0005501068
0001e0 f9 70 34 ba 85 77 75 38 4b 6f d5 37 0e 76 40 3a
       -0.00068832893 5.8523863e-05 2.5443404e-05 0.000734181
0001f0 48 66 28 38 c4 3a ca b9 dd 67 a5 b8 a6 43 a8 39
       4.0149578e-05 -0.00038572226 -7.887159e-05 0.0003209386
