results/many1/Romba/Romba-500015.onnx (onnx, 76119 bytes, 6 tensors)

network_body._body_endoder.seq_layers.0.weight f4 [128, 5]
000000 31 c6 a3 be c4 4f 2d be 6f ce 2f 3f 45 5e e7 3e
       -0.31987146 -0.1692496 0.6867437 0.4518911
000010 1c 72 aa 3d a9 91 c0 3d 23 50 33 3e d1 dd 71 be
       0.08322546 0.094027825 0.17511038 -0.23619772
000020 15 e0 e0 3d dd 91 58 bf 96 84 54 be 0d 10 5f 3f
       0.1098024 -0.8459757 -0.20753703 0.87133867
000030 e8 57 73 be ed 24 53 bf 1a 8d 86 3f da 2c e1 bd
       -0.23764002 -0.8247822 1.0511811 -0.10994883
000040 d6 f0 0f 3f a4 6b 68 be e7 bf ac 3e a6 85 38 bd
       0.5622686 -0.22697312 0.3374016 -0.045049332
000050 05 f8 f7 3c 85 b8 59 3e 74 57 cf 3d f3 04 c1 3e
       0.030269632 0.21261795 0.10124102 0.37699088
000060 40 00 01 3f 24 5b 0a 3f 20 38 cd 3d c5 16 46 3d
       0.50391006 0.5404532 0.100204706 0.04836156
000070 0f 0d 83 be 92 2b 08 bf 27 8e 5f be c2 85 f2 3e
       -0.255959 -0.53191483 -0.2183157 0.47367674
000080 7b 98 3c 3e 1a 54 2c 3e 7c c2 0b 3f 09 28 3a 3e
       0.18417542 0.16828957 0.54593635 0.18179335
000090 92 a7 06 3e ba 46 94 3b d2 75 7c 3d 7a 77 31 3f
       0.1314986 0.004525033 0.0616358 0.6932293
0000a0 14 a9 ed 3e c3 1b 01 be 8c 7b 45 bf 87 8d bc be
       0.4641806 -0.12608247 -0.7714164 -0.36826727
0000b0 d9 7f a1 3d 51 e8 89 bf 41 cb c9 3e a9 61 57 3e
       0.07885713 -1.0774022 0.39412883 0.21033348
0000c0 d2 17 72 3e f0 27 64 3e 4f 96 70 3d 9a 0c f4 be
       0.23641899 0.2228086 0.058737095 -0.47665864
0000d0 2a 69 28 bd 75 6b 22 3e 47 82 5b 3f 72 26 0d 3f
       -0.041115917 0.15861304 0.8574566 0.5513679
0000e0 f8 24 7b 3e 77 bd a7 be 2b 4a 45 3d f8 7e 30 be
       0.24525821 -0.32761738 0.048166435 -0.17235935
0000f0 40 b3 28 bf 59 78 54 be 20 a8 9e 3e d9 7b bc 3d
       -0.65898514 -0.20749034 0.30987644 0.092033096
000100 56 ed 40 3c 4e 27 b9 3e d8 7d b2 3d 4d 09 15 bf
       0.011775335 0.361628 0.08715409 -0.58217317
000110 1e df 4e bf 93 25 87 3f b9 24 96 3e 4e 64 1d 3f
       -0.808092 1.0558342 0.29324892 0.6148118
000120 54 bc 31 bd 6a 0b 17 bd 23 36 20 bf b1 a4 1e 3f
       -0.043392494 -0.03687612 -0.62582606 0.6197005
000130 c3 7e 0f bf 80 1e 8a 3b 0e a4 01 3f 0f c4 ac 3e
       -0.560528 0.0042150617 0.5064095 0.3374333
000140 3c 60 34 bf f5 28 aa bb bb 1c 2a 3f 1d da c7 bd
       -0.7045934 -0.0051928707 0.6645009 -0.09758399
000150 64 66 62 3f 3c ab a4 3e e8 a3 aa 3c 57 4e 26 be
       0.88437486 0.3216189 0.02083011 -0.16240822
000160 65 a3 95 be 64 4b 0a 3e 15 33 88 be 2d 3f b8 3d
       -0.29226223 0.13505322 -0.26601472 0.08996425
000170 69 e6 b4 3e b5 27 04 bf 4b 04 73 bf 06 6f a8 be
       0.3533204 -0.5162309 -0.94928426 -0.32897204
000180 dd bf 36 3f 8b 45 5b 3f a5 58 19 bf d9 60 17 bf
       0.7138651 0.8565299 -0.59900886 -0.5913215
000190 08 ad 11 bf c2 65 95 be 53 a0 ed 3b 03 e4 40 3e
       -0.5690465 -0.29179198 0.007251778 0.1883698
0001a0 e3 4d fb 3e e4 78 92 be 53 19 e8 be ae 3b 22 3f
       0.4908286 -0.28607857 -0.4533182 0.63372314
0001b0 3c 7e 53 bc 46 85 73 3e 25 ed 12 3d fd 38 d7 be
       -0.012908515 0.23781309 0.03587069 -0.42035666
0001c0 f7 e8 c7 be 62 77 4a be 80 34 f1 be 9f d1 14 bf
       -0.39044926 -0.19772103 -0.47110367 -0.58132356
0001d0 5c 7f 82 3f 2e 31 72 bf 33 8f a6 be d8 ec a1 3c
       1.0195117 -0.9460629 -0.32531127 0.019766256
0001e0 74 6d 86 3e a4 c7 d1 3d d1 a3 ac 3e a3 3f 76 3e
       0.2625538 0.102431566 0.33718732 0.24047713
0001f0 a7 5b eb 3c ef 43 c6 be 1c 43 49 3f ed 76 ad 3e
       0.028730227 -0.38723704 0.78618026 0.33879796
000200 c3 8c 14 be 6d d5 26 3e ac 93 d0 be 42 38 1c be
       -0.14506821 0.16292353 -0.40737665 -0.15255836
000210 fc ee 98 3c 3b db 00 3e c2 72 d3 3e 22 c7 85 3e
       0.018668644 0.1258363 0.4129849 0.2612849
000220 4e 58 87 be 67 89 23 3f 54 8a f2 3e 51 6e 0e bf
       -0.2643456 0.63881534 0.4737116 -0.5563708
000230 b2 f2 62 be ff a0 0f be f3 af 45 3f 1d f2 ad bd
       -0.22162893 -0.14026259 0.772216 -0.08493445
000240 09 31 4b 3e 2e 1a 79 be 37 8f c1 be 3b 95 29 be
       0.19842924 -0.24326393 -0.37804577 -0.16560833
000250 9c 19 6b bd 1d fa ce 3e 00 5b a7 be 18 90 6a be
       -0.05739747 0.40425196 -0.32686615 -0.2290653
000260 14 0d de 3e 27 3b 1d be 4a a7 a2 be 2f 47 4b be
       0.43369353 -0.15354596 -0.31768256 -0.19851373
000270 5f c1 5b 3d 45 3f 73 3e dc 20 12 bf 75 d2 48 3e
       0.05365121 0.23754604 -0.5708139 0.19611533
000280 12 c3 2f 3e 8f 55 86 3e ab ea a4 3f 0e 55 68 3e
       0.17164257 0.2623715 1.2884115 0.22688696
000290 88 5e e2 be 85 94 81 be 04 ec c7 3e b7 23 8b 3f
       -0.44212747 -0.25308624 0.39047253 1.0870274
0002a0 47 00 99 bf d1 e0 38 3d 6f 95 a8 3d 6c 6d a7 3e
       -1.195321 0.045136277 0.08231627 0.3270067
0002b0 2f 7d 65 bf 6a 44 7c be a0 0f a6 3e 3e 0e 55 3f
       -0.8964414 -0.24635473 0.32433796 0.83224857
0002c0 09 d3 00 bf 09 6f 5e bf b1 c8 a5 be fa da d3 bd
       -0.50322014 -0.86888176 -0.32379678 -0.10344501
0002d0 dd 76 82 bd 22 7a 33 3f 29 65 ef 3e c3 4b 45 bf
       -0.063703276 0.70108235 0.46756867 -0.7706873
0002e0 a3 1b 83 3f b7 43 e4 3e 29 89 6f 3f 3e 4b d9 3c
       1.0242809 0.44582912 0.93568665 0.026525136
0002f0 c4 aa c0 bd 97 21 a8 3e 66 9b 4b be 0a 25 10 3f
       -0.09407571 0.32838127 -0.19883499 0.5630652
000300 29 a3 9d 3e 4a f9 51 3e 9f 87 e4 3e 80 c6 f2 3d
       0.30788544 0.20505252 0.4463472 0.11854267
000310 e2 10 ba be 01 fd 0a bf cb df d1 3e de 96 d6 bd
       -0.36341006 -0.54292303 0.40991053 -0.104779944
000320 13 f1 82 3e bf b4 fb 3e bd cb ea 3e a3 a0 08 3f
       0.2557455 0.49161336 0.45858565 0.5337011
000330 f5 4d 9c 3e d2 6c b6 be 6e 28 28 be 3b 6b 39 3f
       0.30528226 -0.35629898 -0.16421673 0.72429246
000340 7d 81 2c 3f eb 5a b7 be bd 63 dd 3c 23 f0 9a be
       0.67385083 -0.35811552 0.027025098 -0.30261335
000350 13 21 3d bf 43 f7 fb be 6e 7a de be a3 75 8d bd
       -0.7387859 -0.49212083 -0.4345278 -0.06907203
000360 20 2b f6 be 5f 4f 1c be 2c e3 03 3f 20 1e ff be
       -0.48079777 -0.15264653 0.5151851 -0.4982767
000370 54 a5 47 bf cc 8a 43 be f3 c6 f4 bd d3 5e af bc
       -0.77986646 -0.19095916 -0.11952009 -0.02140752
000380 55 84 26 bf 0d b7 7c be 15 aa 0c 3f 0d ea df 3e
       -0.6504567 -0.24679203 0.54947025 0.43733254
000390 2f a5 a1 3e 29 18 74 3e f9 2f 01 bf 94 f2 22 3f
       0.31571338 0.23837341 -0.50463825 0.63651395
0003a0 99 fa 59 3e d4 e2 38 bf 86 ed e4 be a9 c9 a6 3e
       0.21287002 -0.7222111 -0.44712466 0.3257573
0003b0 a1 f3 31 be 9b c5 68 3e ab 07 c4 be 3e 03 a3 be
       -0.17378093 0.2273163 -0.382871 -0.3183841
0003c0 4c 27 e0 3e 30 34 03 3f 74 89 81 3f 30 64 07 3f
       0.4377998 0.51251507 1.0120072 0.5288725
0003d0 3e 25 51 bf e5 da e6 be 13 af 17 3f f1 97 d8 3e
       -0.8169745 -0.45088878 0.5925152 0.42303422
0003e0 5c 8c 5e 3f 83 de 74 3e c3 66 a5 be 99 62 be 3d
       0.8693292 0.23913006 -0.32304963 0.0929615
0003f0 22 64 c0 bd 81 5e 6f 3c ac f3 45 3e ad 08 3c bb
       -0.09394099 0.014609934 0.19331235 -0.0028691695

network_body._body_endoder.seq_layers.0.bias f4 [128]
000000 a1 86 16 bd 81 02 09 3b ae 44 0a 3d 52 53 30 bd
       -0.036749486 0.0020906033 0.033756904 -0.04304821
000010 a0 f0 47 bc 27 41 9e 3c 8c d5 e2 3c ab 14 a1 3b
       -0.012203366 0.019318176 0.027689718 0.004915794
000020 e5 7a 51 3d 1c 89 2f bd b8 b9 62 bc 01 4d c6 bc
       0.051142592 -0.042855367 -0.013838224 -0.02420664
000030 87 03 12 bd 1c c2 18 3d 1a 12 97 bc 0c da bd 3b
       -0.035647895 0.037294492 -0.018441249 0.0057938155
000040 40 a4 fd 3b 91 75 6a 3d ec 21 d9 3c da 74 20 3d
       0.0077405274 0.057241026 0.026505433 0.03917394
000050 71 6c 5c bc 0c 98 d3 3c 56 7e 0b bd d1 d8 d6 3c
       -0.013453589 0.025829338 -0.03405603 0.026226433
000060 4d be 9a ba 1a 93 d3 3c 2e dd 64 3c ec 32 20 3c
       -0.0011805982 0.02582698 0.013968749 0.009777766
000070 43 b0 e6 3c 1f 70 d3 3c 1e 26 ec ba 6a 86 b8 bc
       0.02816022 0.0258103 -0.0018016731 -0.022525031
000080 70 43 15 3d ad 45 1a bd ce bd df 3c 1a 9a 39 3d
       0.036441267 -0.037664104 0.027312186 0.04531298
000090 df d9 c3 3b 29 53 e0 bb c9 a1 b4 3c e4 e6 4d bc
       0.0059769 -0.006845851 0.022049801 -0.012567256
0000a0 57 ed 3a bc 28 f3 d0 3c bd b0 9e 3b 8e f6 d0 3a
       -0.011409125 0.025506571 0.004842846 0.001594262
0000b0 fe d7 02 bd 4d 8c 02 bd 90 55 2b bd 41 dc 39 3d
       -0.031944267 -0.031872083 -0.041829646 0.045376066
0000c0 fa a6 f7 3c df a1 61 bb 44 64 df 3c 61 59 be 3c
       0.030230988 -0.0034428758 0.02726949 0.023235979
0000d0 68 80 0a 3c c8 7a 62 bd 4d 9c c5 3b be 6b 5c 3c
       0.008453466 -0.055292875 0.0060305954 0.013453422
0000e0 ff 6b 6b bb de 1f 08 3d 4d 6f e6 3c 24 43 9f 3c
       -0.0035922525 0.033233516 0.028129244 0.019441195
0000f0 71 05 12 3c e2 15 0e 3d 4c a2 cb 3c f4 b0 fb 3c
       0.00891243 0.034688838 0.024857663 0.030724026
000100 1f a7 47 3b 2b aa e0 3c 76 d3 89 3c 7e 5f 11 bd
       0.0030464602 0.027424892 0.016824465 -0.03549146
000110 cb d1 08 bd 72 d6 3a 3d 47 c8 15 bd 5c ed 7e 3b
       -0.0334032 0.045614667 -0.036567952 0.0038898801
000120 25 29 55 3d 69 a7 b8 3a cd 82 1a 3d ae 4c b8 3c
       0.05204119 0.0014087978 0.037722398 0.022497501
000130 5c 0c 87 bc 40 8b 57 3c 80 05 0b 3b 9f 42 00 3d
       -0.016485386 0.013155758 0.0021212995 0.031313535
000140 73 be 1b 3c bf 63 08 ba 25 3d ab bb 2a a0 ae 3b
       0.009505856 -0.00052028516 -0.005225795 0.0053291516
000150 af 2f 4c 3c 30 00 d7 3c 5d b1 a6 3c 24 d7 b1 3c
       0.0124625405 0.026245207 0.020348245 0.021709032
000160 de 50 9b 3c 50 da 89 3c a4 d2 45 3c 94 e1 ec 3c
       0.018959459 0.016827732 0.012074146 0.028916158
000170 60 9c 8b 3d 7d 60 61 3c 85 cb aa 3c 9c 65 8e bb
       0.068169355 0.013755915 0.020848999 -0.004345609
000180 e5 90 8e 3c bf 20 f2 ba 12 60 26 3d d3 22 0e 3c
       0.017403075 -0.0018472894 0.040618964 0.008675295
000190 91 7b 81 3d 8d 39 19 bd 7f 7f 94 3c 8e 07 af bc
       0.063223965 -0.0374084 0.018127201 -0.021365907
0001a0 3a b4 86 bc c8 57 a9 bc 7e fa 49 bd 66 e9 b7 3b
       -0.01644336 -0.02067174 -0.049311154 0.00561254
0001b0 d5 2d 26 3d 11 d8 2a 3c 31 66 c4 bd 99 fd d9 3c
       0.040571053 0.010427491 -0.09589804 0.026610183
0001c0 e0 27 1c 3c e7 e4 35 3d 09 81 98 3c c4 05 1d 3c
       0.009530991 0.04440775 0.018616216 0.009583894
0001d0 9f 09 62 3a e0 0f 1a 3d 14 f1 50 3d b7 6c d4 3c
       0.00086226495 0.037612796 0.05101116 0.025930746
0001e0 24 d5 fe 3b 8c a8 0d 3c 33 8c d2 bb cb 08 59 3c
       0.007776873 0.008646142 -0.0064254045 0.013246725
0001f0 e5 6a 34 3a 12 b5 e2 39 64 b0 e0 bc 76 07 45 3c
       0.00068823836 0.00043240987 -0.02742786 0.012025705

network_body._body_endoder.seq_layers.2.weight f4 [128, 128]
000000 a5 5c 16 3d 20 23 f1 bb aa 8a 3a 3d 4f 6c f9 bd
       0.036709446 -0.0073589236 0.045542397 -0.12178861
000010 54 d3 ea 3c b1 c2 03 be 38 0b a3 bc a3 8e e5 3b
       0.028665222 -0.12867238 -0.01990281 0.007005529
000020 34 b8 57 3e c3 71 11 3d 8a 78 25 3d 1b 93 e6 3d
       0.21066362 0.035508882 0.040398158 0.11258527
000030 e7 f9 c0 bc d1 90 0d be 0c 9b b6 3d bf 8b 2a bd
       -0.023556663 -0.13824774 0.089162916 -0.04163718
000040 bc 06 1a 3d 30 a6 bc bc 09 63 08 3d 96 08 2d bc
       0.03760408 -0.023028463 0.033297572 -0.010561129
000050 52 aa 58 3d 30 bd f8 bc 26 48 bb 3d ad 27 b0 3d
       0.052896805 -0.03036365 0.091446206 0.086013176
000060 6e 57 d1 3d 59 5b a3 bc e2 b1 fe bc 50 a2 d0 bd
       0.10221754 -0.019941019 -0.03109068 -0.10187209
000070 94 3b 70 bd 50 e2 da 3c c0 42 d9 bc 73 84 31 3d
       -0.058650568 0.026719242 -0.026521087 0.043339204
000080 9d e3 14 be 99 a3 8f bd 3e dc f5 bc d0 96 50 bd
       -0.14539953 -0.07013626 -0.030012246 -0.050925076
000090 a5 5b 14 3e 90 49 0a be 1c fd 27 3c e3 9a 15 3e
       0.14488085 -0.13504624 0.010253217 0.14609866
0000a0 50 53 dd bd 54 ae dc bd 40 a7 b2 3b 15 72 0c 3d
       -0.10806906 -0.10775438 0.0054520667 0.034288485
0000b0 95 ef da 3d dd 38 82 bd 6c 52 13 3e d1 81 21 be
       0.10690228 -0.06358502 0.1438691 -0.15772177
0000c0 fd b5 01 3b 06 42 0b bc 49 3c d3 bc 8f 72 c6 3d
       0.0019792311 -0.008499628 -0.025785582 0.09689819
0000d0 69 3a 8f 3c 5a 67 ca bc 27 11 ce bb 89 e5 f2 ba
       0.017483907 -0.024707485 -0.006288666 -0.0018531542
0000e0 5c 4b fe bd 7d ca 59 bc 3e 63 dc 3d f7 19 ae bc
       -0.124167174 -0.013292906 0.107611164 -0.021252615
0000f0 79 e5 c3 3c 7f ff d4 3c 70 f0 6c 3d 60 2c c1 bc
       0.023913132 0.026000736 0.057846487 -0.02358073
000100 06 75 9d bd 80 7b eb 3d a0 c0 f4 bd eb 02 d0 3c
       -0.07688336 0.11498165 -0.11950803 0.025392016
000110 39 e2 c2 bc 8a 87 4c bc a3 9c 67 bd 60 58 0e 3d
       -0.023789512 -0.012483487 -0.056545865 0.03475225
000120 83 1e c9 bd 29 a9 14 bd 39 40 32 3e 1b 7f 35 bd
       -0.09820273 -0.036294136 0.17407311 -0.04431067
000130 fc 28 9b bd 0c 6b 02 be 7a 8b 30 be c5 f6 55 bc
       -0.075761765 -0.12736148 -0.17240706 -0.013059323
000140 c0 3a f5 bc b4 e5 f9 bc 78 63 1e bb d1 f5 91 bd
       -0.02993524 -0.030505039 -0.0024168175 -0.07126964
000150 54 eb 8d 3d 98 6e 1f 3c 68 1e 56 bd 95 a3 d0 bc
       0.06929651 0.009730957 -0.05227509 -0.025468627
000160 3a d4 11 3d 9a 7b 75 3d 6e e9 18 be b8 44 21 bd
       0.035602786 0.05993233 -0.14932796 -0.039372176
000170 44 a7 47 be 90 ba 8f bd 60 8b 09 bc 7f d2 0c 3d
       -0.194974 -0.07018006 -0.008395046 0.034380432
000180 37 f6 b6 3d 12 5b 83 3d 08 d7 cc bd 59 29 c5 bc
       0.089336805 0.06413855 -0.100019515 -0.024067568
000190 73 f6 ea bd 31 1c ba bd ec 4a 28 3e 51 3b d5 3b
       -0.11472788 -0.09087408 0.1643483 0.006507315
0001a0 1e f9 91 bd b9 88 2d 3e b5 3d 8c 3d 5c 5d 17 3c
       -0.071275935 0.16946687 0.06847707 0.009238567
0001b0 a5 05 d2 bc c8 e9 a2 bd 00 97 46 bd db 6b 95 3d
       -0.025637457 -0.079547465 -0.04848385 0.072959624
0001c0 f2 9b 19 3d 0e 2c a8 3d 8d 82 91 3d f1 35 ba bd
       0.037502237 0.08211528 0.07104979 -0.0909232
0001d0 70 70 8c 3d 9f 0a 2e 3e b6 83 07 3d 54 58 92 bd
       0.06857383 0.16996239 0.033084594 -0.071457535
0001e0 fd ae c5 3c 29 27 c8 bd d8 6d 74 bb 9d b1 6f 3d
       0.024131292 -0.09773094 -0.0037296917 0.058518995
0001f0 5c e5 2f bd 8a fb 1c 3d 44 cb ad 3d e7 81 ef bd
       -0.042943344 0.038325824 0.084860355 -0.11694699
000200 05 fc 9c bd cf 8f 98 3c a5 ab 7f bd b8 ba 8d 3d
       -0.076652564 0.01862326 -0.062419552 0.069203794
000210 3d 37 44 39 84 9f 17 3e 5c ec 15 be 20 a4 02 be
       0.00018712594 0.14806944 -0.14640945 -0.12757921
000220 d3 78 de bd 0b d8 e1 bd 85 70 c7 bc 87 fb 67 3d
       -0.10862889 -0.11027535 -0.024345646 0.05663636
000230 1f 49 7e 3d 6a 3b 9c bd c9 30 9d bd 12 54 92 bc
       0.062081452 -0.0762852 -0.07675321 -0.017862353
000240 84 99 49 3d f4 38 a9 bc 77 7e e6 3c 24 22 b4 3d
       0.04921867 -0.02065704 0.028136475 0.08795574
000250 91 ab 7f bd 25 c9 07 be c4 39 28 3e ef a0 b3 3d
       -0.062419478 -0.13260324 0.16428286 0.0877093
000260 ff 4a 70 bc 0c 07 89 be b5 0a d9 bd e5 87 83 3d
       -0.014666318 -0.2676319 -0.10597745 0.06422404
000270 7d 8a fa bc a4 00 b0 bd 44 da ea 3d cc e0 e1 bd
       -0.030583614 -0.08593872 0.11467412 -0.11029205
000280 81 5f c2 bd 54 7a ba 3d b6 22 c8 bd ef 70 91 3d
       -0.09490872 0.091053635 -0.097722456 0.071016185
000290 f2 29 c1 bd 30 58 16 be d7 4d 95 bb 7b c4 e0 3c
       -0.094318286 -0.14682078 -0.0045563984 0.02743744
0002a0 02 cc d1 3d 3c fa f2 3d ad d3 ac bc fa cd 97 bd
       0.102439895 0.11864135 -0.021097029 -0.07412334
0002b0 17 ee c1 3d ec 5a 49 be 8a d8 a2 bd b0 5e 03 3e
       0.0946924 -0.1966359 -0.07951458 0.12829089
0002c0 9d b9 a2 3c 99 81 20 3c e2 6e da bd e2 ac 29 3d
       0.019863898 0.0097965235 -0.106656805 0.04142464
0002d0 47 bf 9a bd 27 89 b8 3d c7 e4 cf 3d 3b d0 5e bc
       -0.075560145 0.09010535 0.10151058 -0.013599451
0002e0 90 93 aa 3c 30 9e 8e 3d 54 a6 fb bd dd 55 aa bb
       0.020822316 0.069637656 -0.12287584 -0.005198224
0002f0 fe bf 16 bd 53 34 9a 3c 59 d9 d9 3d 7b fc cb bd
       -0.03680419 0.018823778 0.10637159 -0.09960266
000300 19 c2 dd bd 59 3b b2 3d aa 6e 01 3d 50 19 02 3e
       -0.10828037 0.08702726 0.031599678 0.12704968
000310 d1 be f8 3c 3e 1b 5d 3e db ca f2 bb 40 d7 08 3e
       0.030364426 0.21592423 -0.007409436 0.13363361
000320 81 00 22 3c a6 09 8e bc 44 18 41 3e 40 d8 cf bc
       0.009887815 -0.017338585 0.18856913 -0.02537167
000330 24 62 f3 3d 6f 53 b2 bc 44 75 19 3e 96 c4 66 3e
       0.11883953 -0.0217683 0.1498614 0.22535929
000340 1c 80 21 3d f7 dc ea bd 1f 74 e6 3c 83 4e e4 3a
       0.039428815 -0.11467927 0.028131543 0.0017418418
000350 d5 42 e7 bd 42 04 99 3d 3a fc 4b bd 94 65 45 3e
       -0.11292044 0.07471515 -0.04980109 0.1927703
000360 f0 91 a4 bd fd ce 75 3e 19 89 85 3d 4f 2f 9e 3d
       -0.08035648 0.24004741 0.0652029 0.07723867
000370 71 8d 7a 3d 08 ec ab 3d 00 b1 17 3c b4 66 c6 bd
       0.061170045 0.08394629 0.009258509 -0.09687558
000380 eb 00 ed 3c 95 6e 0a be 41 1f 4c 3d 7f d8 f0 3d
       0.028931102 -0.13518746 0.049834494 0.11760043
000390 fe cc a1 bc dd 9f 92 bd 51 63 7f bd 0c b0 3c bd
       -0.019751068 -0.07159398 -0.062350575 -0.04606633
0003a0 7c a7 36 be 6b 52 19 3c 2a 11 38 bd 14 1b b5 bc
       -0.17837328 0.009358029 -0.044938244 -0.022107638
0003b0 17 d3 d9 bd 1a 72 ce 3d d1 ec 83 bd 92 96 b6 bd
       -0.10635965 0.10080357 -0.064416535 -0.08915438
0003c0 8b a5 b7 3d 76 5e 80 be e3 62 88 bd a6 5b 1a 3d
       0.08967122 -0.25072068 -0.06659486 0.03768506
0003d0 76 14 04 bd 3f ff cd 3d ce 46 19 3d a3 0b 1b bd
       -0.032246076 0.1005845 0.03742104 -0.037852895
0003e0 b8 1d 6f bd 98 0a 0f 3d b9 46 0d be c5 cd 86 bd
       -0.05837795 0.034922212 -0.1379651 -0.06582216
0003f0 14 bc c6 bd 40 af b6 3d ec 88 c9 bd 25 51 cd bd
       -0.09703842 0.08920145 -0.09840569 -0.10025243

network_body._body_endoder.seq_layers.2.bias f4 [128]
000000 bd 4e fb 3b d5 11 d0 3c 0e 6b 34 bd 9c 37 8a 3d
       0.0076692984 0.025399128 -0.044047408 0.06748888
000010 2f 94 14 bd 10 82 60 bd 1d 2d 76 3d 5f 7d a8 ba
       -0.03627413 -0.054811537 0.060101617 -0.0012854746
000020 d3 01 d8 3c 73 e6 33 bd 88 1f f5 3c 4b ba 79 3c
       0.026368057 -0.043920945 0.029922262 0.01524217
000030 60 01 d3 3c 01 16 03 bd 4b df ea 3c 6a d6 29 3b
       0.025757492 -0.032003406 0.028670928 0.0025915154
000040 c0 f4 f4 3b 61 cb b0 3d 7d 36 8f 3c c1 79 0d bc
       0.0074754655 0.086325414 0.017482037 -0.008634985
000050 a7 4c 9a 3c ca 32 22 3c a6 e2 c5 3c 0b 35 52 3c
       0.018835379 0.009899804 0.024155926 0.012830029
000060 b7 5f 03 3d 11 b2 25 3c 82 a7 49 bc 46 24 55 ba
       0.032073703 0.010113255 -0.012308003 -0.00081307103
000070 67 b4 79 3c 51 7e 3e 3c b4 60 3c 3d 6d aa 2c 3b
       0.015240765 0.011626796 0.04599066 0.00263467
000080 44 17 f0 bb a6 27 dc 3c 71 bc bc bb ff ca 2c 3c
       -0.007326992 0.026874375 -0.0057597687 0.010546445
000090 78 98 2b 3c f0 85 fc 3c 8d 4f 7b 3a aa 8a e7 bb
       0.010473363 0.030825585 0.0009586744 -0.0070660906
0000a0 c3 ac 15 3d de a3 5b 3d 68 89 0e bd af 43 32 3a
       0.03654171 0.053623073 -0.03479901 0.0006800247
0000b0 24 41 55 3b e9 d4 59 bb e9 b9 cd bc 1e 73 c5 3c
       0.0032540048 -0.0033238477 -0.025113063 0.024102744
0000c0 30 7a b0 3c c0 19 d1 bb 6a a0 1a 3d 64 20 6a 3d
       0.021542639 -0.0063812435 0.03775064 0.057159796
0000d0 5d c1 48 bc 89 59 d9 3c aa a4 4d 3d 31 34 22 bd
       -0.012253133 0.026531952 0.050205864 -0.039600555
0000e0 f6 bf 2e 3d 2d 9f 91 3c bf 04 0a 3d a7 0c bf 3c
       0.042663537 0.017776096 0.033695932 0.023321463
0000f0 9a db fb 3c 2f 81 b1 3c b9 fa 5a 3c 2f 38 79 3d
       0.030744363 0.021668045 0.013365441 0.060844596
000100 3b 31 9b bc 94 53 4e 3c b8 93 4d 3c e7 86 8b bc
       -0.018944373 0.012593169 0.012547426 -0.0170321
000110 70 0a fa 3b 14 eb 41 bc d6 f7 c2 3d a2 bb dc 3c
       0.007630639 -0.011835832 0.09519927 0.026944939
000120 62 e4 9c bc d2 41 14 3c cd a6 2d 3c 57 aa 12 bd
       -0.01915187 0.009048896 0.01059885 -0.03580698
000130 b2 8a e9 ba 4e ba 3a 3c b5 48 f2 3c 7a 17 2d 3d
       -0.0017817824 0.011396958 0.029575685 0.042258717
000140 ae 81 21 3c 37 ea ff 3c ee bb d4 bb 6f 02 8a 3b
       0.009857578 0.031239612 -0.0064921295 0.004211716
000150 59 6c 0e 3d 49 99 ab bc 17 0a 98 3c 2e 99 bb bc
       0.034771297 -0.020947115 0.018559499 -0.02290019
000160 30 5b 34 3d c7 5d 88 bc 23 10 b8 3b 80 bf 0e 3d
       0.044032276 -0.016646279 0.005617158 0.034850597
000170 42 42 ec bc 42 42 80 bc d0 62 80 bc e6 6c 30 3b
       -0.028840188 -0.015656594 -0.015672117 0.0026920377
000180 5a 9e d0 3c 14 3e 01 3d f0 5c 33 3d 1f c0 46 3b
       0.025466133 0.031553343 0.043789804 0.0030326915
000190 b2 de c5 3b 01 6b 5f 3c 14 a2 a7 bb 3e 84 67 bc
       0.0060385102 0.013636352 -0.0051157568 -0.01413065
0001a0 fd 68 69 3b 10 75 a6 bc 67 29 4b 3c fa d2 6e 3d
       0.0035615556 -0.020319492 0.012400008 0.05830667
0001b0 f0 b0 59 bc b3 c0 45 3c 28 f9 83 3b cb 40 d4 bc
       -0.013286814 0.012069869 0.0040275045 -0.025909802
0001c0 a3 c1 61 bc 4a ba 82 3c f9 9d af 3c 92 07 8c 3d
       -0.013779077 0.01595797 0.021437632 0.068373814
0001d0 69 7f d0 bc 2a 90 a9 bc 36 7f 4c 3d d8 7f 37 3c
       -0.025451379 -0.020698626 0.049926005 0.011199914
0001e0 f9 59 72 bc d4 c8 7d 3c 73 15 0b 3d ea 83 1b 3c
       -0.014791959 0.015489776 0.033956002 0.0094919
0001f0 0b 76 81 3d 7b f1 02 3d 8c 47 43 3c 64 35 24 bd
       0.06321343 0.031968575 0.011918914 -0.04008998

action_model._discrete_distribution.branches.0.weight f4 [4, 128]
000000 59 1f 4f 3c 82 04 5b 3c 42 50 1f bc 39 42 9b 3c
       0.012641751 0.013367774 -0.009723725 0.018952476
000010 35 56 74 3b 2b 5d fe bb 1d 53 11 3b 36 02 9d 3c
       0.0037282829 -0.0077625713 0.0022174784 0.019166093
000020 b4 8b 2d 3c 73 c6 18 3b 09 fc 2c 3c 89 5e ed 3b
       0.01059239 0.0023311644 0.010558137 0.0072439355
000030 e7 64 1f 3b 42 87 bb ba 49 7c 32 3c 67 cf 98 3c
       0.0024321617 -0.0014307278 0.01089389 0.018653585
000040 94 29 5c 3b 38 93 d5 3a 10 fe cc 3b f3 80 bd 3b
       0.0033594118 0.0016294485 0.0062558725 0.005783194
000050 98 13 ec 3a bf 73 fd b9 1f 6c ef 3c 7a f1 3c 3b
       0.001801121 -0.00048342158 0.02922636 0.0028830455
000060 53 32 7f 3c 23 f7 a1 3c 9b fa 12 3b 06 f9 b2 3b
       0.015575963 0.019771164 0.0022427205 0.005461815
000070 83 16 1f bc ea c2 d3 ba 87 03 9d 3c 9e 93 3b 3c
       -0.009709957 -0.0016156111 0.019166721 0.011448769
000080 32 ad 08 3c b7 23 45 3c 57 a2 a4 37 c3 43 ea bb
       0.008342074 0.012032441 1.9625919e-05 -0.007149191
000090 ee 03 e9 3a 84 21 f3 3b d5 00 d2 ba 40 59 be bb
       0.001777766 0.007419767 -0.0016021976 -0.0058089793
0000a0 35 34 77 3b 5e ab 7e 3c 83 47 bd 3b b4 fe 61 3c
       0.0037720327 0.015543787 0.005776347 0.013793636
0000b0 13 1d ca 3b 5c d7 a1 37 27 20 71 bb dc ce 12 3c
       0.0061680167 1.929298e-05 -0.0036792846 0.008960452
0000c0 38 ad 02 3c 0a 2e b3 bc 21 3b 23 3c e6 35 42 3b
       0.007975869 -0.02187254 0.009962828 0.0029634177
0000d0 a4 df b8 bc dd 33 d7 3c 80 d9 3f 3c 00 a5 92 bb
       -0.022567578 0.026269848 0.011709571 -0.004475236
0000e0 35 af d6 3c e7 f9 42 bc f1 6a bf 3c d0 bc 20 3c
       0.026206592 -0.011900402 0.023366423 0.009810641
0000f0 ef 72 6a 3b aa 49 cf 3a 5b f8 35 3b 79 a6 14 3d
       0.0035774072 0.00158148 0.002776644 0.036291573
000100 dd 8c 42 b9 df 35 c5 ba 5b bc 34 3c 62 2b 8d 3a
       -0.00018553757 -0.0015045962 0.011031236 0.0010770375
000110 2d 70 b3 3c 11 0b 24 3c c3 5d 94 3c 87 db 97 3c
       0.021904076 0.010012404 0.018111115 0.018537296
000120 ed 85 24 bb 4b 4a b5 bb 43 0d 5d bc 1c e1 12 bc
       -0.002510424 -0.005532538 -0.013491931 -0.008964803
000130 a2 e2 91 bb 0e f3 e6 3c ea 95 26 3b 60 14 72 3c
       -0.0044520656 0.02819207 0.0025418946 0.014775366
000140 b9 25 af 3a 01 a3 bc 3c 65 ff 41 bc 54 0a 39 bc
       0.0013362683 0.023026945 -0.011840676 -0.011293966
000150 14 1c 03 ba 56 93 1c bc 25 f5 cb 3b f6 b9 84 bb
       -0.00050014374 -0.009556612 0.006224292 -0.0040504886
000160 31 22 8c 3b 39 12 76 bc b9 ef 2d 3c ec 85 b1 3c
       0.004276537 -0.015018993 0.010616236 0.021670304
000170 f7 8f dc bb 2e c6 a7 bb f6 20 72 bc 0a 1e 76 bc
       -0.006731029 -0.0051200604 -0.014778366 -0.01502181
000180 0a 6f eb 3b f3 68 af 3c bd c4 ee 3c 39 fb e8 3b
       0.0071848677 0.021412348 0.029146546 0.007110026
000190 a2 60 0b bb 3a 6b 75 3c 6c 3c 89 3b 3a 89 37 bc
       -0.0021267314 0.014979178 0.004188111 -0.011202151
0001a0 6e 67 76 39 aa 1b c8 37 8f 0d 64 3b fd 12 c7 3c
       0.00023498919 2.385474e-05 0.003479812 0.024301047
0001b0 46 10 18 bb c5 02 c1 3c c6 06 87 bc 94 28 65 3c
       -0.002320306 0.02356089 -0.016482722 0.013986725
0001c0 bf 60 ef 3b a7 d9 84 3c fc 4c d4 3b e8 1c c9 3c
       0.007305234 0.016217066 0.006478904 0.024549916
0001d0 22 45 34 3c 70 ac 7b bb 4d 45 cd bb fe ad 29 3c
       0.011002811 -0.0038402341 -0.006264365 0.010356424
0001e0 28 a2 f6 3b c9 b2 a7 3a ea c2 84 bc 54 fe ef 3a
       0.0075266548 0.0012794371 -0.016206224 0.0018310049
0001f0 af 02 88 3c 68 49 ac 3b ef e4 97 3c bf 66 e2 3b
       0.016602842 0.005257774 0.018541781 0.006909221
000200 d6 bb 21 3b 56 a4 da bc 16 e4 44 3a c2 4f 27 bd
       0.002467861 -0.02668969 0.0007510794 -0.040847547
000210 a8 b9 15 3c 9c 29 12 3d be 4d 54 bd 1b 5d ef 3b
       0.009138502 0.035684213 -0.051831953 0.0073048
000220 40 58 d5 bc 75 10 2d 3d 02 1b 06 bd e4 0b da ba
       -0.026043057 0.042252023 -0.0327406 -0.0016635624
000230 cb 03 0c 3b 78 eb 64 3c 63 7e a7 bc 5d ea b4 3b
       0.0021364565 0.013972156 -0.020446008 0.0055211023
000240 a4 9d fc bc a9 e5 16 bd 02 56 9e bc bd c3 17 bb
       -0.030836888 -0.036840115 -0.019328121 -0.002315744
000250 25 26 87 bc 70 c2 35 bc eb 12 75 bc 01 42 cd bb
       -0.01649768 -0.011093721 -0.014958124 -0.006263972
000260 7a a6 1b bd b2 ff 54 bc 08 06 d9 3a a9 71 c6 bb
       -0.03800056 -0.013000416 0.0016557584 -0.00605603
000270 50 d4 f7 bc cb c1 8b 3a ca bf a6 bc d0 e0 b1 ba
       -0.030252606 0.0010662613 -0.020355124 -0.0013571028
000280 10 95 48 bb 2f 50 ab bc 6e 21 55 bc c7 22 1c bc
       -0.0030606426 -0.020912258 -0.013008459 -0.009529776
000290 09 aa 45 bc 07 db 30 bd 98 56 00 bc 1f ac c6 ba
       -0.012064465 -0.04317763 -0.007833146 -0.0015157497
0002a0 6f 01 bf bc 10 59 2d bd aa 0a c7 3c 9b 7a 04 bc
       -0.023316113 -0.042321265 0.024297077 -0.008085872
0002b0 15 cf 7d bc 1a 4a 80 bc b2 a8 ad 3b d4 ce b5 bc
       -0.015491267 -0.015660334 0.005299651 -0.02219335
0002c0 c0 70 95 bc 7a 19 f0 bb 1d 5e 3e 3b b8 a3 62 bd
       -0.01824224 -0.007327256 0.0029047795 -0.055331916
0002d0 40 ea b9 3b a2 9c c1 bc 80 91 5d bd 77 da 59 3d
       0.0056736767 -0.023634259 -0.054093838 0.05318686
0002e0 1f 40 0f bd cc c4 00 3d 67 1a 92 bc 88 42 76 bc
       -0.03497326 0.03143768 -0.017834855 -0.015030511
0002f0 ed 70 ea bc a6 ff 19 bd 59 e3 d4 bc ed e3 57 bd
       -0.0286183 -0.03759732 -0.025987314 -0.0527076
000300 9b 56 f2 3b 9d 6a 89 bc c7 06 6d bc 8c a9 16 bb
       0.007395578 -0.01677447 -0.014466948 -0.0022989241
000310 2f 2e b8 bb a2 ee 06 3b 7d a4 55 bd 59 e8 02 bd
       -0.00562074 0.0020589014 -0.05215882 -0.031959865
000320 5c ef 0b 3a 56 dc da 3a 54 66 d0 bb 75 6d 26 3c
       0.00053380965 0.0016697745 -0.0063598547 0.0101579325
000330 5f 45 96 bc 5f 78 5e bc fc 05 58 bd e0 34 25 3c
       -0.018343626 -0.013578503 -0.052740082 0.010083407
000340 2e 2c dd 3c cb 94 18 bd 64 b8 75 bc ee 7e 90 bc
       0.026998606 -0.037251275 -0.014997575 -0.01763865
000350 fb b9 30 bd 9d c0 b5 bb ef 8f 94 bb 2b 92 da 3b
       -0.043146115 -0.005546643 -0.00453376 0.0066702566
000360 3b c0 3e bb ab 49 41 bb be 69 6d 3a 7c 2a 43 bd
       -0.0029106278 -0.0029493372 0.00090565893 -0.047647938
000370 d8 d8 17 3c 97 53 10 3b 15 73 e5 3a 0f 71 84 bc
       0.009268008 0.002202248 0.0017505611 -0.016167192
000380 1b 59 08 bd e0 d1 08 bd 77 d8 2d bd e4 35 77 bc
       -0.033288103 -0.033403277 -0.042442765 -0.015088532
000390 82 4d 94 bc 55 3a 19 bc 53 88 30 3b e0 fa 94 bb
       -0.018103365 -0.009352286 0.0026936724 -0.004546508
0003a0 57 a0 8f 3b e9 19 72 3b 51 78 67 bc ad 28 b6 bc
       0.0043831277 0.0036941713 -0.014127807 -0.022236193
0003b0 45 b9 68 bb e7 7c b8 bc 3d a1 ac bc 80 d4 92 3c
       -0.003551082 -0.022520496 -0.021072978 0.017923594
0003c0 9b 67 af 39 99 29 54 bc 01 d3 d3 3a 5c 4e 88 bd
       0.00033455793 -0.012949371 0.0016160907 -0.06655571
0003d0 f3 cb d6 3b 3b 99 9c 3b e9 b7 c9 bc a2 01 b2 bb
       0.0065550744 0.0047790087 -0.024623828 -0.0054323236
0003e0 bb a8 ab 3c 5c 14 21 bc fb 7f c4 bc 46 4f 4d bc
       0.02095448 -0.009831514 -0.023986807 -0.012531107
0003f0 52 a6 12 bd b4 7c ab bc 73 2e 52 bc 8c 96 08 3d
       -0.035803147 -0.020933487 -0.012828457 0.033346698

action_model._discrete_distribution.branches.0.bias f4 [4]
000000 37 7e be 3c 6c 0a 4f bd fd f0 e7 3c a9 50 5a 3b
       0.023253543 -0.05054705 0.028313154 0.0033312237
