results/many1/Romba/Romba-499951.pt (torch, 440536 bytes, 33 tensors)

network_body._body_endoder.seq_layers.0.weight f4 [128, 5]
00000000: 31c6 a3be c44f 2dbe 6fce 2f3f 455e e73e
00000010: 1c72 aa3d a991 c03d 2350 333e d1dd 71be
00000020: 15e0 e03d dd91 58bf 9684 54be 0d10 5f3f
00000030: e857 73be ed24 53bf 1a8d 863f da2c e1bd
00000040: d6f0 0f3f a46b 68be e7bf ac3e a685 38bd
00000050: 05f8 f73c 85b8 593e 7457 cf3d f304 c13e
00000060: 4000 013f 245b 0a3f 2038 cd3d c516 463d
00000070: 0f0d 83be 922b 08bf 278e 5fbe c285 f23e
00000080: 7b98 3c3e 1a54 2c3e 7cc2 0b3f 0928 3a3e
00000090: 92a7 063e ba46 943b d275 7c3d 7a77 313f
000000a0: 14a9 ed3e c31b 01be 8c7b 45bf 878d bcbe
000000b0: d97f a13d 51e8 89bf 41cb c93e a961 573e
000000c0: d217 723e f027 643e 4f96 703d 9a0c f4be
000000d0: 2a69 28bd 756b 223e 4782 5b3f 7226 0d3f
000000e0: f824 7b3e 77bd a7be 2b4a 453d f87e 30be
000000f0: 40b3 28bf 5978 54be 20a8 9e3e d97b bc3d
00000100: 56ed 403c 4e27 b93e d87d b23d 4d09 15bf
00000110: 1edf 4ebf 9325 873f b924 963e 4e64 1d3f
00000120: 54bc 31bd 6a0b 17bd 2336 20bf b1a4 1e3f
00000130: c37e 0fbf 801e 8a3b 0ea4 013f 0fc4 ac3e
00000140: 3c60 34bf f528 aabb bb1c 2a3f 1dda c7bd
00000150: 6466 623f 3cab a43e e8a3 aa3c 574e 26be
00000160: 65a3 95be 644b 0a3e 1533 88be 2d3f b83d
00000170: 69e6 b43e b527 04bf 4b04 73bf 066f a8be
00000180: ddbf 363f 8b45 5b3f a558 19bf d960 17bf
00000190: 08ad 11bf c265 95be 53a0 ed3b 03e4 403e
000001a0: e34d fb3e e478 92be 5319 e8be ae3b 223f
000001b0: 3c7e 53bc 4685 733e 25ed 123d fd38 d7be
000001c0: f7e8 c7be 6277 4abe 8034 f1be 9fd1 14bf
000001d0: 5c7f 823f 2e31 72bf 338f a6be d8ec a13c
000001e0: 746d 863e a4c7 d13d d1a3 ac3e a33f 763e
000001f0: a75b eb3c ef43 c6be 1c43 493f ed76 ad3e
00000200: c38c 14be 6dd5 263e ac93 d0be 4238 1cbe
00000210: fcee 983c 3bdb 003e c272 d33e 22c7 853e
00000220: 4e58 87be 6789 233f 548a f23e 516e 0ebf
00000230: b2f2 62be ffa0 0fbe f3af 453f 1df2 adbd
00000240: 0931 4b3e 2e1a 79be 378f c1be 3b95 29be
00000250: 9c19 6bbd 1dfa ce3e 005b a7be 1890 6abe
00000260: 140d de3e 273b 1dbe 4aa7 a2be 2f47 4bbe
00000270: 5fc1 5b3d 453f 733e dc20 12bf 75d2 483e
00000280: 12c3 2f3e 8f55 863e abea a43f 0e55 683e
00000290: 885e e2be 8594 81be 04ec c73e b723 8b3f
000002a0: 4700 99bf d1e0 383d 6f95 a83d 6c6d a73e
000002b0: 2f7d 65bf 6a44 7cbe a00f a63e 3e0e 553f
000002c0: 09d3 00bf 096f 5ebf b1c8 a5be fada d3bd
000002d0: dd76 82bd 227a 333f 2965 ef3e c34b 45bf
000002e0: a31b 833f b743 e43e 2989 6f3f 3e4b d93c
000002f0: c4aa c0bd 9721 a83e 669b 4bbe 0a25 103f
00000300: 29a3 9d3e 4af9 513e 9f87 e43e 80c6 f23d
00000310: e210 babe 01fd 0abf cbdf d13e de96 d6bd
00000320: 13f1 823e bfb4 fb3e bdcb ea3e a3a0 083f
00000330: f54d 9c3e d26c b6be 6e28 28be 3b6b 393f
00000340: 7d81 2c3f eb5a b7be bd63 dd3c 23f0 9abe
00000350: 1321 3dbf 43f7 fbbe 6e7a debe a375 8dbd
00000360: 202b f6be 5f4f 1cbe 2ce3 033f 201e ffbe
00000370: 54a5 47bf cc8a 43be f3c6 f4bd d35e afbc
00000380: 5584 26bf 0db7 7cbe 15aa 0c3f 0dea df3e
00000390: 2fa5 a13e 2918 743e f92f 01bf 94f2 223f
000003a0: 99fa 593e d4e2 38bf 86ed e4be a9c9 a63e
000003b0: a1f3 31be 9bc5 683e ab07 c4be 3e03 a3be
000003c0: 4c27 e03e 3034 033f 7489 813f 3064 073f
000003d0: 3e25 51bf e5da e6be 13af 173f f197 d83e
000003e0: 5c8c 5e3f 83de 743e c366 a5be 9962 be3d
000003f0: 2264 c0bd 815e 6f3c acf3 453e ad08 3cbb
-0.31987146 -0.1692496 0.6867437 0.4518911 0.08322546 0.094027825 0.17511038 -0.23619772
0.1098024 -0.8459757 -0.20753703 0.87133867 -0.23764002 -0.8247822 1.0511811 -0.10994883
0.5622686 -0.22697312 0.3374016 -0.045049332 0.030269632 0.21261795 0.10124102 0.37699088
0.50391006 0.5404532 0.100204706 0.04836156 -0.255959 -0.53191483 -0.2183157 0.47367674
0.18417542 0.16828957 0.54593635 0.18179335 0.1314986 0.004525033 0.0616358 0.6932293
0.4641806 -0.12608247 -0.7714164 -0.36826727 0.07885713 -1.0774022 0.39412883 0.21033348
0.23641899 0.2228086 0.058737095 -0.47665864 -0.041115917 0.15861304 0.8574566 0.5513679
0.24525821 -0.32761738 0.048166435 -0.17235935 -0.65898514 -0.20749034 0.30987644 0.092033096
0.011775335 0.361628 0.08715409 -0.58217317 -0.808092 1.0558342 0.29324892 0.6148118
-0.043392494 -0.03687612 -0.62582606 0.6197005 -0.560528 0.0042150617 0.5064095 0.3374333
-0.7045934 -0.0051928707 0.6645009 -0.09758399 0.88437486 0.3216189 0.02083011 -0.16240822
-0.29226223 0.13505322 -0.26601472 0.08996425 0.3533204 -0.5162309 -0.94928426 -0.32897204
0.7138651 0.8565299 -0.59900886 -0.5913215 -0.5690465 -0.29179198 0.007251778 0.1883698
0.4908286 -0.28607857 -0.4533182 0.63372314 -0.012908515 0.23781309 0.03587069 -0.42035666
-0.39044926 -0.19772103 -0.47110367 -0.58132356 1.0195117 -0.9460629 -0.32531127 0.019766256
0.2625538 0.102431566 0.33718732 0.24047713 0.028730227 -0.38723704 0.78618026 0.33879796
-0.14506821 0.16292353 -0.40737665 -0.15255836 0.018668644 0.1258363 0.4129849 0.2612849
-0.2643456 0.63881534 0.4737116 -0.5563708 -0.22162893 -0.14026259 0.772216 -0.08493445
0.19842924 -0.24326393 -0.37804577 -0.16560833 -0.05739747 0.40425196 -0.32686615 -0.2290653
0.43369353 -0.15354596 -0.31768256 -0.19851373 0.05365121 0.23754604 -0.5708139 0.19611533
0.17164257 0.2623715 1.2884115 0.22688696 -0.44212747 -0.25308624 0.39047253 1.0870274
-1.195321 0.045136277 0.08231627 0.3270067 -0.8964414 -0.24635473 0.32433796 0.83224857
-0.50322014 -0.86888176 -0.32379678 -0.10344501 -0.063703276 0.70108235 0.46756867 -0.7706873
1.0242809 0.44582912 0.93568665 0.026525136 -0.09407571 0.32838127 -0.19883499 0.5630652
0.30788544 0.20505252 0.4463472 0.11854267 -0.36341006 -0.54292303 0.40991053 -0.104779944
0.2557455 0.49161336 0.45858565 0.5337011 0.30528226 -0.35629898 -0.16421673 0.72429246
0.67385083 -0.35811552 0.027025098 -0.30261335 -0.7387859 -0.49212083 -0.4345278 -0.06907203
-0.48079777 -0.15264653 0.5151851 -0.4982767 -0.77986646 -0.19095916 -0.11952009 -0.02140752
-0.6504567 -0.24679203 0.54947025 0.43733254 0.31571338 0.23837341 -0.50463825 0.63651395
0.21287002 -0.7222111 -0.44712466 0.3257573 -0.17378093 0.2273163 -0.382871 -0.3183841
0.4377998 0.51251507 1.0120072 0.5288725 -0.8169745 -0.45088878 0.5925152 0.42303422
0.8693292 0.23913006 -0.32304963 0.0929615 -0.09394099 0.014609934 0.19331235 -0.0028691695

network_body._body_endoder.seq_layers.0.bias f4 [128]
00000000: a186 16bd 8102 093b ae44 0a3d 5253 30bd
00000010: a0f0 47bc 2741 9e3c 8cd5 e23c ab14 a13b
00000020: e57a 513d 1c89 2fbd b8b9 62bc 014d c6bc
00000030: 8703 12bd 1cc2 183d 1a12 97bc 0cda bd3b
00000040: 40a4 fd3b 9175 6a3d ec21 d93c da74 203d
00000050: 716c 5cbc 0c98 d33c 567e 0bbd d1d8 d63c
00000060: 4dbe 9aba 1a93 d33c 2edd 643c ec32 203c
00000070: 43b0 e63c 1f70 d33c 1e26 ecba 6a86 b8bc
00000080: 7043 153d ad45 1abd cebd df3c 1a9a 393d
00000090: dfd9 c33b 2953 e0bb c9a1 b43c e4e6 4dbc
000000a0: 57ed 3abc 28f3 d03c bdb0 9e3b 8ef6 d03a
000000b0: fed7 02bd 4d8c 02bd 9055 2bbd 41dc 393d
000000c0: faa6 f73c dfa1 61bb 4464 df3c 6159 be3c
000000d0: 6880 0a3c c87a 62bd 4d9c c53b be6b 5c3c
000000e0: ff6b 6bbb de1f 083d 4d6f e63c 2443 9f3c
000000f0: 7105 123c e215 0e3d 4ca2 cb3c f4b0 fb3c
00000100: 1fa7 473b 2baa e03c 76d3 893c 7e5f 11bd
00000110: cbd1 08bd 72d6 3a3d 47c8 15bd 5ced 7e3b
00000120: 2529 553d 69a7 b83a cd82 1a3d ae4c b83c
00000130: 5c0c 87bc 408b 573c 8005 0b3b 9f42 003d
00000140: 73be 1b3c bf63 08ba 253d abbb 2aa0 ae3b
00000150: af2f 4c3c 3000 d73c 5db1 a63c 24d7 b13c
00000160: de50 9b3c 50da 893c a4d2 453c 94e1 ec3c
00000170: 609c 8b3d 7d60 613c 85cb aa3c 9c65 8ebb
00000180: e590 8e3c bf20 f2ba 1260 263d d322 0e3c
00000190: 917b 813d 8d39 19bd 7f7f 943c 8e07 afbc
000001a0: 3ab4 86bc c857 a9bc 7efa 49bd 66e9 b73b
000001b0: d52d 263d 11d8 2a3c 3166 c4bd 99fd d93c
000001c0: e027 1c3c e7e4 353d 0981 983c c405 1d3c
000001d0: 9f09 623a e00f 1a3d 14f1 503d b76c d43c
000001e0: 24d5 fe3b 8ca8 0d3c 338c d2bb cb08 593c
000001f0: e56a 343a 12b5 e239 64b0 e0bc 7607 453c
-0.036749486 0.0020906033 0.033756904 -0.04304821 -0.012203366 0.019318176 0.027689718 0.004915794
0.051142592 -0.042855367 -0.013838224 -0.02420664 -0.035647895 0.037294492 -0.018441249 0.0057938155
0.0077405274 0.057241026 0.026505433 0.03917394 -0.013453589 0.025829338 -0.03405603 0.026226433
-0.0011805982 0.02582698 0.013968749 0.009777766 0.02816022 0.0258103 -0.0018016731 -0.022525031
0.036441267 -0.037664104 0.027312186 0.04531298 0.0059769 -0.006845851 0.022049801 -0.012567256
-0.011409125 0.025506571 0.004842846 0.001594262 -0.031944267 -0.031872083 -0.041829646 0.045376066
0.030230988 -0.0034428758 0.02726949 0.023235979 0.008453466 -0.055292875 0.0060305954 0.013453422
-0.0035922525 0.033233516 0.028129244 0.019441195 0.00891243 0.034688838 0.024857663 0.030724026
0.0030464602 0.027424892 0.016824465 -0.03549146 -0.0334032 0.045614667 -0.036567952 0.0038898801
0.05204119 0.0014087978 0.037722398 0.022497501 -0.016485386 0.013155758 0.0021212995 0.031313535
0.009505856 -0.00052028516 -0.005225795 0.0053291516 0.0124625405 0.026245207 0.020348245 0.021709032
0.018959459 0.016827732 0.012074146 0.028916158 0.068169355 0.013755915 0.020848999 -0.004345609
0.017403075 -0.0018472894 0.040618964 0.008675295 0.063223965 -0.0374084 0.018127201 -0.021365907
-0.01644336 -0.02067174 -0.049311154 0.00561254 0.040571053 0.010427491 -0.09589804 0.026610183
0.009530991 0.04440775 0.018616216 0.009583894 0.00086226495 0.037612796 0.05101116 0.025930746
0.007776873 0.008646142 -0.0064254045 0.013246725 0.00068823836 0.00043240987 -0.02742786 0.012025705

network_body._body_endoder.seq_layers.2.weight f4 [128, 128]
00000000: a55c 163d 2023 f1bb aa8a 3a3d 4f6c f9bd
00000010: 54d3 ea3c b1c2 03be 380b a3bc a38e e53b
00000020: 34b8 573e c371 113d 8a78 253d 1b93 e63d
00000030: e7f9 c0bc d190 0dbe 0c9b b63d bf8b 2abd
00000040: bc06 1a3d 30a6 bcbc 0963 083d 9608 2dbc
00000050: 52aa 583d 30bd f8bc 2648 bb3d ad27 b03d
00000060: 6e57 d13d 595b a3bc e2b1 febc 50a2 d0bd
00000070: 943b 70bd 50e2 da3c c042 d9bc 7384 313d
00000080: 9de3 14be 99a3 8fbd 3edc f5bc d096 50bd
00000090: a55b 143e 9049 0abe 1cfd 273c e39a 153e
000000a0: 5053 ddbd 54ae dcbd 40a7 b23b 1572 0c3d
000000b0: 95ef da3d dd38 82bd 6c52 133e d181 21be
000000c0: fdb5 013b 0642 0bbc 493c d3bc 8f72 c63d
000000d0: 693a 8f3c 5a67 cabc 2711 cebb 89e5 f2ba
000000e0: 5c4b febd 7dca 59bc 3e63 dc3d f719 aebc
000000f0: 79e5 c33c 7fff d43c 70f0 6c3d 602c c1bc
00000100: 0675 9dbd 807b eb3d a0c0 f4bd eb02 d03c
00000110: 39e2 c2bc 8a87 4cbc a39c 67bd 6058 0e3d
00000120: 831e c9bd 29a9 14bd 3940 323e 1b7f 35bd
00000130: fc28 9bbd 0c6b 02be 7a8b 30be c5f6 55bc
00000140: c03a f5bc b4e5 f9bc 7863 1ebb d1f5 91bd
00000150: 54eb 8d3d 986e 1f3c 681e 56bd 95a3 d0bc
00000160: 3ad4 113d 9a7b 753d 6ee9 18be b844 21bd
00000170: 44a7 47be 90ba 8fbd 608b 09bc 7fd2 0c3d
00000180: 37f6 b63d 125b 833d 08d7 ccbd 5929 c5bc
00000190: 73f6 eabd 311c babd ec4a 283e 513b d53b
000001a0: 1ef9 91bd b988 2d3e b53d 8c3d 5c5d 173c
000001b0: a505 d2bc c8e9 a2bd 0097 46bd db6b 953d
000001c0: f29b 193d 0e2c a83d 8d82 913d f135 babd
000001d0: 7070 8c3d 9f0a 2e3e b683 073d 5458 92bd
000001e0: fdae c53c 2927 c8bd d86d 74bb 9db1 6f3d
000001f0: 5ce5 2fbd 8afb 1c3d 44cb ad3d e781 efbd
00000200: 05fc 9cbd cf8f 983c a5ab 7fbd b8ba 8d3d
00000210: 3d37 4439 849f 173e 5cec 15be 20a4 02be
00000220: d378 debd 0bd8 e1bd 8570 c7bc 87fb 673d
00000230: 1f49 7e3d 6a3b 9cbd c930 9dbd 1254 92bc
00000240: 8499 493d f438 a9bc 777e e63c 2422 b43d
00000250: 91ab 7fbd 25c9 07be c439 283e efa0 b33d
00000260: ff4a 70bc 0c07 89be b50a d9bd e587 833d
00000270: 7d8a fabc a400 b0bd 44da ea3d cce0 e1bd
00000280: 815f c2bd 547a ba3d b622 c8bd ef70 913d
00000290: f229 c1bd 3058 16be d74d 95bb 7bc4 e03c
000002a0: 02cc d13d 3cfa f23d add3 acbc facd 97bd
000002b0: 17ee c13d ec5a 49be 8ad8 a2bd b05e 033e
000002c0: 9db9 a23c 9981 203c e26e dabd e2ac 293d
000002d0: 47bf 9abd 2789 b83d c7e4 cf3d 3bd0 5ebc
000002e0: 9093 aa3c 309e 8e3d 54a6 fbbd dd55 aabb
000002f0: febf 16bd 5334 9a3c 59d9 d93d 7bfc cbbd
00000300: 19c2 ddbd 593b b23d aa6e 013d 5019 023e
00000310: d1be f83c 3e1b 5d3e dbca f2bb 40d7 083e
00000320: 8100 223c a609 8ebc 4418 413e 40d8 cfbc
00000330: 2462 f33d 6f53 b2bc 4475 193e 96c4 663e
00000340: 1c80 213d f7dc eabd 1f74 e63c 834e e43a
00000350: d542 e7bd 4204 993d 3afc 4bbd 9465 453e
00000360: f091 a4bd fdce 753e 1989 853d 4f2f 9e3d
00000370: 718d 7a3d 08ec ab3d 00b1 173c b466 c6bd
00000380: eb00 ed3c 956e 0abe 411f 4c3d 7fd8 f03d
00000390: fecc a1bc dd9f 92bd 5163 7fbd 0cb0 3cbd
000003a0: 7ca7 36be 6b52 193c 2a11 38bd 141b b5bc
000003b0: 17d3 d9bd 1a72 ce3d d1ec 83bd 9296 b6bd
000003c0: 8ba5 b73d 765e 80be e362 88bd a65b 1a3d
000003d0: 7614 04bd 3fff cd3d ce46 193d a30b 1bbd
000003e0: b81d 6fbd 980a 0f3d b946 0dbe c5cd 86bd
000003f0: 14bc c6bd 40af b63d ec88 c9bd 2551 cdbd
0.036709446 -0.0073589236 0.045542397 -0.12178861 0.028665222 -0.12867238 -0.01990281 0.007005529
0.21066362 0.035508882 0.040398158 0.11258527 -0.023556663 -0.13824774 0.089162916 -0.04163718
0.03760408 -0.023028463 0.033297572 -0.010561129 0.052896805 -0.03036365 0.091446206 0.086013176
0.10221754 -0.019941019 -0.03109068 -0.10187209 -0.058650568 0.026719242 -0.026521087 0.043339204
-0.14539953 -0.07013626 -0.030012246 -0.050925076 0.14488085 -0.13504624 0.010253217 0.14609866
-0.10806906 -0.10775438 0.0054520667 0.034288485 0.10690228 -0.06358502 0.1438691 -0.15772177
0.0019792311 -0.008499628 -0.025785582 0.09689819 0.017483907 -0.024707485 -0.006288666 -0.0018531542
-0.124167174 -0.013292906 0.107611164 -0.021252615 0.023913132 0.026000736 0.057846487 -0.02358073
-0.07688336 0.11498165 -0.11950803 0.025392016 -0.023789512 -0.012483487 -0.056545865 0.03475225
-0.09820273 -0.036294136 0.17407311 -0.04431067 -0.075761765 -0.12736148 -0.17240706 -0.013059323
-0.02993524 -0.030505039 -0.0024168175 -0.07126964 0.06929651 0.009730957 -0.05227509 -0.025468627
0.035602786 0.05993233 -0.14932796 -0.039372176 -0.194974 -0.07018006 -0.008395046 0.034380432
0.089336805 0.06413855 -0.100019515 -0.024067568 -0.11472788 -0.09087408 0.1643483 0.006507315
-0.071275935 0.16946687 0.06847707 0.009238567 -0.025637457 -0.079547465 -0.04848385 0.072959624
0.037502237 0.08211528 0.07104979 -0.0909232 0.06857383 0.16996239 0.033084594 -0.071457535
0.024131292 -0.09773094 -0.0037296917 0.058518995 -0.042943344 0.038325824 0.084860355 -0.11694699
-0.076652564 0.01862326 -0.062419552 0.069203794 0.00018712594 0.14806944 -0.14640945 -0.12757921
-0.10862889 -0.11027535 -0.024345646 0.05663636 0.062081452 -0.0762852 -0.07675321 -0.017862353
0.04921867 -0.02065704 0.028136475 0.08795574 -0.062419478 -0.13260324 0.16428286 0.0877093
-0.014666318 -0.2676319 -0.10597745 0.06422404 -0.030583614 -0.08593872 0.11467412 -0.11029205
-0.09490872 0.091053635 -0.097722456 0.071016185 -0.094318286 -0.14682078 -0.0045563984 0.02743744
0.102439895 0.11864135 -0.021097029 -0.07412334 0.0946924 -0.1966359 -0.07951458 0.12829089
0.019863898 0.0097965235 -0.106656805 0.04142464 -0.075560145 0.09010535 0.10151058 -0.013599451
0.020822316 0.069637656 -0.12287584 -0.005198224 -0.03680419 0.018823778 0.10637159 -0.09960266
-0.10828037 0.08702726 0.031599678 0.12704968 0.030364426 0.21592423 -0.007409436 0.13363361
0.009887815 -0.017338585 0.18856913 -0.02537167 0.11883953 -0.0217683 0.1498614 0.22535929
0.039428815 -0.11467927 0.028131543 0.0017418418 -0.11292044 0.07471515 -0.04980109 0.1927703
-0.08035648 0.24004741 0.0652029 0.07723867 0.061170045 0.08394629 0.009258509 -0.09687558
0.028931102 -0.13518746 0.049834494 0.11760043 -0.019751068 -0.07159398 -0.062350575 -0.04606633
-0.17837328 0.009358029 -0.044938244 -0.022107638 -0.10635965 0.10080357 -0.064416535 -0.08915438
0.08967122 -0.25072068 -0.06659486 0.03768506 -0.032246076 0.1005845 0.03742104 -0.037852895
-0.05837795 0.034922212 -0.1379651 -0.06582216 -0.09703842 0.08920145 -0.09840569 -0.10025243

network_body._body_endoder.seq_layers.2.bias f4 [128]
00000000: bd4e fb3b d511 d03c 0e6b 34bd 9c37 8a3d
00000010: 2f94 14bd 1082 60bd 1d2d 763d 5f7d a8ba
00000020: d301 d83c 73e6 33bd 881f f53c 4bba 793c
00000030: 6001 d33c 0116 03bd 4bdf ea3c 6ad6 293b
00000040: c0f4 f43b 61cb b03d 7d36 8f3c c179 0dbc
00000050: a74c 9a3c ca32 223c a6e2 c53c 0b35 523c
00000060: b75f 033d 11b2 253c 82a7 49bc 4624 55ba
00000070: 67b4 793c 517e 3e3c b460 3c3d 6daa 2c3b
00000080: 4417 f0bb a627 dc3c 71bc bcbb ffca 2c3c
00000090: 7898 2b3c f085 fc3c 8d4f 7b3a aa8a e7bb
000000a0: c3ac 153d dea3 5b3d 6889 0ebd af43 323a
000000b0: 2441 553b e9d4 59bb e9b9 cdbc 1e73 c53c
000000c0: 307a b03c c019 d1bb 6aa0 1a3d 6420 6a3d
000000d0: 5dc1 48bc 8959 d93c aaa4 4d3d 3134 22bd
000000e0: f6bf 2e3d 2d9f 913c bf04 0a3d a70c bf3c
000000f0: 9adb fb3c 2f81 b13c b9fa 5a3c 2f38 793d
00000100: 3b31 9bbc 9453 4e3c b893 4d3c e786 8bbc
00000110: 700a fa3b 14eb 41bc d6f7 c23d a2bb dc3c
00000120: 62e4 9cbc d241 143c cda6 2d3c 57aa 12bd
00000130: b28a e9ba 4eba 3a3c b548 f23c 7a17 2d3d
00000140: ae81 213c 37ea ff3c eebb d4bb 6f02 8a3b
00000150: 596c 0e3d 4999 abbc 170a 983c 2e99 bbbc
00000160: 305b 343d c75d 88bc 2310 b83b 80bf 0e3d
00000170: 4242 ecbc 4242 80bc d062 80bc e66c 303b
00000180: 5a9e d03c 143e 013d f05c 333d 1fc0 463b
00000190: b2de c53b 016b 5f3c 14a2 a7bb 3e84 67bc
000001a0: fd68 693b 1075 a6bc 6729 4b3c fad2 6e3d
000001b0: f0b0 59bc b3c0 453c 28f9 833b cb40 d4bc
000001c0: a3c1 61bc 4aba 823c f99d af3c 9207 8c3d
000001d0: 697f d0bc 2a90 a9bc 367f 4c3d d87f 373c
000001e0: f959 72bc d4c8 7d3c 7315 0b3d ea83 1b3c
000001f0: 0b76 813d 7bf1 023d 8c47 433c 6435 24bd
0.0076692984 0.025399128 -0.044047408 0.06748888 -0.03627413 -0.054811537 0.060101617 -0.0012854746
0.026368057 -0.043920945 0.029922262 0.01524217 0.025757492 -0.032003406 0.028670928 0.0025915154
0.0074754655 0.086325414 0.017482037 -0.008634985 0.018835379 0.009899804 0.024155926 0.012830029
0.032073703 0.010113255 -0.012308003 -0.00081307103 0.015240765 0.011626796 0.04599066 0.00263467
-0.007326992 0.026874375 -0.0057597687 0.010546445 0.010473363 0.030825585 0.0009586744 -0.0070660906
0.03654171 0.053623073 -0.03479901 0.0006800247 0.0032540048 -0.0033238477 -0.025113063 0.024102744
0.021542639 -0.0063812435 0.03775064 0.057159796 -0.012253133 0.026531952 0.050205864 -0.039600555
0.042663537 0.017776096 0.033695932 0.023321463 0.030744363 0.021668045 0.013365441 0.060844596
-0.018944373 0.012593169 0.012547426 -0.0170321 0.007630639 -0.011835832 0.09519927 0.026944939
-0.01915187 0.009048896 0.01059885 -0.03580698 -0.0017817824 0.011396958 0.029575685 0.042258717
0.009857578 0.031239612 -0.0064921295 0.004211716 0.034771297 -0.020947115 0.018559499 -0.02290019
0.044032276 -0.016646279 0.005617158 0.034850597 -0.028840188 -0.015656594 -0.015672117 0.0026920377
0.025466133 0.031553343 0.043789804 0.0030326915 0.0060385102 0.013636352 -0.0051157568 -0.01413065
0.0035615556 -0.020319492 0.012400008 0.05830667 -0.013286814 0.012069869 0.0040275045 -0.025909802
-0.013779077 0.01595797 0.021437632 0.068373814 -0.025451379 -0.020698626 0.049926005 0.011199914
-0.014791959 0.015489776 0.033956002 0.0094919 0.06321343 0.031968575 0.011918914 -0.04008998

action_model._discrete_distribution.branches.0.weight f4 [4, 128]
00000000: 591f 4f3c 8204 5b3c 4250 1fbc 3942 9b3c
00000010: 3556 743b 2b5d febb 1d53 113b 3602 9d3c
00000020: b48b 2d3c 73c6 183b 09fc 2c3c 895e ed3b
00000030: e764 1f3b 4287 bbba 497c 323c 67cf 983c
00000040: 9429 5c3b 3893 d53a 10fe cc3b f380 bd3b
00000050: 9813 ec3a bf73 fdb9 1f6c ef3c 7af1 3c3b
00000060: 5332 7f3c 23f7 a13c 9bfa 123b 06f9 b23b
00000070: 8316 1fbc eac2 d3ba 8703 9d3c 9e93 3b3c
00000080: 32ad 083c b723 453c 57a2 a437 c343 eabb
00000090: ee03 e93a 8421 f33b d500 d2ba 4059 bebb
000000a0: 3534 773b 5eab 7e3c 8347 bd3b b4fe 613c
000000b0: 131d ca3b 5cd7 a137 2720 71bb dcce 123c
000000c0: 38ad 023c 0a2e b3bc 213b 233c e635 423b
000000d0: a4df b8bc dd33 d73c 80d9 3f3c 00a5 92bb
000000e0: 35af d63c e7f9 42bc f16a bf3c d0bc 203c
000000f0: ef72 6a3b aa49 cf3a 5bf8 353b 79a6 143d
00000100: dd8c 42b9 df35 c5ba 5bbc 343c 622b 8d3a
00000110: 2d70 b33c 110b 243c c35d 943c 87db 973c
00000120: ed85 24bb 4b4a b5bb 430d 5dbc 1ce1 12bc
00000130: a2e2 91bb 0ef3 e63c ea95 263b 6014 723c
00000140: b925 af3a 01a3 bc3c 65ff 41bc 540a 39bc
00000150: 141c 03ba 5693 1cbc 25f5 cb3b f6b9 84bb
00000160: 3122 8c3b 3912 76bc b9ef 2d3c ec85 b13c
00000170: f78f dcbb 2ec6 a7bb f620 72bc 0a1e 76bc
00000180: 0a6f eb3b f368 af3c bdc4 ee3c 39fb e83b
00000190: a260 0bbb 3a6b 753c 6c3c 893b 3a89 37bc
000001a0: 6e67 7639 aa1b c837 8f0d 643b fd12 c73c
000001b0: 4610 18bb c502 c13c c606 87bc 9428 653c
000001c0: bf60 ef3b a7d9 843c fc4c d43b e81c c93c
000001d0: 2245 343c 70ac 7bbb 4d45 cdbb fead 293c
000001e0: 28a2 f63b c9b2 a73a eac2 84bc 54fe ef3a
000001f0: af02 883c 6849 ac3b efe4 973c bf66 e23b
00000200: d6bb 213b 56a4 dabc 16e4 443a c24f 27bd
00000210: a8b9 153c 9c29 123d be4d 54bd 1b5d ef3b
00000220: 4058 d5bc 7510 2d3d 021b 06bd e40b daba
00000230: cb03 0c3b 78eb 643c 637e a7bc 5dea b43b
00000240: a49d fcbc a9e5 16bd 0256 9ebc bdc3 17bb
00000250: 2526 87bc 70c2 35bc eb12 75bc 0142 cdbb
00000260: 7aa6 1bbd b2ff 54bc 0806 d93a a971 c6bb
00000270: 50d4 f7bc cbc1 8b3a cabf a6bc d0e0 b1ba
00000280: 1095 48bb 2f50 abbc 6e21 55bc c722 1cbc
00000290: 09aa 45bc 07db 30bd 9856 00bc 1fac c6ba
000002a0: 6f01 bfbc 1059 2dbd aa0a c73c 9b7a 04bc
000002b0: 15cf 7dbc 1a4a 80bc b2a8 ad3b d4ce b5bc
000002c0: c070 95bc 7a19 f0bb 1d5e 3e3b b8a3 62bd
000002d0: 40ea b93b a29c c1bc 8091 5dbd 77da 593d
000002e0: 1f40 0fbd ccc4 003d 671a 92bc 8842 76bc
000002f0: ed70 eabc a6ff 19bd 59e3 d4bc ede3 57bd
00000300: 9b56 f23b 9d6a 89bc c706 6dbc 8ca9 16bb
00000310: 2f2e b8bb a2ee 063b 7da4 55bd 59e8 02bd
00000320: 5cef 0b3a 56dc da3a 5466 d0bb 756d 263c
00000330: 5f45 96bc 5f78 5ebc fc05 58bd e034 253c
00000340: 2e2c dd3c cb94 18bd 64b8 75bc ee7e 90bc
00000350: fbb9 30bd 9dc0 b5bb ef8f 94bb 2b92 da3b
00000360: 3bc0 3ebb ab49 41bb be69 6d3a 7c2a 43bd
00000370: d8d8 173c 9753 103b 1573 e53a 0f71 84bc
00000380: 1b59 08bd e0d1 08bd 77d8 2dbd e435 77bc
00000390: 824d 94bc 553a 19bc 5388 303b e0fa 94bb
000003a0: 57a0 8f3b e919 723b 5178 67bc ad28 b6bc
000003b0: 45b9 68bb e77c b8bc 3da1 acbc 80d4 923c
000003c0: 9b67 af39 9929 54bc 01d3 d33a 5c4e 88bd
000003d0: f3cb d63b 3b99 9c3b e9b7 c9bc a201 b2bb
000003e0: bba8 ab3c 5c14 21bc fb7f c4bc 464f 4dbc
000003f0: 52a6 12bd b47c abbc 732e 52bc 8c96 083d
0.012641751 0.013367774 -0.009723725 0.018952476 0.0037282829 -0.0077625713 0.0022174784 0.019166093
0.01059239 0.0023311644 0.010558137 0.0072439355 0.0024321617 -0.0014307278 0.01089389 0.018653585
0.0033594118 0.0016294485 0.0062558725 0.005783194 0.001801121 -0.00048342158 0.02922636 0.0028830455
0.015575963 0.019771164 0.0022427205 0.005461815 -0.009709957 -0.0016156111 0.019166721 0.011448769
0.008342074 0.012032441 1.9625919e-05 -0.007149191 0.001777766 0.007419767 -0.0016021976 -0.0058089793
0.0037720327 0.015543787 0.005776347 0.013793636 0.0061680167 1.929298e-05 -0.0036792846 0.008960452
0.007975869 -0.02187254 0.009962828 0.0029634177 -0.022567578 0.026269848 0.011709571 -0.004475236
0.026206592 -0.011900402 0.023366423 0.009810641 0.0035774072 0.00158148 0.002776644 0.036291573
-0.00018553757 -0.0015045962 0.011031236 0.0010770375 0.021904076 0.010012404 0.018111115 0.018537296
-0.002510424 -0.005532538 -0.013491931 -0.008964803 -0.0044520656 0.02819207 0.0025418946 0.014775366
0.0013362683 0.023026945 -0.011840676 -0.011293966 -0.00050014374 -0.009556612 0.006224292 -0.0040504886
0.004276537 -0.015018993 0.010616236 0.021670304 -0.006731029 -0.0051200604 -0.014778366 -0.01502181
0.0071848677 0.021412348 0.029146546 0.007110026 -0.0021267314 0.014979178 0.004188111 -0.011202151
0.00023498919 2.385474e-05 0.003479812 0.024301047 -0.002320306 0.02356089 -0.016482722 0.013986725
0.007305234 0.016217066 0.006478904 0.024549916 0.011002811 -0.0038402341 -0.006264365 0.010356424
0.0075266548 0.0012794371 -0.016206224 0.0018310049 0.016602842 0.005257774 0.018541781 0.006909221
0.002467861 -0.02668969 0.0007510794 -0.040847547 0.009138502 0.035684213 -0.051831953 0.0073048
-0.026043057 0.042252023 -0.0327406 -0.0016635624 0.0021364565 0.013972156 -0.020446008 0.0055211023
-0.030836888 -0.036840115 -0.019328121 -0.002315744 -0.01649768 -0.011093721 -0.014958124 -0.006263972
-0.03800056 -0.013000416 0.0016557584 -0.00605603 -0.030252606 0.0010662613 -0.020355124 -0.0013571028
-0.0030606426 -0.020912258 -0.013008459 -0.009529776 -0.012064465 -0.04317763 -0.007833146 -0.0015157497
-0.023316113 -0.042321265 0.024297077 -0.008085872 -0.015491267 -0.015660334 0.005299651 -0.02219335
-0.01824224 -0.007327256 0.0029047795 -0.055331916 0.0056736767 -0.023634259 -0.054093838 0.05318686
-0.03497326 0.03143768 -0.017834855 -0.015030511 -0.0286183 -0.03759732 -0.025987314 -0.0527076
0.007395578 -0.01677447 -0.014466948 -0.0022989241 -0.00562074 0.0020589014 -0.05215882 -0.031959865
0.00053380965 0.0016697745 -0.0063598547 0.0101579325 -0.018343626 -0.013578503 -0.052740082 0.010083407
0.026998606 -0.037251275 -0.014997575 -0.01763865 -0.043146115 -0.005546643 -0.00453376 0.0066702566
-0.0029106278 -0.0029493372 0.00090565893 -0.047647938 0.009268008 0.002202248 0.0017505611 -0.016167192
-0.033288103 -0.033403277 -0.042442765 -0.015088532 -0.018103365 -0.009352286 0.0026936724 -0.004546508
0.0043831277 0.0036941713 -0.014127807 -0.022236193 -0.003551082 -0.022520496 -0.021072978 0.017923594
0.00033455793 -0.012949371 0.0016160907 -0.06655571 0.0065550744 0.0047790087 -0.024623828 -0.0054323236
0.02095448 -0.009831514 -0.023986807 -0.012531107 -0.035803147 -0.020933487 -0.012828457 0.033346698

action_model._discrete_distribution.branches.0.bias f4 [4]
00000000: 377e be3c 6c0a 4fbd fdf0 e73c a950 5a3b
0.023253543 -0.05054705 0.028313154 0.0033312237

exp_avg f4 [128, 5]
00000000: 9e16 87b6 5e1a 3638 c199 f0b7 7ed1 4337
00000010: 031c 6a37 af33 00b7 dfe3 4738 90ad bab7
00000020: 7347 d8b7 3ba1 abb7 5c31 9038 48b4 3cb9
00000030: b1ab 3b38 cf47 5239 a16f 9fb8 7b17 c837
00000040: 2e6b 2437 8f3d af37 70cd 0cb8 acc9 4a37
00000050: 4387 4a38 57b8 c3b7 bd56 3b38 0b8c d5b7
00000060: 8d27 c7b7 1c19 d4b8 0d34 ea38 4547 00b9
00000070: 4682 8038 5f82 f937 d9ad 7538 37ca e1b8
00000080: 987a 5238 dfb5 a138 1cfc 4fb8 b9ca 9738
00000090: 26a6 aab8 ab3b 8638 fbe1 8e37 c9d6 57b8
000000a0: 25c2 6c37 fbc2 c5b8 d901 1c38 f294 9438
000000b0: a75d 1eb8 5424 61b7 bdd2 dc37 8556 9036
000000c0: 1d1a 05b8 3cd1 4837 de7c f6b6 2029 c9b7
000000d0: 30a9 2237 272d 8137 9f0f 01b7 9337 65b7
000000e0: 069a dd36 9cf3 bcb4 e8c0 f6b6 2bdb 3e37
000000f0: b2b7 2736 3e5d 2d38 df9e 1eb6 a07f 1db8
00000100: bd82 b837 863b 7f38 e5b5 64b9 102f 9438
00000110: 1472 6439 bb74 c5b8 bf56 a8b7 d199 cb38
00000120: bcce 50b8 6f90 f0b7 1063 2a38 8f19 deb6
00000130: ea9a a9b7 71d2 2337 b2b2 0cb7 895d a2b6
00000140: 9d49 ac38 9c64 f7b8 33f6 9b38 913a 9838
00000150: 15c1 9bb8 7cef 8c37 7a92 a8b8 fb2a 1138
00000160: d604 1c38 f46d 11b8 c135 fcb8 60f0 ee38
00000170: ff5c 1fb9 1391 b038 e99d b937 b1b1 43b9
00000180: f8e7 2439 fd2f 68b9 fb54 0339 3742 8e38
00000190: afb8 dab6 4ea2 8037 ce76 0f35 06d1 75b6
000001a0: 79a4 7336 d3d0 3837 afbd bcb7 fa68 2336
000001b0: 8937 d337 e980 3bb6 15cd 1937 1370 c637
000001c0: 54a5 da36 7fb5 32b8 55b0 6537 fda1 9838
000001d0: f96e eab8 627a 1838 40a2 f638 21e0 2eb8
000001e0: 9dcd b637 c30d 8cb6 c0bc 5437 f19c 67b7
000001f0: 4010 d6b6 6d35 1e38 c396 7eb8 3862 bc36
00000200: 1e7c 8f38 44fb 04b8 8710 7c37 a973 71b8
00000210: da79 f537 4441 aa37 4ec2 c4b7 da1c d437
00000220: b44f dd37 f601 96b6 b985 3eb6 8515 a3b6
00000230: 9afc b836 5910 1b37 48c0 3db7 f1fb a133
00000240: 70b0 47b6 1b53 8237 4cba b0b8 6ca0 e137
00000250: 0410 9638 8936 09b8 6031 c0b8 eae3 1439
00000260: cb9e 16b9 4e49 8838 b671 7d38 fa20 c2b6
00000270: 50d6 9f37 cba4 0e37 0339 d7b7 5b31 3637
00000280: 985b a4b8 f12e a038 aa07 0fb9 89c4 f438
00000290: 5cbc 0338 c14a 96b8 cea0 1539 6e78 ccb8
000002a0: eaaa 8eb7 8d66 a538 b78e 7038 9b73 05b9
000002b0: 059b 3238 e8e9 0439 0ffa 71b8 4df7 96b8
000002c0: 3dfa 10b8 5137 6ab7 1b70 9c38 98d9 84b6
000002d0: 5adf be38 b554 cfb8 2255 b638 e66b 9937
000002e0: 4fe9 97b8 95da f437 8a67 22b8 d737 ae37
000002f0: e9e2 be37 9181 8cb7 4fa8 3838 ac01 a3b8
00000300: e4c0 0f38 62d5 8538 a3d5 0eb8 a255 59b6
00000310: 25b0 b0b3 3eb0 3d36 086b 22b6 49fd d236
00000320: 3113 ad36 218e 5f36 a0ce 7936 f90f 09b7
00000330: 2a27 f2b5 b0b2 e7b7 1bb1 5937 fec8 e4b7
00000340: 926d 2c37 7b75 1db7 7dca 91b8 ca23 6538
00000350: 5f27 76b8 25ea 1e38 9fc4 9737 add5 bbb7
00000360: e246 a237 36f8 b7b7 a61a 0037 f1ad 9bb7
00000370: 3b56 0bb8 9773 8738 f094 ecb7 15a7 10b8
00000380: 3a12 7937 9fbd c036 9348 ef37 6354 d837
00000390: ad57 54b8 facd 7b37 2256 71b8 a5f8 0d39
000003a0: 7f3c f0b7 ba92 08b9 7e8e 8238 9535 26b9
000003b0: 5a27 ea38 6b99 1eb9 45b7 bd38 fb2a 6c38
000003c0: 7730 cab8 dabc b638 f810 09b9 fc2b e238
000003d0: 3a49 3d37 c06b 62b7 f255 8f37 083a 97b6
000003e0: 81e8 8db7 f367 0537 c3c8 2d38 9a6c b4b8
000003f0: 203f 4938 4096 2938 fa79 0cb8 04c1 0238
-4.0259465e-06 4.3416738e-05 -2.8681827e-05 1.1671682e-05 1.3954009e-05 -7.641428e-06 4.765752e-05 -2.225375e-05
-2.5782478e-05 -2.0459867e-05 6.875649e-05 -0.00017996237 4.4744174e-05 0.00020053911 -7.602503e-05 2.3852792e-05
9.8001165e-06 2.0890291e-05 -3.356993e-05 1.2087094e-05 4.8286525e-05 -2.3331651e-05 4.4665056e-05 -2.5456791e-05
-2.3741066e-05 -0.00010113625 0.00011167685 -0.00012233581 6.127781e-05 2.9743822e-05 5.857446e-05 -0.000107665015
5.0182076e-05 7.7109544e-05 -4.958744e-05 7.238001e-05 -8.137179e-05 6.400732e-05 1.703295e-05 -5.146003e-05
1.4111899e-05 -9.43001e-05 3.719502e-05 7.084933e-05 -3.7757356e-05 -1.3419503e-05 2.6324176e-05 4.3016066e-06
-3.173399e-05 1.1969645e-05 -7.3459078e-06 -2.3980218e-05 9.6953445e-06 1.5399024e-05 -7.692636e-06 -1.3662403e-05
6.604244e-06 -3.5194978e-07 -7.3538286e-06 1.13759115e-05 2.4991864e-06 4.1333253e-05 -2.363631e-06 -3.7550577e-05
2.1995389e-05 6.0852173e-05 -0.00021811535 7.065956e-05 0.00021786272 -9.415435e-05 -2.0067555e-05 9.708445e-05
-4.97836e-05 -2.8677487e-05 4.0623418e-05 -6.619091e-06 -2.0218507e-05 9.764554e-06 -8.386256e-06 -4.838865e-06
8.215311e-05 -0.00011796618 7.436834e-05 7.258834e-05 -7.42694e-05 1.680082e-05 -8.038148e-05 3.4610723e-05
3.7197802e-05 -3.4673096e-05 -0.00012026309 0.00011393498 -0.00015198065 8.419356e-05 2.2127251e-05 -0.00018662844
0.00015726674 -0.00022143121 0.00012524791 6.783421e-05 -6.5184063e-06 1.5334368e-05 5.3444535e-07 -3.6629513e-06
3.6305557e-06 1.1015875e-05 -2.2499675e-05 2.4349997e-06 2.517902e-05 -2.7940207e-06 9.16726e-06 2.3655628e-05
6.516153e-06 -4.260754e-05 1.3690519e-05 7.2780975e-05 -0.0001117866 3.6353602e-05 0.000117604155 -4.169357e-05
2.1791837e-05 -4.173927e-06 1.26801315e-05 -1.3805214e-05 -6.3795887e-06 3.7719892e-05 -6.0698727e-05 5.614271e-06
6.84189e-05 -3.170526e-05 1.5024219e-05 -5.7566594e-05 2.9263017e-05 2.029597e-05 -2.3455501e-05 2.5285804e-05
2.6382368e-05 -4.4705766e-06 -2.8390043e-06 -4.8602838e-06 5.513034e-06 9.242526e-06 -1.1310047e-05 7.5429746e-08
-2.975601e-06 1.5535907e-05 -8.4270345e-05 2.6896792e-05 7.1555405e-05 -3.2714135e-05 -9.16447e-05 0.00014199284
-0.0001436427 6.4986394e-05 6.0425802e-05 -5.7854895e-06 1.9054074e-05 8.502228e-06 -2.5656545e-05 1.0859537e-05
-7.83719e-05 7.638138e-05 -0.00013640398 0.00011671434 3.1408257e-05 -7.1664814e-05 0.00014269652 -9.74991e-05
-1.7007307e-05 7.886915e-05 5.7353373e-05 -0.00012726935 4.258288e-05 0.00012675638 -5.7691763e-05 -7.198621e-05
-3.4565328e-05 -1.3960366e-05 7.459541e-05 -3.959238e-06 9.1015085e-05 -9.886307e-05 8.6942935e-05 1.8289265e-05
-7.243698e-05 2.9188852e-05 -3.8720238e-05 2.0768419e-05 2.2755428e-05 -1.6749635e-05 4.4025768e-05 -7.772757e-05
3.42735e-05 6.38168e-05 -3.4054403e-05 -3.2385365e-06 -8.227679e-08 2.826578e-06 -2.4202182e-06 6.287974e-06
5.158036e-06 3.331232e-06 3.7224163e-06 -8.169555e-06 -1.8041803e-06 -2.7620554e-05 1.29754435e-05 -2.7273312e-05
1.027751e-05 -9.385282e-06 -6.951855e-05 5.4631186e-05 -5.8687638e-05 3.78882e-05 1.8092162e-05 -2.2391638e-05
1.9344912e-05 -2.1930882e-05 7.635599e-06 -1.8558438e-05 -3.322049e-05 6.458832e-05 -2.8202747e-05 -3.4487883e-05
1.48458e-05 5.7441207e-06 2.8524815e-05 2.5788502e-05 -5.0626393e-05 1.50087235e-05 -5.7539095e-05 0.00013539435
-2.86384e-05 -0.0001302463 6.225424e-05 -0.00015850955 0.00011165319 -0.00015125207 9.046359e-05 5.6306813e-05
-9.641138e-05 8.7136126e-05 -0.0001307166 0.000107847125 1.1282327e-05 -1.3495737e-05 1.708695e-05 -4.5069064e-06
-1.6916778e-05 7.95162e-06 4.1433388e-05 -8.6032975e-05 4.7980924e-05 4.043267e-05 -3.34922e-05 3.1174175e-05

exp_avg_sq f4 [128, 5]
00000000: 3098 4831 9414 b131 02e2 9f31 2a3d 9234
00000010: affc 4332 712c 8932 39b8 8e32 2d8e d932
00000020: 9a56 0436 a892 a333 5efa 1633 e7af 7d33
00000030: 4e93 ec32 8a71 2634 f725 2534 2032 8a31
00000040: 2d85 b931 d025 8831 8141 b933 0963 ac32
00000050: 80b3 dc31 c527 1132 e390 4232 36db 4235
00000060: bcbe 0e33 0562 a732 88f6 0533 2f5d c832
00000070: ceaa 7733 e9d1 b533 36f2 9732 9491 dc32
00000080: 99cb 8a32 e1fa 2434 1974 aa33 373c 1832
00000090: 3c27 8232 3e52 4532 5e45 a234 374f 4933
000000a0: 20f7 6332 7068 cd32 2280 4a32 5b29 5833
000000b0: cb44 3d33 2c13 1031 d868 5431 3d57 fc30
000000c0: 3fc4 e333 b6b9 3d32 6bfb c731 7e48 1532
000000d0: dfc5 bf31 189b a134 962e ee32 0e0a cc30
000000e0: 9a72 f930 4f0f d230 9d87 3a33 2bd5 1932
000000f0: 9a77 0032 d484 1d32 08e4 9731 4297 0934
00000100: 1ba7 df32 5fb7 8933 6be1 0434 4383 7033
00000110: 02ab 9234 721c 7e34 4b82 7932 64fd e232
00000120: 4fed 8f32 ca02 9133 b7d5 6633 b669 a931
00000130: 2291 f631 1a92 be31 c43e c434 d67a ad32
00000140: b240 a932 067d ec32 09cc 8b32 fb56 f533
00000150: 822d 7633 e2c1 9831 58b8 4132 58c1 a831
00000160: 8708 a532 74d3 1832 5599 c932 be98 0a33
00000170: ed97 0933 9bcb 7c33 b6aa c933 8811 e032
00000180: 2463 2733 3524 7133 fb74 a533 3cfc bd33
00000190: c8db 1f32 4df6 2732 3b8d 5832 485c af35
000001a0: 986f 3933 a9c5 df30 e90e 5a31 eaad 0531
000001b0: a24a bb32 bbac e231 4880 a331 35be e331
000001c0: f029 8231 8774 b632 09b8 9632 f59a 2532
000001d0: 5620 3e32 a3b8 d731 b432 1a33 2390 c332
000001e0: 5621 dd30 4c8f 0e31 136e 2d31 dd71 3334
000001f0: 177b ea31 056e 1231 4804 7731 2195 f030
00000200: 4579 2932 b42a fd31 8a40 6c32 3444 9832
00000210: ca6d 2d32 4d0b 9934 6b8b 8433 6cbf 3f32
00000220: 3df6 7432 c803 4632 f1b5 7b35 5272 5333
00000230: bd4f 8831 6057 a931 1fc8 2331 47f9 8832
00000240: b95a 8932 f8f6 2e33 f8ad 6333 68a3 d332
00000250: 3341 7434 9a70 3334 cbed b532 7cef 1933
00000260: dbe2 f032 d785 6733 1792 8633 e2e3 5431
00000270: 8a7b a631 4812 6631 3069 3f32 dfaa 6c32
00000280: d32c 0233 d45e 1e33 7ff0 f432 63e1 cf34
00000290: b855 0f34 f13d 9232 f79c 2233 100e cc32
000002a0: b612 8933 9b3f fd32 d29d cc32 8366 1533
000002b0: 3952 c632 ddfc fa33 45ad e733 cf47 7432
000002c0: fc66 dc32 b338 3732 5139 6233 57bd f632
000002d0: f8be 0632 768c 6532 2eff 5332 f51c cd32
000002e0: ea6b 9b32 942a 1131 2824 8e31 ee09 3731
000002f0: 8ac0 ed32 5638 5332 13a8 3a32 83f1 8232
00000300: 89a8 1832 e533 0734 6612 4e33 f184 ea30
00000310: ec99 ca30 178d 0e31 1683 1934 b777 0932
00000320: 55b8 0d30 13c6 6430 42a8 0431 464f 5e34
00000330: 8839 5a31 84df 3f32 5281 4a32 bf18 6e32
00000340: ac3c 7135 d585 6e33 7dda 8931 bc68 0a32
00000350: 3f75 d331 5fea 5932 8e4a 8732 a7ac 7f32
00000360: e460 5632 fe10 9632 1feb 9235 87bf 9333
00000370: d336 e331 4146 0932 0a6d b131 3354 8033
00000380: 8449 8e32 6dc5 0232 99d6 2032 163a e631
00000390: 5bea bb34 2f8d 1933 65e7 9e32 fb1a 0f33
000003a0: 61e3 9b32 c7c6 a733 b8f0 2c33 e238 8b32
000003b0: e62d e532 09a8 de32 ecdf 2d33 8734 6d33
000003c0: 6f96 e232 74de 0f33 11cc 1a33 63ca 8b35
000003d0: ae14 0d34 0690 f231 e8c8 1832 e3cf 5332
000003e0: 0d93 9a35 0a8c 2a33 b22f 1232 24b7 6832
000003f0: 17a6 0a32 f038 4d33 f1d8 1333 5a01 6432
2.919034e-09 5.1537175e-09 4.653203e-09 2.7239122e-07 1.14079475e-08 1.5969109e-08 1.661475e-08 2.5326779e-08
1.9719942e-06 7.6169556e-08 3.5152304e-08 5.9066135e-08 2.7541002e-08 1.550126e-07 1.5380634e-07 4.022027e-09
5.399349e-09 3.9624197e-09 8.626649e-08 2.0068471e-08 6.4232495e-09 8.449153e-09 1.132523e-08 7.2589626e-07
3.3235423e-08 1.9485933e-08 3.1190694e-08 2.332544e-08 5.7664515e-08 8.466652e-08 1.7688858e-08 2.5677572e-08
1.61579e-08 1.536496e-07 7.93736e-08 8.861256e-09 1.5151834e-08 1.1485609e-08 3.0225323e-07 4.6871005e-08
1.3269329e-08 2.3912634e-08 1.17870815e-08 5.032903e-08 4.406756e-08 2.0965656e-09 3.0909657e-09 1.8360208e-09
1.0606208e-07 1.1043474e-08 5.820245e-09 8.689424e-09 5.581327e-09 3.0101432e-07 2.7728031e-08 1.4845811e-09
1.8149706e-09 1.5283862e-09 4.342984e-08 8.954241e-09 7.477775e-09 9.168804e-09 4.4206026e-09 1.2814147e-07
2.6036608e-08 6.4129146e-08 1.2375465e-07 5.5998736e-08 2.7319044e-07 2.3665942e-07 1.4523333e-08 2.6425091e-08
1.6755306e-08 6.752596e-08 5.374542e-08 4.9305653e-09 7.176042e-09 5.5463376e-09 3.6553513e-07 2.019571e-08
1.970361e-08 2.753087e-08 1.6274514e-08 1.1424523e-07 5.7317727e-08 4.445824e-09 1.12759935e-08 4.911424e-09
1.9212406e-08 8.895643e-09 2.3469207e-08 3.2269547e-08 3.2035974e-08 5.88585e-08 9.390844e-08 2.6085004e-08
3.8972885e-08 5.6145115e-08 7.70469e-08 8.8468795e-08 9.3049906e-09 9.776682e-09 1.2604967e-08 1.3065373e-06
4.3175163e-08 1.6281564e-09 3.173165e-09 1.9452906e-09 2.1803604e-08 6.597103e-09 4.7585083e-09 6.6281935e-09
3.7882657e-09 2.1240579e-08 1.7545988e-08 9.639497e-09 1.1066808e-08 6.2783143e-09 3.5902033e-08 2.2766534e-08
1.6089341e-09 2.0745174e-09 2.5237383e-09 1.6712097e-07 6.82429e-09 2.1308335e-09 3.5945664e-09 1.7504683e-09
9.864668e-09 7.368124e-09 1.37516825e-08 1.7726144e-08 1.00948885e-08 2.8506693e-07 6.172089e-08 1.11611875e-08
1.4258657e-08 1.1525977e-08 9.3769546e-07 4.923124e-08 3.967186e-09 4.9284807e-09 2.3833377e-09 1.5945842e-08
1.5990155e-08 4.073715e-08 5.301078e-08 2.4637941e-08 2.274799e-07 1.6711638e-07 2.1179309e-08 3.58409e-08
2.804284e-08 5.3905605e-08 6.266435e-08 3.0979597e-09 4.8452806e-09 3.3479797e-09 1.114158e-08 1.377586e-08
3.030875e-08 3.6873487e-08 2.8514703e-08 3.8720745e-07 1.3349097e-07 1.7024805e-08 3.7861323e-08 2.375512e-08
6.382963e-08 2.9482e-08 2.3820494e-08 3.4785e-08 2.3087624e-08 1.1687528e-07 1.0788293e-07 1.4218997e-08
2.5658203e-08 1.0664894e-08 5.2671854e-08 2.8724271e-08 7.843248e-09 1.33614915e-08 1.2339838e-08 2.3878309e-08
1.8093449e-08 2.112448e-09 4.1368544e-09 2.663565e-09 2.7677988e-08 1.2294626e-08 1.0864841e-08 1.5243819e-08
8.885885e-09 1.2591734e-07 4.7979846e-08 1.7063525e-09 1.4741182e-09 2.074392e-09 1.4296924e-07 8.0016695e-09
5.155745e-10 8.3227397e-10 1.9304172e-09 2.07042e-07 3.1755878e-09 1.1168485e-08 1.17873515e-08 1.385905e-08
8.9867785e-07 5.5535413e-08 4.012064e-09 8.056471e-09 6.1542376e-09 1.2684352e-08 1.5749972e-08 1.488221e-08
1.247847e-08 1.7470025e-08 1.0946277e-06 6.8800595e-08 6.6128023e-09 7.990423e-09 5.1637743e-09 5.97578e-08
1.6564407e-08 7.611885e-09 9.36202e-09 6.7004846e-09 3.500198e-07 3.5751494e-08 1.8498847e-08 3.331932e-08
1.8147775e-08 7.812701e-08 4.0265803e-08 1.6207597e-08 2.6679981e-08 2.5920615e-08 4.0483357e-08 5.5228636e-08
2.6378272e-08 3.3497102e-08 3.6041516e-08 1.0415209e-06 1.3139172e-07 7.0595005e-09 8.893245e-09 1.2329084e-08
1.1516692e-06 3.9708574e-08 8.509163e-09 1.3545819e-08 8.070422e-09 4.7782066e-08 3.442341e-08 1.3271654e-08

exp_avg f4 [128]
00000000: 493a 0338 354a f238 1526 c8b9 f06b ad38
00000010: 2cd0 8638 d4a0 eeb6 b45a 35b9 644e 03b8
00000020: 3e0a 46b9 c115 7d38 0d18 7eb8 525e 35b6
00000030: 49f0 df38 857b ecb9 f800 2739 091e 20b8
00000040: 3350 e3b8 c61d f3b8 967b 99b8 617d 24b9
00000050: d63c 2a37 0607 25b8 b21c d738 b36c 62b9
00000060: 57c2 4638 0b9f f1b8 d5ed aeb8 aa93 c038
00000070: 641e fc37 129f 46b9 1700 b7b7 5dcb 1d38
00000080: f967 d7b8 e528 ca38 6593 86b9 5858 5db9
00000090: e98b 18b8 8365 32b8 3adc 0cb9 c2c5 06b5
000000a0: 400b be37 3388 0cb8 7a5c 67b8 2619 3b35
000000b0: f77d ac38 8b79 e738 233c 8139 eb63 09b9
000000c0: f676 90b8 9c0c ad37 0898 e6b8 de5d 0fb9
000000d0: a2b8 fa38 5e4c 1539 8422 e9b8 f86f d338
000000e0: db93 b337 d74f 3ab8 fa45 45b9 675a f6b8
000000f0: 349d afb8 dc4d 3fb9 94a3 4db9 f340 70b9
00000100: ca08 92b7 6357 3138 b934 7bb8 6f69 b139
00000110: c417 c538 0457 84b9 e23b af38 699f 2839
00000120: 3267 03b9 c1bb b1b8 53bd 90b9 48b6 1e38
00000130: 20f4 8038 cfb0 0338 4da1 76b8 e3e1 84b8
00000140: 5c8f 1ab9 332b fcb8 7aeb b138 6ac0 a738
00000150: d06d e6b8 8f0f 6fb8 63fc 3cb9 82c2 23b8
00000160: 5aeb a637 1f90 7838 266a 9eb8 2068 23b9
00000170: 2030 7eb9 f535 beb8 2ba4 29b9 c123 bf36
00000180: 9f34 d5b7 21f8 a8b7 65cf 21b9 9d77 ff37
00000190: 0d9e afb8 3757 e837 264c e8b8 ea41 aab8
000001a0: 9d6d 1139 7a87 37b7 570f 8138 72bf bcb8
000001b0: 16eb 40b9 77a3 08b9 4b5d e338 6f10 1cb9
000001c0: 98d3 a438 4a5b 4db9 32fc 81b8 0e31 a8b6
000001d0: 2082 5738 b4e2 16b9 4de3 5cb9 c972 40b9
000001e0: 4458 c6b8 77eb f3b7 3bfa c037 8436 c1b7
000001f0: 377e 9cb7 834c d3b8 306d aa38 9772 b9b8
3.1287116e-05 0.000115532814 -0.00038175346 8.269388e-05 6.428393e-05 -7.1116756e-06 -0.00017295295 -3.130584e-05
-0.00018886567 6.034016e-05 -6.0580718e-05 -2.7026003e-06 0.00010678225 -0.00045105457 0.00015926722 -3.8174945e-05
-0.00010839142 -0.00011592689 -7.318628e-05 -0.00015686966 1.0146954e-05 -3.9345607e-05 0.00010257344 -0.00021593533
4.738787e-05 -0.000115213996 -8.341266e-05 9.182778e-05 3.0054893e-05 -0.0001894201 -2.1815342e-05 3.7621114e-05
-0.00010271365 9.639728e-05 -0.0002566829 -0.00021109113 -3.6369926e-05 -4.2533047e-05 -0.00013433481 -5.0206665e-07
2.2655004e-05 -3.3505446e-05 -5.5160817e-05 6.9699524e-07 8.225062e-05 0.000110375775 0.00024649603 -0.0001310256
-6.888613e-05 2.0629079e-05 -0.00010995573 -0.00013672511 0.000119553195 0.00014238196 -0.00011116735 0.0001008212
2.1407313e-05 -4.4420212e-05 -0.00018813452 -0.00011747033 -8.3739316e-05 -0.00018244184 -0.00019611261 -0.00022912379
-1.7408649e-05 4.2281474e-05 -5.9892165e-05 0.00033838625 9.398119e-05 -0.00025241834 8.355804e-05 0.00016081113
-0.00012531577 -8.4749896e-05 -0.00027606878 3.7839898e-05 6.1489874e-05 3.13975e-05 -5.8801194e-05 -6.336325e-05
-0.0001473999 -0.00012024343 8.4838786e-05 7.9990205e-05 -0.00010987709 -5.699653e-05 -0.00018023099 -3.9043378e-05
1.9898336e-05 5.926203e-05 -7.553799e-05 -0.00015583681 -0.00024241256 -9.069956e-05 -0.00016178253 5.696406e-06
-2.5416082e-05 -2.0142705e-05 -0.00015431417 3.0454068e-05 -8.3740895e-05 2.7697168e-05 -0.00011076806 -8.118509e-05
0.00013869112 -1.0939193e-05 6.1540566e-05 -9.000198e-05 -0.00018398123 -0.00013030866 0.00010841581 -0.00014883441
7.859542e-05 -0.00019584331 -6.1981744e-05 -5.012501e-06 5.1381183e-05 -0.00014389568 -0.00021065511 -0.00018353308
-9.4578165e-05 -2.9077504e-05 2.3004706e-05 -2.3032779e-05 -1.8655423e-05 -0.000100755155 8.1265694e-05 -8.8428314e-05

exp_avg_sq f4 [128]
00000000: 7bc2 0333 3b2f e933 ad9f bd34 e8da 3033
00000010: 8c03 7633 d8e1 2c34 500c 2634 0f79 c633
00000020: e0a2 fe33 ce84 ca32 2d01 5633 120e 5732
00000030: 6c2d 7733 c1a8 2d35 c39f 1434 86e1 2533
00000040: 6cc8 1b34 ef43 4d33 d5c8 4634 73a7 7d34
00000050: c6a6 8733 7f65 8f32 f6d7 2333 5d8e 8d33
00000060: 9921 6f32 9f1b b532 e6c4 d833 8601 a133
00000070: 140d fe32 66a7 a334 5998 2934 bb0c fd32
00000080: 713c 8034 229f 1334 309f 6534 0939 fd33
00000090: 884d 6e33 9d7a b232 9900 c433 b726 2832
000000a0: f78d b031 68e0 a433 c308 1e33 a2fb b833
000000b0: 6e2d 2233 f14f 8f33 e10a 3534 2a76 1734
000000c0: 24f2 7934 5168 7333 462b 9b33 1c42 df33
000000d0: e8d2 1b34 b2a3 3f33 dfac a333 8447 ae33
000000e0: 3063 bd32 46b9 6434 0c6a be34 5148 7233
000000f0: 0937 6534 34bb 8334 1cef 3034 4395 1134
00000100: 120f 3333 d7c6 db33 0fc7 1334 6010 6a34
00000110: aafa a233 2bfe a934 6982 ae32 4202 3634
00000120: 0a9b c233 8026 cf33 5ebd b634 a75d 2134
00000130: 60e6 c333 762f 0034 3592 2a33 a578 5c33
00000140: 8e3a 8634 7532 2233 1e9e 6233 228c 3534
00000150: 3e25 4734 77f4 1134 e9ff cc34 72f6 0d32
00000160: 525c 2533 4f05 0b34 4e6c 8034 6310 3534
00000170: e4fe 9c34 4371 6c33 a086 fd33 4ef4 b932
00000180: b03b 9b33 82b9 9233 6d58 5933 088f c033
00000190: 1c23 5733 ea0d fa32 3e64 5c33 ef94 4633
000001a0: 4580 9533 12bc 7b33 3962 1c33 95ee 0434
000001b0: bc0b a934 7440 c033 481a 0634 0ba5 5534
000001c0: 1fa2 a933 9a97 9034 ef6b 8d33 0871 9a32
000001d0: adbf 5933 923c a334 d536 2634 20f5 e233
000001e0: 1ea5 8633 7315 f132 5009 3132 c804 d032
000001f0: 6b77 c833 74e1 a532 7090 5933 de18 e633
3.0677693e-08 1.0858499e-07 3.5320173e-07 4.1177287e-08 5.7279564e-08 1.610091e-07 1.5464434e-07 9.242114e-08
1.18574235e-07 2.3576288e-08 4.9826827e-08 1.2517846e-08 5.755048e-08 6.469309e-07 1.3841695e-07 3.862217e-08
1.4508413e-07 4.7792067e-08 1.8513249e-07 2.3623379e-07 6.316763e-08 1.6693546e-08 3.814781e-08 6.59172e-08
1.391927e-08 2.1083734e-08 1.00940994e-07 7.497424e-08 2.9575439e-08 3.0482914e-07 1.5794775e-07 2.9458866e-08
2.3885835e-07 1.3748334e-07 2.1385199e-07 1.1791605e-07 5.5484207e-08 2.0777685e-08 9.12707e-08 9.78769e-09
5.1384137e-09 7.6776644e-08 3.679521e-08 8.6139394e-08 3.7759882e-08 6.673498e-08 1.6860896e-07 1.4105959e-07
2.3278022e-07 5.667272e-08 7.225621e-08 1.0396272e-07 1.4512227e-07 4.4619533e-08 7.621724e-08 8.115515e-08
2.2047601e-08 2.1301557e-07 3.5467417e-07 5.6410787e-08 2.1347309e-07 2.453686e-07 1.6478265e-07 1.3558478e-07
4.169039e-08 1.0234151e-07 1.3762859e-07 2.1798905e-07 7.5893084e-08 3.1663635e-07 2.031557e-08 1.6950892e-07
9.0620304e-08 9.646192e-08 3.4037924e-07 1.5028364e-07 9.1223e-08 1.1938195e-07 3.9714184e-08 5.1332467e-08
2.500205e-07 3.7764455e-08 5.2763532e-08 1.6907919e-07 1.8546868e-07 1.3593113e-07 3.818416e-07 8.263315e-09
3.850102e-08 1.2947315e-07 2.392066e-07 1.68629e-07 2.9242722e-07 5.5051043e-08 1.1805719e-07 2.1647931e-08
7.228607e-08 6.8323985e-08 5.0604672e-08 8.966714e-08 5.009052e-08 2.9110158e-08 5.131391e-08 4.623592e-08
6.961685e-08 5.861154e-08 3.6410913e-08 1.2380254e-07 3.148724e-07 8.952421e-08 1.2489284e-07 1.9897213e-07
7.8991654e-08 2.6932395e-07 6.585457e-08 1.797936e-08 5.0698578e-08 3.0405187e-07 1.5479903e-07 1.0568533e-07
6.269896e-08 2.8065847e-08 1.0304873e-08 2.4216561e-08 9.334948e-08 1.9311052e-08 5.0655615e-08 1.0714733e-07
