results/many1/Romba.onnx (onnx, 76119 bytes, 6 tensors)

network_body._body_endoder.seq_layers.0.weight f4 [128, 5]
-0.55887705 -0.34676072 -0.2690263 0.951155 -0.3528717 0.35683638 0.8313639 -0.6260295
0.0031130172 -0.44447976 0.40632775 -0.7730779 -0.11225732 0.2751255 -0.4039333 -0.4525842
0.59861624 0.5203229 0.76542366 1.2230598 0.15055487 -0.2810508 -1.1770625 1.3780737
0.44742742 0.19220696 -0.8111659 0.88589746 0.96508735 -0.83676904 0.08945535 -0.6575105
-0.5092164 0.20301779 -0.26241174 -0.515769 0.6091882 0.48544148 -0.37267447 0.38023534
-0.5729775 0.911958 -0.49553213 0.005173446 0.87555945 -1.0360756 -0.020552333 0.9031417
0.26649925 -0.20381011 -0.25116912 -0.04632214 -0.039203275 -0.118486665 -0.53325695 -0.32495654
-0.43542558 -0.23127659 0.3115575 0.11878652 -0.73475784 -0.009744342 -0.20447958 0.93489456
0.3816382 0.8796885 1.2658141 0.41883552 0.14968453 -0.16167001 0.015255192 -0.42560726
0.8209745 -0.97456557 0.5953367 0.051821593 -0.5748981 0.52711666 0.05113834 0.30495334
-0.21681054 -0.56766975 -0.70528895 0.25420842 -0.20321447 0.15977356 0.11828187 -0.5847977
-0.35921866 0.031127142 -0.31181335 -0.18061012 0.059968762 -1.098666 -0.93279004 -0.14753957
-0.9325835 -0.22053567 0.5388588 0.0667613 0.053131543 0.27677768 0.034732036 0.29877958
-0.56835103 0.08749429 -0.082255445 0.8023574 0.16618936 -0.050486837 0.13312091 -0.30331343
-0.18890968 -0.124434665 -0.4439934 -0.71345216 -0.12097568 0.0404779 -0.35741305 0.82736355
0.46486607 0.23998298 -0.32487413 -0.14730112 -0.5026513 0.060915936 -0.6397075 0.24098809
1.1813204 0.30102074 0.7333545 -0.6516214 -0.7500825 0.24941075 0.8838701 -0.031499248
-0.62445015 -0.37682733 -0.6841736 -0.3385368 0.38549572 0.84428227 -0.12862328 0.6103234
-0.18958965 -0.35529882 -0.18360567 0.70411885 0.119573526 -1.1614646 0.03263788 -0.33123365
0.2917166 0.09921382 -1.1920229 0.32906792 -0.38854998 -0.18038413 -0.03219401 0.681312
0.5461796 0.44167638 -0.5696277 0.2344322 -0.67534834 -0.089683294 0.268022 -0.40996572
-0.6237031 -0.13511927 -0.4478216 0.5078051 0.018834539 0.33760187 0.3411082 -0.36345848
0.008569012 0.175888 -0.5876902 -0.37263942 0.96792716 0.08191214 -0.35199288 0.02258538
0.70646995 -0.8804315 0.20686832 -0.39779916 -0.21864702 -0.28524062 -0.6566931 0.3904268
-0.22558509 0.050415117 -0.0019944406 0.15890579 -0.16656695 -0.17223462 0.3250603 -0.14254126
-0.6363684 -0.40586329 0.7296702 -0.90935886 -0.012587684 0.9191807 0.91373146 -0.5388399
0.24707316 -0.190729 0.8461235 -0.16341308 -0.22872634 0.77348804 0.276321 0.07926798
0.6481563 0.17579561 -0.5724493 -0.030202523 -0.42661744 -0.27497023 0.10820465 -0.2899751
0.7177674 0.13092536 -0.050847575 -0.5853713 -0.084596194 0.43451887 -1.0842834 0.049589667
0.584644 -0.1431351 -0.023979202 -0.52641445 0.37637866 0.2873494 -0.11421603 -0.05700416
0.7611114 -0.40011007 -0.7125497 1.3411047 0.096797965 0.3910028 -0.66611564 -0.55949664
0.24060239 -0.55827737 -0.055493403 0.9077835 -0.6093434 -0.1624615 -0.79049426 0.008118462
00000000: 9112 0fbf 9f8a b1be d1bd 89be e57e 733f
00000010: 99ab b4be 42b3 b63e 44d4 543f 7843 20bf
00000020: c303 4c3b da92 e3be 310a d03e 6fe8 45bf
00000030: 2ae7 e5bd 40dd 8c3e 58d0 cebe 1eb9 e7be
00000040: ea3e 193f e233 053f cef2 433f 398d 9c3f
00000050: 0e2b 1a3e e4e5 8fbe fca9 96bf b864 b03f
00000060: 3515 e53e e7d1 443e 92a8 4fbf 2dca 623f
00000070: f70f 773f 7f36 56bf 5e34 b73d 9c52 28bf
00000080: 025c 02bf e5e3 4f3e d55a 86be 7009 04bf
00000090: c2f3 1b3f c98b f83e 30cf bebe 35ae c23e
000000a0: a7ae 12bf 1476 693f 63b6 fdbe 0386 a93b
000000b0: aa24 603f 209e 84bf 5e5d a8bc 4b34 673f
000000c0: 9772 883e 99b3 50be 3d99 80be 49bc 3dbd
000000d0: 9d93 20bd 23a9 f2bd 8783 08bf b460 a6be
000000e0: 1af0 debe c5d3 6cbe 7784 9f3e 5946 f33d
000000f0: 1719 3cbf bca6 1fbc 1863 51be 4055 6f3f
00000100: 1566 c33e 4433 613f 3206 a23f 9c71 d63e
00000110: e746 193e d38c 25be eaf0 793c 32e9 d9be
00000120: 632b 523f 217d 79bf fc67 183f e142 543d
00000130: 862c 13bf 1ef1 063f 7076 513d d822 9c3e
00000140: 9503 5ebe ce52 11bf d18d 34bf 9b27 823e
00000150: 7417 50be ae9b 233e c43d f23d 4db5 15bf
00000160: 82eb b7be 59fe fe3c 00a6 9fbe dcf1 38be
00000170: cea1 753d 16a1 8cbf 54cb 6ebf 9d14 17be
00000180: cbbd 6ebf 1ad4 61be a6f2 093f 26ba 883d
00000190: 76a0 593d ceb5 8d3e 2e43 0e3d a3f9 983e
000001a0: 747f 11bf 3530 b33d 8b75 a8bd 4b67 4d3f
000001b0: 8b2d 2a3e 49cb 4ebd d950 083e e64b 9bbe
000001c0: 8a71 41be 9ad7 febd 1a53 e3be cda4 36bf
000001d0: 19c2 f7bd 28cc 253d d8fe b6be 19ce 533f
000001e0: ed02 ee3e 19be 753e e755 a6be 1bd6 16be
000001f0: c1ad 00bf fd82 793d dfc3 23bf 95c5 763e
00000200: 8235 973f 641f 9a3e 1fbd 3b3f a9d0 26bf
00000210: 6805 40bf 8865 7f3e 5045 623f 5b05 01bd
00000220: f7db 1fbf 83ef c0be 0026 2fbf b254 adbe
00000230: b25f c53e e222 583f d2b5 03be 283e 1c3f
00000240: ca23 42be bae9 b5be 2003 3cbe 2241 343f
00000250: f7e2 f43d dfaa 94bf 4caf 053d 7597 a9be
00000260: e15b 953e 9e30 cb3d 3594 98bf 977b a83e
00000270: 06f0 c6be 9eb6 38be dedd 03bd 776a 2e3f
00000280: 6dd2 0b3f 6823 e23e 1fd3 11bf ff0e 703e
00000290: a1e3 2cbf e0ab b7bd 2e3a 893e 07e7 d1be
000002a0: 02ab 1fbf b55c 0abe df48 e5be 84ff 013f
000002b0: e44a 9a3c 27da ac3e bca5 ae3e 3b17 babe
000002c0: 0b65 0c3c fc1b 343e dd72 16bf 98ca bebe
000002d0: 13ca 773f 8dc1 a73d 6938 b4be fa04 b93c
000002e0: 37db 343f f563 61bf 4ad5 533e 55ac cbbe
000002f0: 01e5 5fbe 0f0b 92be 0a1d 28bf 06e6 c73e
00000300: c7ff 66be 1580 4e3d 29b5 02bb 33b8 223e
00000310: 8790 2abe 465e 30be 4e6e a63e 56f6 11be
00000320: 0ae9 22bf 50cd cfbe abcb 3a3f becb 68bf
00000330: 933c 4ebc 6d4f 6b3f 4eea 693f 69f1 09bf
00000340: bf00 7d3e 774e 43be 8d9b 583f c255 27be
00000350: 3d37 6abe 5003 463f f279 8d3e 4057 a23d
00000360: 92ed 253f c403 343e 0a8c 12bf 486b f7bc
00000370: 9a6d dabe e6c8 8cbe 669a dd3d 9e77 94be
00000380: 9bbf 373f 4c11 063e 8c45 50bd e5da 15bf
00000390: c540 adbd 4279 de3e ccc9 8abf 891e 4b3d
000003a0: 3bab 153f 0292 12be 0870 c4bc 19c3 06bf
000003b0: b4b4 c03e 761f 933e 18ea e9bd 327d 69bd
000003c0: 32d8 423f 3adb ccbe a869 36bf 52a9 ab3f
000003d0: 033e c63d 8531 c83e 8e86 2abf 2c3b 0fbf
000003e0: 7960 763e 44eb 0ebf 0d4d 63bd 8064 683f
000003f0: eefd 1bbf 4f5c 26be d55d 4abf 4c03 053c

network_body._body_endoder.seq_layers.0.bias f4 [128]
0.03256904 0.045240123 0.046429444 0.1357674 0.08075703 -0.021147583 0.10106017 0.0402666
0.13470612 -0.013920847 0.0014807204 0.022399586 0.050909095 0.057614703 0.04093192 -0.07650673
0.044096153 0.07625214 0.060699243 0.07906752 0.08663592 -0.038371406 -0.05853047 0.11784624
0.06512234 0.11623146 0.1332888 0.099507816 0.032688063 0.075394556 0.02984069 0.15252668
-0.005487468 0.061423305 0.17565669 0.054277945 0.06724875 0.02171768 0.05271838 -0.0022800313
0.07732491 0.07857197 0.09067505 0.041115902 0.05588209 0.08774102 0.04682357 -0.027771963
0.24477223 0.032335717 0.06501332 -0.06644462 0.06959865 0.056397565 -0.014192418 0.054918848
0.0501387 0.021009885 0.12496518 -0.011399981 0.07719456 0.05221379 -0.054385144 0.0023586904
0.041010626 0.14301303 0.13118675 0.040091623 0.1271859 0.036288302 0.1472393 0.07570497
0.022474382 0.09881513 0.042899154 0.023092492 0.12312415 0.05694533 0.047258567 0.017735133
0.08864775 0.0056308205 0.06983683 0.043954782 0.094925076 0.15929654 0.052737 0.019734526
0.052443933 -0.03689304 0.093710095 0.13401079 0.0030812682 0.034104172 0.09148353 0.16237056
0.08327565 -0.0026333183 0.06602529 0.0064724563 0.05007064 0.08385003 -0.1323122 0.09548084
-0.060644098 0.09088954 0.16339222 0.0436421 0.024063302 0.08794748 0.13608338 0.068033315
0.08039974 0.014912833 0.05415364 0.028098812 0.10214483 -0.053430937 0.04816351 0.03939494
0.07816627 0.028756408 -0.0029821934 0.061966963 0.022689069 0.08980306 0.101407245 0.10357257
00000000: 1d67 053d b54d 393d cd2c 3e3d 9c06 0b3e
00000010: f163 a53d b23d adbc a2f8 ce3d 97ee 243d
00000020: 67f0 093e 4414 64bc bb14 c23a 567f b73c
00000030: 0e86 503d 65fd 6b3d 3ba8 273d 8faf 9cbd
00000040: 2b9e 343d 152a 9c3d c59f 783d 27ee a13d
00000050: 2c6e b13d 562b 1dbd a5bd 6fbd 5f59 f13d
00000060: dd5e 853d c20a ee3d dc7c 083e c1ca cb3d
00000070: ebe3 053d 7668 9a3d 7674 f43c f42f 1c3e
00000080: 38d0 b3bb 0197 7b3d 59df 333e 8d52 5e3d
00000090: b6b9 893d 47e9 b13c 3aef 573d 946c 15bb
000000a0: 865c 9e3d 57ea a03d d7b3 b93d 2669 283d
000000b0: 9ee4 643d 90b1 b33d 12ca 3f3d 0782 e3bc
000000c0: 92a5 7a3e 7572 043d b425 853d 1e14 88bd
000000d0: bd89 8e3d 2201 673d 5187 68bc 96f2 603d
000000e0: 3d5e 4d3d ec1c ac3c bfed ff3d fcc6 3abc
000000f0: 2e18 9e3d 21de 553d f5c2 5ebd 4294 1a3b
00000100: c2fa 273d 0272 123e d255 063e 1d37 243d
00000110: 053d 023e 0ba3 143d e6c5 163e 350b 9b3d
00000120: 321c b83c 965f ca3d 06b7 2f3d 772c bd3c
00000130: 8428 fc3d 823f 693d 3392 413d 4549 913c
00000140: f48c b53d bf82 b83b 9d06 8f3d ee09 343d
00000150: 1468 c23d a21e 233e c102 583d 4daa a13c
00000160: 73cf 563d 281d 17bd 14eb bf3d 203a 093e
00000170: 1aef 493b d1b0 0b3d b85b bb3d 7844 263e
00000180: 6d8c aa3d c093 2cbb 4438 873d e616 d43b
00000190: df16 4d3d 91b9 ab3d d97c 07be 758b c33d
000001a0: f265 78bd 4c24 ba3d 4a50 273e 0fc2 323d
000001b0: 6720 c53c cf1d b43d 7159 0b3e 0d55 8b3d
000001c0: 9ea8 a43d f554 743c 35d0 5d3d 7b2f e63c
000001d0: 4f31 d13d 66da 5abd 1a47 453d 975c 213d
000001e0: a315 a03d 8f92 eb3c e770 43bb 12d1 7d3d
000001f0: 6dde b93c abea b73d 9aae cf3d db1d d43d

network_body._body_endoder.seq_layers.2.weight f4 [128, 128]
-0.15013944 0.0028166743 -0.012975954 0.09685243 0.03181867 -0.120300554 -0.028543936 -0.055454466
-0.05679405 -0.23501457 -0.1300789 -0.031161359 0.10041523 0.0785562 -0.073356375 0.06076566
-0.15377648 -0.085340224 -0.1152821 -0.082033746 -0.10709193 0.07631802 -0.029995037 -0.0068558403
-0.10849168 -0.07470436 0.107396156 0.04757641 0.070177324 0.091202036 -0.16502695 0.058050595
-0.015788434 -0.20525682 -0.018963544 -0.011509712 0.25887874 -0.16060916 -0.10866111 -0.022152957
0.10077024 0.12272723 0.08089576 0.0049248133 -0.044850353 -0.074706055 -0.0014696318 0.09871103
0.12466785 0.06209951 -0.031148728 0.07297528 0.030758819 -0.22212318 0.086879745 0.04848063
0.088753566 0.16215953 -0.041948322 0.1882753 0.20130092 0.07291953 -0.042478133 0.0053368052
-0.01588903 0.15596157 -0.0094238045 -0.16924334 0.26587054 0.11269092 0.08281652 0.18422927
0.18956374 0.02852654 -0.037805974 -0.013152971 0.085858956 -0.036871783 -0.010254556 -0.052633315
0.08315396 -0.13052233 -0.04127582 0.048063613 -0.08332663 0.053631384 -0.013590059 0.14927843
0.15419443 -0.08959434 0.1489103 0.16138865 0.0025039406 -0.0018845929 -0.1168343 0.13052203
0.001199255 0.030206252 0.1767003 0.071888 0.03776372 -0.063398845 -0.05628979 0.15696546
0.07975767 0.053052936 0.06718352 -0.12859643 0.03567935 0.024995059 0.16341114 -0.095250145
0.004185414 -0.12510243 0.01225717 0.088437155 0.018163674 -0.15366878 -0.005252057 -0.15565465
-0.0775331 -0.111745335 0.06398768 0.03655352 0.02783184 -0.09245764 0.24261566 0.23260123
0.05342786 0.09014733 -0.06137778 0.17107219 0.08632999 0.05014991 0.10605082 0.0014169088
0.06535602 -0.18665776 -0.089735195 -0.0541321 -0.19334792 -0.024316864 -0.015998712 -0.08836326
-0.049002033 0.09745658 0.04712184 0.031218525 0.13719678 0.014994403 0.05152996 0.13367529
0.10789942 0.006846005 0.10548549 0.11290857 -0.078584805 -0.031318314 -0.05409927 0.18646654
-0.0919007 0.08687011 0.10026278 0.19172788 0.027061969 -0.13944785 0.0036074426 -0.0008631367
-0.089358926 0.18379769 0.061447732 0.028638411 0.03336488 0.026651407 -0.052700616 -0.043590546
0.020840332 -0.037543494 0.18690902 -0.20757775 0.12569396 0.18753067 0.11926276 0.032025915
0.0106511535 0.07012176 -0.019251293 0.11086085 0.11585893 0.14161614 -0.06930041 -0.09754255
0.026173286 0.103877604 0.14932966 0.05088126 0.2118476 -0.10232965 0.04956272 0.11036736
0.05948523 0.12127162 0.030095443 0.09152098 0.18940994 0.04673328 -0.028948361 -0.012418136
-0.015801737 0.075096436 -0.07612053 0.025900135 0.10648237 0.027678564 0.11538527 0.11148873
0.12478043 -0.10362189 0.16168164 0.020750245 -0.052343674 0.012825998 0.022886438 0.15237573
0.18098828 -0.14495823 -0.060101964 0.040469468 0.07673306 0.0002621711 -0.03384018 0.24927014
-0.021570975 -0.09698343 -0.051893007 -0.028868623 0.09741776 0.1652422 -0.067539096 0.067508094
0.26820102 -0.17425789 0.023604507 0.053111795 0.017225636 -0.122663036 -0.122628376 0.07891123
0.089359686 0.054895207 -0.16559038 -0.022178171 0.05302664 0.12822764 -0.0023232552 0.1681886
00000000: 27be 19be f497 383b 1999 54bc 915a c63d
00000010: 4b54 023d 2360 f6bd f9d4 e9bc 3924 63bd
00000020: e1a0 68bd a9a7 70be 6733 05be 1b46 ffbc
00000030: 80a6 cd3d 13e2 a03d de3b 96bd 6ae5 783d
00000040: 9577 1dbe dbc6 aebd 0619 ecbd 4f01 a8bd
00000050: 0453 dbbd 9f4c 9c3d 27b8 f5bc f5a6 e0bb
00000060: e330 debd 99fe 98bd 84f2 db3d 7bdf 423d
00000070: 21b9 8f3d 22c8 ba3d d3fc 28be 76c6 6d3d
00000080: bf56 81bc d82e 52be 6f59 9bbc 3b93 3cbc
00000090: c18b 843e ba76 24be b789 debd 1e7a b5bc
000000a0: a160 ce3d 6a58 fb3d adac a53d 5460 a13b
000000b0: 01b5 37bd 7dff 98bd a9a0 c0ba 0229 ca3d
000000c0: dc51 ff3d 0e5c 7e3d 9e2b ffbc 1074 953d
000000d0: ebf9 fb3c 4274 63be 02ee b13d a093 463d
000000e0: 6ec4 b53d 260d 263e 01d2 2bbd 3ecb 403e
000000f0: d421 4e3e d656 953d 8dfd 2dbd 5ee0 ae3b
00000100: b629 82bc 64b4 1f3e 4d66 1abc 204e 2dbe
00000110: 2f20 883e 7fca e63d b59b a93d 99a6 3c3e
00000120: ff1c 423e 7eb0 e93c 70da 1abd 8f7f 57bc
00000130: d2d6 af3d de06 17bd ba02 28bc 0896 57bd
00000140: a04c aa3d a5a7 05be d610 29bd 5ade 443d
00000150: 27a7 aabd 95ac 5b3d d7a8 5ebc 72dc 183e
00000160: 25e5 1d3e 3d7d b7bd f17b 183e 1143 253e
00000170: 2719 243b 7204 f7ba d246 efbd 91a7 053e
00000180: 5230 9d3a 1a73 f73c ecf0 343e 043a 933d
00000190: 21ae 1a3d 41d7 81bd 1f90 66bd 8ebb 203e
000001a0: fd57 a33d 094e 593d 8397 893d c8ae 03be
000001b0: 8324 123d 70c2 cc3c 4055 273e 8212 c3bd
000001c0: cc25 893b da1a 00be 4cd2 483c 8a1e b53d
000001d0: fccb 943c 595b 1dbe 7319 acbb ef63 1fbe
000001e0: adc9 9ebd bdda e4bd f90b 833d 25b9 153d
000001f0: 99ff e33c 6e5a bdbd 3d70 783e 042f 6e3e
00000200: 2cd7 5a3d 2a9f b83d 4467 7bbd 8c2d 2f3e
00000210: c7cd b03d fe69 4d3d 2c31 d93d 92b7 b93a
00000220: 61d9 853d 3623 3fbe 16c7 b7bd 9fb9 5dbd
00000230: fffc 45be 2934 c7bc bb0f 83bc ccf7 b4bd
00000240: 5bb6 48bd 5197 c73d d502 413d febd ff3c
00000250: 507d 0c3e 16ab 753c 1411 533d 2de2 083e
00000260: 5ffa dc3d 7454 e03b c708 d83d 9c3c e73d
00000270: 12f1 a0bd a247 00bd 3297 5dbd 16f1 3e3e
00000280: 6f36 bcbd f5e8 b13d 9356 cd3d 5054 443e
00000290: 10b1 dd3c 6bcb 0ebe d86a 6c3b 2044 62ba
000002a0: d001 b7bd 7635 3c3e 9eb0 7b3d 1a9b ea3c
000002b0: 9da9 083d 0d54 da3c 9adc 57bd 008c 32bd
000002c0: 58b9 aa3c 35c7 19bd 1465 3f3e 438f 54be
000002d0: ebb5 003e 0a08 403e 0940 f43d 9b2d 033d
000002e0: 2d82 2e3c ff9b 8f3d e3b4 9dbc 030b e33d
000002f0: 7247 ed3d d203 113e 60ed 8dbd 63c4 c7bd
00000300: 5c69 d63c c8bd d43d e0e9 183e de68 503d
00000310: 94ee 583e 3592 d1bd 4702 4b3d 4808 e23d
00000320: c9a6 733d 415d f83d b88a f63c 5a6f bb3d
00000330: aef4 413e 656b 3f3d 1d25 edbc 7075 4bbc
00000340: a572 81bc 29cc 993d 15e5 9bbd 852c d43c
00000350: 6e13 da3d 28be e23c 1d4f ec3d 3454 e43d
00000360: e28c ff3d b737 d4bd df8f 253e 6bfc a93c
00000370: 5266 56bd 2224 523c 577c bb3c 6208 1c3e
00000380: fe54 393e ee6f 14be 7a2d 76bd 50c3 253d
00000390: 3926 9d3d 0274 8939 009c 0abd ac40 7f3e
000003a0: 9db5 b0bc 409f c6bd c38d 54bd e47d ecbc
000003b0: f682 c73d 4035 293e f051 8abd af41 8a3d
000003c0: a551 893e a970 32be 3d5e c13c c18b 593d
000003d0: c71c 8d3c c236 fbbd 9624 fbbd 369c a13d
000003e0: 3602 b73d ccd9 603d 8690 29be ffae b5bc
000003f0: 7632 593d 1b4e 033e c141 18bb a239 2c3e

network_body._body_endoder.seq_layers.2.bias f4 [128]
0.07605139 0.13390802 0.06369528 0.016930494 0.083701946 0.0543489 -0.013570168 -0.06249127
0.07713273 -0.002200551 -0.03041413 0.16681819 0.027644787 -0.0470297 0.0035037848 0.013069814
0.0982311 0.066283144 0.102757044 0.08730734 -0.020937297 0.004595831 -0.017966619 0.15301391
0.048129648 0.06637852 0.07031461 0.018052295 0.10242786 -0.0025874528 0.035270542 0.03618849
0.15143575 -0.0022229275 0.118708394 -0.038554784 -0.026056927 -0.014704345 0.10911425 -0.039086837
-0.027370356 0.030603528 0.053747077 -0.04004295 0.041534986 0.0068244585 -0.08258616 0.09565527
-0.013224182 0.07642926 -0.06883611 -0.05624482 0.13814132 0.016012767 0.10919328 0.10016171
0.123498015 -0.032290857 0.058505353 0.020892924 -0.047504004 0.031070275 0.111222364 -0.011125107
0.03921754 0.08402337 0.03638578 0.06961655 0.049047384 0.009060827 -0.00873582 0.1445882
0.11585165 0.04720975 0.016697448 0.12929435 -0.022294832 0.053206794 0.1564851 0.05050526
0.064592056 -0.04442639 0.043128982 -0.028699901 0.003658313 -0.035322577 0.14059952 0.019738508
0.016323976 -0.05623555 0.04991581 0.057928696 -0.06889898 0.081214346 -0.06902792 0.06724577
0.14037555 0.12825471 -0.007687714 2.0311707e-05 -0.04391208 0.011281675 0.08115378 0.055185664
0.046280198 0.059133586 0.084766075 0.17192437 0.09057471 0.0059695747 0.02022445 0.060694743
0.023837918 -0.02437988 0.03601572 -0.023181397 0.016427528 -0.08599528 -0.021485304 0.08354495
-0.029347865 -0.021590855 0.08121143 0.04277221 0.031771187 -0.008838237 0.09511988 0.009282401
00000000: d5c0 9b3d 2f1f 093e ac72 823d d2b1 8a3c
00000010: ed6b ab3d f49c 5e3d 6955 5ebc d9f6 7fbd
00000020: c4f7 9d3d 1f37 10bb 0e27 f9bc 63d2 2a3e
00000030: 5277 e23c 37a2 40bd c19f 653b c622 563c
00000040: 632d c93d 75bf 873d 4972 d23d 31ce b23d
00000050: b284 abbc a098 963b bb2e 93bc aeaf 1c3e
00000060: 9823 453d 76f1 873d 1b01 903d 68e2 933c
00000070: b3c5 d13d 4192 29bb d877 103d 623a 143d
00000080: f911 1b3e 89ae 11bb 631d f33d 9feb 1dbd
00000090: 5675 d5bc 7eea 70bc 4b77 df3d 8519 20bd
000000a0: cc37 e0bc 40b4 fa3c e525 5c3d 1404 24bd
000000b0: 9720 2a3d b59f df3b ef22 a9bd e9e6 c33d
000000c0: 3daa 58bc f286 9c3d f2f9 8cbd f860 66bd
000000d0: eb74 0d3e 352d 833c baa0 df3d 9521 cd3d
000000e0: 87ec fc3d 6b43 04bd 4fa3 6f3d a327 ab3c
000000f0: 8f93 42bd 1787 fe3c 8dc8 e33d 1546 36bc
00000100: 92a2 203d 7214 ac3d 4109 153d 1f93 8e3d
00000110: e9e5 483d dd73 143c af20 0fbc ee0e 143e
00000120: a143 ed3d 035f 413d 16c9 883c bd65 043e
00000130: a7a3 b6bc 5eef 593d a13d 203e 9ade 4e3d
00000140: d748 843d 72f8 35bd 04a8 303d 0e1c ebbc
00000150: 4fc0 6f3b 68ae 10bd 52f9 0f3e a7b2 a13c
00000160: dcb9 853c 4057 66bd 8574 4c3d a446 6d3d
00000170: e91a 8dbd b553 a63d 835e 8dbd 26b8 893d
00000180: 9cbe 0f3e 3455 033e 38e9 fbbb 0f63 aa37
00000190: 27dd 33bd c6d6 383c f433 a63d 5d0a 623d
000001a0: 4e90 3d3d 0f36 723d d699 ad3d f10c 303e
000001b0: 3c7f b93d 6c9c c33b bfad a53c 0d9b 783d
000001c0: bd47 c33c 50b8 c7bc 3885 133d eae6 bdbc
000001d0: 0693 863c 4b1e b0bd f301 b0bc 9d19 ab3d
000001e0: ef6a f0bc 4edf b0bc 2e52 a63d ea31 2f3d
000001f0: 8122 023d 41ce 10bc 36ce c23d 3615 183c

action_model._discrete_distribution.branches.0.weight f4 [4, 128]
-0.031690154 -0.069712065 0.01693649 -0.03294153 -0.029474795 -0.019672092 -0.029629318 0.057355415
-0.075872056 0.024814393 0.038975608 -0.08350747 0.018167516 0.024177827 -0.0009434584 -0.009782599
-0.06526556 -0.00925349 -0.008930904 -0.03333127 0.001010731 -0.03732115 0.0145668825 -0.06774399
-0.042538073 -0.05647922 -0.020416537 -0.01610976 -0.061095778 0.00667407 -0.055588987 0.0063035656
-0.07181015 -0.03409974 -0.076875106 0.038772617 0.029711181 -0.03575294 -0.062749624 0.0218303
0.012937981 -0.05488133 -0.021441728 0.016681664 -0.062679864 -0.027805625 0.07617943 -0.05089935
0.013031904 -0.015923707 0.056166954 0.018380614 -0.03949275 -0.057927214 -0.027901862 -0.018672373
-0.06262983 -0.002352609 -0.05333761 0.025064172 0.022443898 -0.010746437 -0.051752537 -0.043145407
-0.013318829 -0.017321214 -0.052239586 0.0030149627 -0.0296746 -0.0042865896 0.0013307172 -0.07642324
-0.070139065 -0.033699717 -0.026500773 -0.055566285 0.03190547 -0.043511674 -0.064018406 -0.0651096
-0.022460304 0.037987065 -0.02125901 0.029169856 -0.04046065 0.010636645 -0.08126717 -0.067470044
-0.04457966 0.059538625 -0.050862208 -0.033906475 0.09166666 -0.093307346 0.08477594 -0.0425575
-0.07302261 -0.04190216 -0.04757919 -0.02737203 -0.0027770693 -0.035988975 -0.02926946 -0.030407092
-0.073914014 -0.013496608 -0.026264831 -0.06868388 -0.040581305 -0.041666616 -0.052726176 0.0071638343
-0.035118155 0.023562655 -0.05217541 -0.015491262 -0.064547844 0.08090946 0.042905997 -0.040973697
0.027203517 -0.010627673 -0.009628992 0.007734951 -0.023495805 0.041120674 -0.07193957 -0.03416914
0.049802784 0.08995131 -0.032921966 0.021904284 -0.01573999 0.10861284 0.05389531 -0.06871686
0.09442248 -0.033033367 0.031758163 0.049066704 -0.04137698 -0.12397854 -0.078165635 0.02857171
0.0394416 0.09655973 0.031536862 0.038246077 -0.02109292 0.0026169582 -0.012623843 0.007573872
0.088042565 -0.023588654 0.0057172277 -0.05337244 0.020909494 -0.0893192 0.013009097 -0.017331941
0.053773876 0.06062491 0.05757368 0.043447006 0.017261408 0.066414125 0.046710763 -0.039058328
-0.057456378 0.07516442 -0.0034526568 -0.19351168 0.037562095 -0.022804953 -0.09526514 0.05337654
-0.05833686 -0.006099475 -0.12148501 -0.10346911 0.049534652 0.033558007 0.021227665 0.03230292
0.027235478 -0.15295808 0.04688462 -0.036493316 -0.12222953 -0.033928577 0.026898779 0.07291328
-0.07083023 0.12589355 0.09451751 -0.01122886 0.06725297 -0.12651558 0.016155647 0.049603153
0.061906677 0.045581684 0.005658534 0.118896954 -0.21102497 0.058326203 0.049163245 0.08852561
0.025433373 -0.043286055 -0.029770268 -0.15548709 -0.019454401 -0.17684513 0.054734215 0.05535183
0.08367884 -0.122393556 0.05465924 0.09937895 -0.09706256 -0.010849637 -0.06918463 0.07080767
0.071816765 0.0030625337 0.09187844 0.051584184 -0.12918743 0.07180594 0.070275374 0.0522027
0.028314447 -0.024882434 -0.04035524 0.10924928 0.074453674 0.050047196 0.079295196 0.012150006
-0.08164068 -0.097581275 0.02987512 -0.0946012 0.10012892 -0.07192028 -0.14624234 0.051019218
-0.098205276 0.0011873171 -0.064706445 -0.047385186 -0.03583353 0.01986175 0.058043633 -0.05942633
00000000: 89cd 01bd 33c5 8ebd 65be 8a3c b3ed 06bd
00000010: 2075 f1bc 5e27 a1bc 2fb9 f2bc 83ed 6a3d
00000020: cf62 9bbd 8e47 cb3c e3a4 1f3d f705 abbd
00000030: 0bd4 943c 9410 c63c 6c52 77ba 3247 20bc
00000040: f3a9 85bd f39b 17bc ed52 12bc 5f86 08bd
00000050: 817a 843a 10de 18bd efa9 6e3c 5cbd 8abd
00000060: 673c 2ebd c156 67bd 9540 a7bc 9ef8 83bc
00000070: 913f 7abd 28b2 da3b 47b1 63bd 248e ce3b
00000080: 3311 93bd 2bac 0bbd b270 9dbd 09d0 1e3d
00000090: dd64 f33c ad71 12bd e082 80bd 75d5 b23c
000000a0: d3f9 533c 3fcb 60bd 90a6 afbc fca7 883c
000000b0: 4d5e 80bd 9fc8 e3bc f603 9c3d d67b 50bd
000000c0: c483 553c 6f72 82bc 520f 663d f192 963c
000000d0: 26c3 21bd 1645 6dbd 7292 e4bc cef6 98bc
000000e0: 1144 80bd 3b2e 1abb 8a78 5abd 6153 cd3c
000000f0: 44dc b73c d311 30bc 78fa 53bd 3db9 30bd
00000100: 3837 5abc 38e5 8dbc 2df9 55bd ae96 453b
00000110: 2618 f3bc 8576 8cbb 766b ae3a ca83 9cbd
00000120: 12a5 8fbd b708 0abd 2618 d9bc 7999 63bd
00000130: 4faf 023d 4c39 32bd 151c 83bd 2f58 85bd
00000140: acfe b7bc 5398 1b3d 6027 aebc 9ff5 ee3c
00000150: 11ba 25bd 5345 2e3c 676f a6bd bc2d 8abd
00000160: 2999 36bd c6de 733d e454 50bd 84e1 0abd
00000170: bbbb bb3d ec17 bfbd 029f ad3d c650 2ebd
00000180: e18c 95bd 99a1 2bbd 66e2 42bd 4f3b e0bc
00000190: 7eff 35bb 2d69 13bd 82c6 efbc 4b18 f9bc
000001a0: 3b60 97bd e020 5dbc 5829 d7bc 22aa 8cbd
000001b0: 9538 26bd 9daa 2abd 67f7 57bd 99be ea3b
000001c0: 0ed8 0fbd 7806 c13c e2b5 55bd 10cf 7dbc
000001d0: a931 84bd dcb3 a53d 33be 2f3d 09d4 27bd
000001e0: e9d9 de3c b11f 2ebc ebc2 1dbc 7975 fd3b
000001f0: 467a c0bc 276e 283d 0e55 93bd f1f4 0bbd
00000200: 01fe 4b3d 6438 b83d 2fd9 06bd 9d70 b33c
00000210: 27f1 80bc 6970 de3d 54c1 5c3d 6dbb 8cbd
00000220: 9360 c13d ff4d 07bd d914 023d 2bfa 483d
00000230: e87a 29bd 76e8 fdbd 4e15 a0bd 380f ea3c
00000240: 848d 213d 1cc1 c53d cc2c 013d eba7 1c3d
00000250: 0fcb acbc 4681 2b3b 3cd4 4ebc 3e2e f83b
00000260: a94f b43d fe3c c1bc 9557 bb3b 0f9d 5abd
00000270: 634a ab3c fcec b6bd 1c24 553c b7fb 8dbc
00000280: ff41 5c3d d351 783d 61d2 6b3d 7df5 313d
00000290: cc67 8d3c 2104 883d c953 3f3d a0fb 1fbd
000002a0: 6157 6bbd ceef 993d f845 62bb ed27 46be
000002b0: b6da 193d 74d1 babc 5f1a c3bd 5ca1 5a3d
000002c0: a2f2 6ebd 1bde c7bb 22cd f8bd 9de7 d3bd
000002d0: d9e4 4a3d 1f74 093d a4e5 ad3c 1150 043d
000002e0: f01c df3c 0ba1 1cbe 160a 403d 047a 15bd
000002f0: 7a53 fabd b1f8 0abd d45a dc3c 8f53 953d
00000300: 710f 91bd 3dea 003e 6592 c13d 41f9 37bc
00000310: edbb 893d 4d8d 01be d958 843c ad2c 4b3d
00000320: db91 7d3d dcb3 3a3d 396b b93b 3f80 f33d
00000330: ee16 58be 75e7 6e3d 665f 493d ea4c b53d
00000340: a659 d03c b84c 31bd c7e0 f3bc 0238 1fbe
00000350: d65e 9fbc e416 35be fc30 603d 9ab8 623d
00000360: d05f ab3d 79a9 fabd 5ee2 5f3d 3187 cb3d
00000370: bcc8 c6bd adc2 31bc acb0 8dbd 9d03 913d
00000380: ab14 933d cab4 483b c32a bc3d f049 533d
00000390: b649 04be fe0e 933d 89ec 8f3d 80d2 553d
000003a0: b3f3 e73c 3fd6 cbbc 894b 25bd 16be df3d
000003b0: 2b7b 983d 4afe 4c3d 8565 a23d d210 473c
000003c0: 3b33 a7bd b1d8 c7bd abbc f43c 46be c1bd
000003d0: 6410 cd3d f14a 93bd 8dc0 15be 87f9 503d
000003e0: d91f c9bd c09f 9b3a d084 84bd f816 42bd
000003f0: 2ec6 12bd 1cb5 a23c 29bf 6d3d 0669 73bd

action_model._discrete_distribution.branches.0.bias f4 [4]
-0.11660822 0.0719777 0.043782346 -0.028435387
00000000: 4ad0 eebd 0b69 933d 1e55 333d 54f1 e8bc
